pol_models/aqi_last_30_model_state.pt (torch, 650572 bytes, 16 tensors)

conv1.weight f4 [64, 300, 3]
000000 30 de d5 bb 74 26 3e 3c 0c 11 08 bd 22 f2 fc bc
       -0.006526731 0.011605848 -0.033219382 -0.030877177
000010 2c 20 9d bc af 6d 47 3b 08 77 e1 bb cf 8f a5 3c
       -0.01918038 0.0030430367 -0.0068806447 0.020210175
000020 1b 86 11 bc d5 40 4c 3b 3a 31 81 bc 59 08 42 bc
       -0.008882071 0.0031166573 -0.015770543 -0.011842811
000030 ae 0e 16 bd c4 85 db bc 8f b0 92 bc 87 d3 17 bb
       -0.036635093 -0.026797183 -0.017906455 -0.0023166852
000040 b6 f0 1f 3c b1 7f 8b 3c 6c 7d ed bc 70 f8 aa bc
       0.00976198 0.017028661 -0.02899047 -0.020870417
000050 14 06 c7 3b 70 01 b2 3c 4f c8 51 bc d2 4e 9f 3c
       0.0060737226 0.021729201 -0.012804105 0.019446764
000060 ea ee 3f bc 15 eb 38 bb 89 6f c6 3c 87 6d 18 bd
       -0.011714676 -0.0028216292 0.024223106 -0.03721383
000070 79 9a df bc d7 90 6b bc e2 16 9f bc 0a 93 b7 3c
       -0.027295338 -0.014377794 -0.019420091 0.02240898
000080 cf f9 e1 bc 6f af b2 bc f4 c8 f3 bc 2d 96 18 bd
       -0.027584938 -0.021812169 -0.029758908 -0.037252594
000090 da bf be bc 71 a2 cb 3c 16 e9 3b 3c 0d f3 29 3c
       -0.023284841 0.024857732 0.011469146 0.010372889
0000a0 f1 ac 83 bb 62 5e b8 bc 6d 23 2a b9 3b f7 16 bd
       -0.004018419 -0.022505943 -0.0001622566 -0.03685687
0000b0 69 28 f0 bc 1e 08 c1 bc 3a 30 70 3c 6e 91 5e 3c
       -0.029316144 -0.02356344 0.014659936 0.013584478
0000c0 09 51 ad bc 55 6e f8 bb cc a1 7b 3c 1c c1 ee 3c
       -0.021156805 -0.007581512 0.0153584 0.029144816
0000d0 7f c1 17 3c 33 5c 7b 3a d9 1c 83 3c 85 5a d4 bc
       0.009262442 0.0009588629 0.016004967 -0.02592207
0000e0 42 68 af 39 44 c9 02 bd 0d f9 ee bc c2 15 bc bc
       0.0003345628 -0.031930223 -0.029171491 -0.022959594
0000f0 88 32 0f 3c 48 bd e7 3b 99 b1 d1 bc d9 4e 71 3b
       0.008740075 0.0070721246 -0.02559738 0.0036820679
000100 8f 8b 43 3c 90 fc 27 bc 9d bb 99 bb 11 4e e7 3a
       0.011935129 -0.010253087 -0.0046915547 0.0017647167
000110 9a 5d 76 3c 2f 2e d4 3c 47 2b 02 bd c9 2c 92 bc
       0.015036965 0.025900928 -0.031779554 -0.01784362
000120 0e 55 eb 3b 88 40 b2 3c b9 7d c1 3c e5 3c bc 3c
       0.00718177 0.021759287 0.02361952 0.022978256
000130 e1 a8 67 39 08 71 0f bd 4f 96 22 bb 2a 4b d8 bc
       0.00022092789 -0.035019904 -0.002480883 -0.026403029
000140 14 36 14 bd c1 aa c0 3c 23 6d 9d 3c c7 a9 1f bd
       -0.036184385 0.023518922 0.01921708 -0.03898027
000150 bb ff df b8 49 e8 43 bc 06 77 3a bc 4e 7d 93 bc
       -0.00010681102 -0.011957237 -0.011380916 -0.018004086
000160 76 6f 22 3c 56 74 b8 bc 64 ba 00 3c ed 9b 4c 3c
       0.00991427 -0.02251641 0.007856939 0.0124883475
000170 a2 48 a2 3c 94 46 e7 3b f2 02 1d bd af 9f d8 bc
       0.019810025 0.007057974 -0.038332887 -0.02644333
000180 58 44 28 3c 70 bf 1c 3a b2 eb 02 bd 86 fc d0 bc
       0.010270201 0.0005979454 -0.031963058 -0.025511038
000190 6a 1e cd 3c 3b 0c 88 3c 18 e4 aa bc 70 5f 70 bc
       0.025038917 0.016607394 -0.020860717 -0.014671192
0001a0 97 6e 1a bd 6d 11 da bb c1 8c ff bc 9a b4 00 bd
       -0.037703123 -0.0066549093 -0.031195046 -0.031422235
0001b0 a7 5a 03 bc 85 2a 9c ba 40 74 9e bc 7b f4 5f 3c
       -0.008017219 -0.0011914527 -0.019342542 0.0136691285
0001c0 ac 44 d8 bc 03 9a c8 3c 45 f5 ad 3c f0 59 f6 bc
       -0.026399933 0.024487501 0.021235118 -0.030072182
0001d0 46 d6 27 bc 77 df 93 bb e7 4b 97 ba 9a 72 11 3b
       -0.010243958 -0.004512723 -0.0011543006 0.0022193552
0001e0 f2 52 d9 3b 78 7e 91 bb fc 7f b6 bc eb 74 18 3c
       0.0066322023 -0.004440125 -0.022277825 0.009305219
0001f0 65 79 1d bd 34 47 d3 bc a2 5e 72 bc a6 be b9 bc
       -0.03844585 -0.025790788 -0.01479307 -0.022673916
000200 69 ca 90 bc eb fe 07 bd 84 88 54 bc b4 8d cc 3a
       -0.017674642 -0.033202093 -0.012972001 0.0015606196
000210 bf c0 e2 bc c2 4f fb bb e9 40 95 3c 99 f4 08 bc
       -0.0276798 -0.00766942 0.018219428 -0.008359098
000220 73 b1 80 bb ca 81 eb bb ca 4d a7 3a 69 a6 80 3c
       -0.0039274036 -0.007187103 0.0012764272 0.01570435
000230 ce 9a d8 3c 6a a9 6f 3c cb 95 cd 3c 78 72 0b bc
       0.026441004 0.014627794 0.02509584 -0.008511178
000240 d6 e3 0b bd b1 3a a4 bc c1 45 99 3c 5a 56 d3 bb
       -0.03415283 -0.020047517 0.018710019 -0.006449503
000250 af 95 ba bc 83 b6 00 bd 91 0d 18 bd 66 8b 0b bd
       -0.022776453 -0.031424057 -0.037122313 -0.034068488
000260 a3 8f 49 bc 12 18 42 3c 86 31 3e 3c 41 64 1c bd
       -0.012302312 0.011846559 0.011608487 -0.038181547
000270 71 95 7d 3c 82 ac 00 bd 55 db 45 bc 90 0d a3 bc
       0.015477524 -0.031414516 -0.012076219 -0.019903928
000280 de 75 51 bc cc 48 4e bc 9c 75 14 bd 0d bb 0f bd
       -0.012784449 -0.012590598 -0.036244974 -0.035090495
000290 a6 a9 34 bc 8c 26 c3 bb a2 32 b0 bc bf 55 d9 3b
       -0.011026775 -0.005955523 -0.021508519 0.006632536
0002a0 d6 ab 14 bd 9b cc 0b bc e6 2a c0 3c 8d 21 a3 bc
       -0.036296688 -0.008532668 0.023457956 -0.01991346
0002b0 c4 cf c2 3c 48 c5 cb 3b 7e bf 14 bd 3c d2 73 3c
       0.023780711 0.006218586 -0.036315434 0.014881667
0002c0 46 5d 1f bc 33 45 ad bc 7f f0 a6 3c 74 3b 06 bd
       -0.009726828 -0.02115116 0.02037835 -0.032771543
0002d0 b3 58 36 bb 0d 11 5a bc fb 13 93 3c 28 45 45 3b
       -0.0027823865 -0.013309729 0.017953863 0.0030101035
0002e0 91 88 1f 3c ab ef c1 3b ae 90 6c bc c1 89 5b bc
       0.00973715 0.005918463 -0.014438791 -0.013399542
0002f0 fa ee 08 bd b7 9b 43 3c e8 a4 a6 3c b2 b4 8b 3c
       -0.03343103 0.011938981 0.020342305 0.017053936
000300 ce 81 f2 bc 52 47 97 bb b8 0e f0 bc 06 55 cb bc
       -0.029602911 -0.0046166563 -0.029303893 -0.024820816
000310 b0 c1 d3 bc d7 a8 b1 3b 99 bd d4 bc d3 74 df bb
       -0.025849193 0.0054217386 -0.025969313 -0.0068193465
000320 bb 77 8a bb 5f 25 75 3c bb f7 01 bd 65 45 ed bc
       -0.0042256988 0.014962523 -0.031730395 -0.028963754
000330 94 02 d2 bc bc fb 8b 3c 73 82 92 bc f8 2d b6 3c
       -0.025635995 0.01708781 -0.017884469 0.022238716
000340 27 b2 ca 3b 51 fe 9f ba 7d f0 dd bb 86 ff 56 bc
       0.006185788 -0.001220653 -0.006773053 -0.013122445
000350 c3 bf f8 ba f4 97 57 bc 76 85 bd bb d4 0c 63 ba
       -0.0018978048 -0.013158787 -0.005783732 -0.00086612743
000360 e0 f4 04 bd f4 45 c3 bc 16 f8 ab 3c fe 0a 09 bd
       -0.032460093 -0.023837067 0.02099232 -0.03345775
000370 a1 cf 0e bc d3 57 dd 3c 11 7b cb 3b 17 3a 9e bb
       -0.008716495 0.027019417 0.006209739 -0.004828702
000380 44 51 0c bd 81 35 25 3c b1 3f f7 bc c2 60 7d bc
       -0.03425719 0.010083557 -0.030181738 -0.015464963
000390 8e 9a 8f bc fd c7 38 bc d3 3c b5 bb cb e0 c1 3c
       -0.017529752 -0.01127815 -0.0055309325 0.02366676
0003a0 49 c2 bf 39 17 b1 d8 3c a1 ee 65 3c ba a1 e0 bc
       0.00036575113 0.02645163 0.014033944 -0.027420867
0003b0 aa f5 11 3c 4c 9b f5 bc 5c c5 a7 bc 99 a5 7a 3b
       0.0089086685 -0.029981278 -0.02047985 0.0038245677
0003c0 0b 9d a7 3b 5a bd 9c 3c 11 c9 83 bc 32 8f cd bb
       0.0051151565 0.019133259 -0.016087087 -0.0062731737
0003d0 35 3e 32 3c 32 69 1c bd ec 14 b5 3c 84 8e f4 bc
       0.010879089 -0.03818626 0.022104703 -0.029853113
0003e0 b9 b4 f0 ba cb f5 40 bc d0 e9 c1 bc 4e 45 b1 ba
       -0.0018364406 -0.011777352 -0.02367106 -0.0013524683
0003f0 3d 44 c7 3c 94 69 55 bc d1 fa ba bc ec b1 99 bc
       0.02432453 -0.01302566 -0.022824677 -0.018761598

conv1.bias f4 [64]
000000 f7 b5 84 3b ae bd 4e be 4e 45 ad bc 00 b6 61 3b
       0.004050012 -0.20189545 -0.021151211 0.0034440756
000010 ec 93 23 bd 95 7d 00 3c 99 32 5b bc e9 94 fa 3b
       -0.03993599 0.007842441 -0.013378763 0.007647146
000020 4b 31 16 bd 92 d6 dc bc f8 55 d9 3c c2 49 02 be
       -0.036668103 -0.026957784 0.02653025 -0.12723449
000030 33 e1 55 be 76 df 60 be 9e e8 1d bd 3b b4 49 3c
       -0.20886688 -0.21960244 -0.03855192 0.012311037
000040 00 8a ab ba 35 23 c6 bc 56 a4 a1 bd 10 52 03 bc
       -0.0013087392 -0.02418671 -0.07892673 -0.008015171
000050 75 ab 14 bb 83 36 42 be 09 df e6 bc c5 0e 10 bc
       -0.0022685204 -0.18966107 -0.028182523 -0.008792584
000060 d1 fd b2 bb 57 2d ef bc 06 ca 20 be e3 c6 de b9
       -0.005462386 -0.029196424 -0.15702066 -0.00042491322
000070 82 87 0f bd ff 38 51 3c 61 30 8b be 85 7a bb bd
       -0.03504134 0.012769937 -0.27185348 -0.09154228
000080 e8 82 59 3c a9 88 f3 bc 76 0f 19 3b b6 b1 e9 bc
       0.013275839 -0.02972825 0.0023355163 -0.028527122
000090 bf 88 a8 bd 43 7b bf 3c 6d aa 43 3c 9a ad ba 3c
       -0.08229207 0.023374205 0.011942488 0.022787858
0000a0 e6 b3 13 3c 14 e3 48 bd 2a 24 1a 3c 7e 83 36 be
       0.009015059 -0.049044684 0.009408036 -0.17823598
0000b0 67 eb de 3c 9f 3a 91 bc 1d 59 15 3c 11 fc d8 bc
       0.027211858 -0.017728148 0.009115485 -0.026487382
0000c0 65 bf 0f bd 42 9f 1b be 42 f4 b1 bc 36 7e ba bc
       -0.035094637 -0.15197471 -0.021722917 -0.02276526
0000d0 e6 85 54 3c fd 71 8d bc 0c 9d 99 3d 1c 16 08 bd
       0.012971377 -0.017266268 0.075006574 -0.03322421
0000e0 05 b8 d2 bb 86 aa bc 3c 06 92 04 3c 77 74 59 bc
       -0.0064306282 0.02303053 0.008091455 -0.013272396
0000f0 6c a1 ad 3c 1c fa 05 be 66 6a d6 bc e5 a2 a2 bc
       0.021195136 -0.1308369 -0.026173782 -0.019853065

conv2.weight f4 [128, 64, 3]
000000 dc c3 82 bd 30 92 62 3c b2 3d d5 bc 64 11 15 bd
       -0.063850135 0.013828799 -0.026030395 -0.036393538
000010 4d f0 c2 bc 04 8c 7e bd a4 2b 52 3d b7 af 99 bd
       -0.023796225 -0.062145248 0.05131115 -0.07504218
000020 48 d4 57 bd 85 fd 49 bd 50 88 7b bc d0 5d 7d 3c
       -0.05269268 -0.04931404 -0.015352324 0.015464261
000030 a7 1c 6c bd 13 8a 31 bd 16 aa 32 bd c2 9d 53 3c
       -0.057644513 -0.04334457 -0.043619238 0.01291603
000040 34 a9 b1 bc 73 0a 02 bd 13 1f 43 bd 5a 8f 04 3d
       -0.021687128 -0.031748246 -0.047637057 0.032363273
000050 3d 2e 45 bb 4f 81 c5 bc c7 b1 9b bc fc 31 76 3c
       -0.0030087375 -0.02410951 -0.01900567 0.015026566
000060 6d 36 03 3c 83 5e 22 3d 09 9a 00 3d b6 96 c7 bc
       0.008008582 0.039640915 0.0313969 -0.024363857
000070 9c 93 37 3c b4 b5 3a 3b 04 34 c6 bc d4 7b 3f 3d
       0.011204626 0.002848965 -0.024194725 0.04674895
000080 ef a6 c3 3c 8b 7b 6d 3d 8b c2 3f bd 94 54 0e 3c
       0.023883311 0.057979148 -0.04681639 0.008687157
000090 14 f9 35 3c f2 3e a5 bd a8 57 9b 3c ac b1 1b bd
       0.011106748 -0.080686465 0.018962696 -0.038011238
0000a0 a1 b5 e8 bc dd da 4e bd 1d 2b 09 bc ed 59 9e bd
       -0.02840692 -0.050501693 -0.008372095 -0.07731996
0000b0 a9 8f 06 bd c3 a2 86 3d 8c 06 91 bd c9 2a 9b 3c
       -0.03285185 0.06574013 -0.07081327 0.0189413
0000c0 1b 1d 39 bd 8c e2 de 3c 57 f5 8a 3d 7f 2f 32 bd
       -0.045193773 0.027207635 0.06785076 -0.043502327
0000d0 a2 49 92 bd 23 42 82 3b 88 e0 bb 3c 49 3a b5 3c
       -0.071429506 0.0039751693 0.022934213 0.02212252
0000e0 e6 a2 07 bc 72 59 6b bc d9 49 a7 bd c1 b8 80 bd
       -0.008278584 -0.014364587 -0.08168382 -0.06285239
0000f0 d3 5a 1e 3d 22 5d 7f 3d fc 71 66 bd f4 d3 8d ba
       0.038660835 0.062344678 -0.056261048 -0.0010820613
000100 46 cd d2 bc d8 a4 7c bd 90 ce d6 3c e3 5d 88 3c
       -0.025732648 -0.061680645 0.026221544 0.016646331
000110 48 f8 f1 3c ce 85 2b bc df 69 7e bc 00 d4 75 3d
       0.029537335 -0.010468913 -0.015528171 0.060016632
000120 f9 59 9e bc e1 7d a6 bd 89 16 61 bd ea 34 4a 3b
       -0.019330012 -0.08129478 -0.05495313 0.0030854293
000130 25 29 2f bd 23 08 85 bd 6a 2d 66 bd b9 e5 87 bd
       -0.042763848 -0.064956926 -0.056195654 -0.06635613
000140 4b f4 80 bd 0f 4d 01 3c d6 6e 49 bd ff 3a a9 bc
       -0.06296595 0.007891907 -0.049177967 -0.020658014
000150 0a 05 1b bd ba a8 7c 3d 48 7a 64 3d 98 63 7f bd
       -0.037846602 0.061684348 0.05578068 -0.06235084
000160 b8 6a 8b bd 01 c9 69 bd 7e 76 8d bd 21 17 03 bd
       -0.06807464 -0.057076458 -0.06907366 -0.03200448
000170 4f 0d 50 3c b4 92 75 bd d1 ca a9 bd ef 09 fd bb
       0.0126984855 -0.05995436 -0.08290637 -0.0077221314
000180 24 a8 10 3c 84 0e 76 bd 73 0c f2 bc 11 00 ac bd
       0.00882915 -0.060072437 -0.029546952 -0.0839845
000190 79 09 4e bd 38 c5 21 bd 26 7e d4 3c 2c 8c a8 3c
       -0.050302003 -0.039494723 0.025939059 0.020574652
0001a0 7a 43 3e bc 7a 79 5e bd 30 0e 26 3c c2 03 53 3d
       -0.011612767 -0.054315068 0.0101352185 0.051517256
0001b0 fa 64 25 bc 24 bf 3e 3d 42 7d 70 3d e8 4f 8a bd
       -0.0100948755 0.046569005 0.058713205 -0.06753522
0001c0 c2 37 2c 3d 0e f1 9a bd 74 af 93 3d 90 38 0c 3c
       0.042045362 -0.07565509 0.072111994 0.008558407
0001d0 22 9e 35 bd b7 fb e5 3b 1e 5a 1a 3c 5f 9f 8a bd
       -0.04434026 0.007018532 0.0094209 -0.06768679
0001e0 f0 e6 be bb 89 b5 00 3d 2e ba eb bc e0 99 95 3c
       -0.0058258697 0.031423125 -0.0287753 0.01826185
0001f0 e7 ca f3 3c bd 32 13 3d 58 31 70 3d 22 11 86 bd
       0.029759837 0.03593706 0.058640808 -0.065462366
000200 6c b4 fe bc f3 c4 34 bc b5 52 29 bc 92 9c 57 bd
       -0.031091891 -0.0110332845 -0.01033466 -0.05263955
000210 85 c3 28 3d 0d eb 0d 3d 90 99 74 bd 60 dc d2 3b
       0.041202087 0.03464799 -0.05971676 0.006434962
000220 38 ca 89 bd 68 f9 79 3d ed 24 67 3c 2d 12 5b 3d
       -0.06728023 0.061028868 0.014107925 0.05348413
000230 cb a8 0b bd db 37 63 bd e7 cc 5c 3c df f9 23 3d
       -0.03409652 -0.05547319 0.013476587 0.040033218
000240 63 46 8a bd 27 ed 48 bd 0e b4 34 bd 87 ce a4 bd
       -0.067517065 -0.04905429 -0.044117026 -0.080472045
000250 81 ae a6 bd 5c e1 85 bc d2 9e 13 bd 04 2f e4 bc
       -0.08138753 -0.016342811 -0.036040135 -0.02785445
000260 11 be 33 bd 9f c7 80 3c ee a7 94 bd e2 08 7e 3c
       -0.043882433 0.015720187 -0.072585925 0.0155050475
000270 d4 24 4d bc 20 3b 23 3c dc dd 4c 3d 5c 5b 9c bc
       -0.012520988 0.009962827 0.05001627 -0.019086532
000280 14 36 71 bd af 53 f2 bc 33 93 96 3c d5 2d b8 3c
       -0.058889464 -0.02958092 0.018380737 0.022482792
000290 6e 2e 21 3d ee 44 aa bc da 83 42 bc 4a 6b 26 3d
       0.03935092 -0.020784821 -0.011872256 0.040629663
0002a0 f2 ba 60 3d b8 33 03 bb 6e 86 23 3c 53 a7 97 bd
       0.054865785 -0.002001984 0.009980781 -0.074049614
0002b0 54 f7 b8 35 e8 d4 f9 bb 53 a6 2a bc ed cf 44 3d
       1.378105e-06 -0.0076242574 -0.010415631 0.048049856
0002c0 3a 76 18 bb f5 eb 1b bd 8b e2 c1 bc 19 c2 45 3d
       -0.0023263828 -0.038066823 -0.023667594 0.04828081
0002d0 6f 0f 87 ba 6c a1 8b bd 4d ef 22 3d d8 cb 6e bd
       -0.0010304282 -0.06817898 0.039778996 -0.05829987
0002e0 cd 4f 17 3c 96 ed 0e bc f8 61 98 bd 46 0a f0 bc
       0.009235335 -0.008723637 -0.07440561 -0.029301774
0002f0 cc 00 1b 3d 84 c7 ba bc ed 45 87 bd 74 e5 66 bd
       0.037842557 -0.022800215 -0.06605134 -0.056371167
000300 42 c8 71 3d 72 4d 50 3d 82 01 d1 bc a5 5f a5 bc
       0.05902887 0.050855108 -0.025513414 -0.020187208
000310 72 06 09 ba 8e dd 96 bc 91 94 4a bb 3b 6f 0a 3d
       -0.00052270957 -0.018416192 -0.0030911306 0.033797484
000320 19 d5 2f bd b0 ea f1 bb 93 3b 08 bd 2e ff 18 bd
       -0.042927835 -0.0073827133 -0.03325994 -0.037352733
000330 8d 06 f4 bc 92 b4 8c b9 8d e7 f4 3c 1d f6 cb bc
       -0.02978828 -0.00026837416 0.029895568 -0.02489763
000340 5a 2b 8b bc 0a da b5 3c a5 ae 3f ba 77 94 3a 3b
       -0.016988445 0.022198696 -0.0007312096 0.002846984
000350 a1 33 a2 bc 2e 79 cf 3b b3 da 9d bd db b9 36 3d
       -0.01980001 0.0063315844 -0.07707729 0.04461084
000360 78 c3 b3 bc 7b 5d 89 3c 2f a8 8d bd 17 17 39 3c
       -0.021943793 0.016768208 -0.06916844 0.011297009
000370 0e a3 36 3d 59 b6 cc bc f3 bb c0 3c d2 4d 7a bd
       0.044589095 -0.024989294 0.023527121 -0.06110937
000380 2e 9c c1 3b 92 ae ed 3b ae 22 b7 3d 0e 8c 31 bd
       0.0059085106 0.0072534764 0.089421615 -0.043346457
000390 07 7b f2 bc 79 b2 96 bd 11 9f 4e bd db ef 66 bc
       -0.02959968 -0.0735826 -0.050444666 -0.014095272
0003a0 e4 d5 91 3d 42 10 8b 3c 1c b7 5a bc 9e 52 65 bd
       0.071208745 0.016975526 -0.013349321 -0.055986993
0003b0 c7 d2 95 3c 7d 45 71 3d f4 e8 f2 3c 6a 02 1b 3d
       0.018288983 0.05890416 0.029652096 0.0378441
0003c0 af 04 29 3d 06 3e b3 bc 69 e6 60 3c 46 7e a7 bc
       0.041264232 -0.021880161 0.013726809 -0.020445954
0003d0 e9 f9 71 3d 63 bf 3b bd ee 0b e2 3b 12 16 6c 3d
       0.059076224 -0.045836817 0.006898395 0.057638235
0003e0 d9 5a 10 bd 9e 04 86 3d 33 d0 29 bd f5 98 11 3d
       -0.03524289 0.065438494 -0.04145832 0.03554626
0003f0 11 0c 49 3b 1f 71 b2 bc 0c a6 67 bd 50 59 33 3d
       0.0030677358 -0.021782456 -0.05655484 0.043786347

conv2.bias f4 [128]
000000 d4 6d aa bd 17 ff 6b 3d 2e 89 1d be fb 63 11 be
       -0.08321729 0.05761632 -0.15384361 -0.14198296
000010 b3 35 a2 bd 2b a3 5e be 5e 04 3f be 54 25 19 bd
       -0.079203986 -0.21741931 -0.1865401 -0.037389114
000020 3b 88 2f be 25 22 16 be 04 ca 46 bd 71 5c c3 3d
       -0.17141812 -0.14661463 -0.0485325 0.09539116
000030 61 9b 62 bd 8d 8c 36 3d e6 97 78 bd 5d 39 56 be
       -0.055323962 0.044567633 -0.060691737 -0.2092032
000040 50 37 eb 3d e1 41 98 bd 86 87 47 be a8 da f9 bd
       0.114851594 -0.074344404 -0.19485292 -0.121999085
000050 68 a7 4f bd af 7d 8a bd 57 f1 17 be 35 41 b2 bd
       -0.05069676 -0.067622535 -0.14838158 -0.087038435
000060 b2 ed e4 bc eb e0 eb bd e1 59 2f 3d c4 fd 97 bd
       -0.027945373 -0.11517509 0.042810325 -0.07421449
000070 ea 42 8d bd eb 52 bc bd f4 19 0f be 7e 10 0c be
       -0.068975285 -0.09195503 -0.13974744 -0.13678166
000080 d9 f3 b3 bd c5 d8 f2 bd a3 c8 40 bd 73 bc 60 bd
       -0.087867446 -0.11857752 -0.047066342 -0.05486722
000090 f8 9e c0 bb e1 40 8d bd 90 b0 c1 bd 35 f2 c7 bd
       -0.0058783256 -0.0689714 -0.09457505 -0.09762994
0000a0 29 70 50 3e 87 06 ab bd c7 86 01 be b7 a8 4d be
       0.20355286 -0.08350854 -0.1264907 -0.20083891
0000b0 1e 75 0d be 0b ff f5 bd 59 8b 9d bd 06 aa 07 bb
       -0.13814208 -0.12011536 -0.07692594 -0.0020700707
0000c0 f4 47 ea bd e8 6c c0 bd ba 2d fb 3d 91 26 04 bd
       -0.11439505 -0.09395772 0.12264581 -0.032263342
0000d0 61 03 e3 bd 3f ed 3f 3e 27 ca e8 bd 6f 53 da bd
       -0.11084629 0.18742846 -0.113666825 -0.10660445
0000e0 17 25 ff bc a6 1a c0 bd a0 42 9c bd 51 36 98 bd
       -0.031145616 -0.09380083 -0.07629895 -0.07432235
0000f0 b7 0f 74 bd c0 2b 7b bd 1a 9c 3f 3e 16 16 85 bd
       -0.0595853 -0.06132102 0.18711892 -0.06498353
000100 f1 a6 7e bd 4f 8f 0e be e2 26 37 bb 67 a0 66 bd
       -0.062170926 -0.13921855 -0.002794676 -0.056305315
000110 6f 7d 8e bd d2 1d 06 bd 90 3d 1e 3e 4c 23 af bd
       -0.06957518 -0.032743283 0.15453172 -0.08551654
000120 38 66 01 be 34 8a 58 3d a6 bc 14 be 4d 4a 20 bd
       -0.1263665 0.052866176 -0.14525089 -0.03913336
000130 6d 63 95 bc 0c 6f a2 bd ab 85 18 3e b5 12 25 bc
       -0.018235886 -0.07931337 0.1489474 -0.010075261
000140 69 99 65 bd 61 90 1e be 04 39 36 be f0 6d 53 be
       -0.056054506 -0.15484764 -0.17795187 -0.20647407
000150 1b 4c 03 be ef e0 d2 bd 3d c9 4b bd 37 4d 1b be
       -0.12822 -0.10296809 -0.049752463 -0.15166174
000160 84 f4 85 bd 6c 0d c5 bd f6 4c 31 be 38 6f 49 bd
       -0.06540778 -0.09621701 -0.17314515 -0.049178332
000170 5f 77 0c be 81 12 c1 bd fe 62 bf 3a 78 9a 11 bc
       -0.13717411 -0.094273575 0.0014601646 -0.008886926
000180 21 4b e4 bd 36 77 03 3e 3f ee 54 be 36 2c fa bd
       -0.11147142 0.12838444 -0.20794009 -0.12215464
000190 af 5a 07 3e 17 4a a9 bc fa 8c 41 bd 03 76 a7 bc
       0.13218187 -0.020665212 -0.047253586 -0.020442015
0001a0 07 cc ae bd b4 8c f9 bd 9a 1b 1d be f9 5a 89 bd
       -0.08535009 -0.1218504 -0.1534256 -0.06706805
0001b0 fe 46 b3 bd 00 8f 9d bd 00 f1 d7 bd 0d ec 19 be
       -0.08753775 -0.07693291 -0.10544014 -0.15031452
0001c0 6d 34 33 3d 0f 80 40 3e 54 99 23 be 20 da 53 bd
       0.04375117 0.1879885 -0.15976459 -0.051721692
0001d0 8e e5 2d 3e 96 e9 69 bd 11 ad 6e bd 9f b9 88 bc
       0.169821 -0.05710753 -0.058270518 -0.016690074
0001e0 a6 ff b2 bd 42 ca 2a be 8d e6 45 bd 7c d8 04 bd
       -0.08740167 -0.16678718 -0.048315573 -0.032433018
0001f0 c5 79 43 be 07 09 5d 3e 50 90 e6 3d 46 8a 2c bd
       -0.1908942 0.21585475 0.11257994 -0.042124055

lstm.weight_ih_l0 f4 [200, 128]
000000 cf e8 a9 3d f8 b2 22 3d d9 82 f9 3b 4a e0 53 3d
       0.08296358 0.03972146 0.007614475 0.05172757
000010 d0 54 99 3d 53 7f 13 3e 48 95 1f 3e 2e 94 f2 bd
       0.0748688 0.14404039 0.1558429 -0.11844669
000020 b3 9b c5 3d 9e 79 0e 3e 11 39 e8 3d 0a 47 12 3e
       0.09648838 0.13913581 0.113390096 0.14284912
000030 f3 15 5e 3c e2 c4 8f 3d af b8 d1 3d 76 34 8f bc
       0.013555038 0.07019974 0.10240304 -0.01748107
000040 81 42 15 be 44 ca 6f bc db 13 a6 bd 7f ad 00 be
       -0.1457615 -0.014635626 -0.08109256 -0.12566184
000050 be 8a 44 3d af 42 d7 bd 12 84 22 be 78 ac 95 3d
       0.047983877 -0.10510766 -0.15870693 0.073082864
000060 4c e5 6c bd 6f 17 fb bc e7 f1 4a 3e a2 21 9a bd
       -0.057835862 -0.030650822 0.19818841 -0.07525946
000070 17 de aa bc fb f0 9a 3b 7c ae 1f bb b9 58 30 bd
       -0.020857854 0.004728434 -0.0024365475 -0.043053363
000080 9b d3 83 bd ce 1a 59 bd 0f a2 16 3d 71 33 4c 3d
       -0.06436845 -0.05300408 0.036775645 0.049853746
000090 3a f2 37 3d 1f 80 56 bd fb b4 bb 3d d9 f0 ea bd
       0.04490874 -0.05236828 0.09165379 -0.11471719
0000a0 8b 5a 47 3d d8 17 c3 bc 03 85 95 bd 3b 98 15 be
       0.048670333 -0.02381508 -0.073007606 -0.14608853
0000b0 9b 9b 97 bd 5d 01 b8 bc 1d 67 c2 3d 76 2a f1 3d
       -0.07402726 -0.022461588 0.094923235 0.11775677
0000c0 fe ef 65 3d 1b 6c 3c bd 1a 6e 85 3c 3a 0b 9d 3d
       0.056137078 -0.046001535 0.016287852 0.07668157
0000d0 0a a6 b3 3d 47 9c 1e be da fd 61 3c be eb 85 3d
       0.08771904 -0.15489303 0.013793433 0.06539105
0000e0 38 7a d9 3c 32 da aa 3c f4 ca 31 bd 1a 5f 2e 3d
       0.026547536 0.020855997 -0.04340644 0.042571165
0000f0 c2 5a 70 3d 6a f1 05 be a9 50 e8 3d 93 28 e1 bd
       0.058680303 -0.13080373 0.1134351 -0.10994067
000100 bb 79 82 3d 86 55 dd 3d b2 b6 f0 3c 8c fe 11 3e
       0.063708745 0.10807328 0.02938399 0.14257258
000110 d1 23 3c 3c f0 0c ac 3d 6e dd e3 be 55 cb 96 3c
       0.011483149 0.08400905 -0.44504875 0.018407503
000120 de d9 11 bd 3c 42 0a bd 0f e4 5e bd fe 2a 9d bb
       -0.035608165 -0.033754572 -0.054416712 -0.004796385
000130 03 33 43 3d a6 18 82 bd c6 32 1f 3c 57 15 a7 bd
       0.04765607 -0.063523576 0.009716695 -0.08158367
000140 75 0f a3 3b 51 fb 1e 3d 08 19 04 be 30 07 bf 3c
       0.004976208 0.038813893 -0.12900174 0.023318857
000150 3f 93 9d bd 6f 9a 03 be e6 88 b5 3d 73 6c 0f 3c
       -0.076941006 -0.1285188 0.08864002 0.008753884
000160 60 94 85 3d e0 5d 6b 3d 96 9f 95 bd 1d 8a 32 bd
       0.06522441 0.057462573 -0.07305829 -0.043588746
000170 85 e8 1c 3e 9f e5 af 3d 29 02 17 bc 36 36 89 3c
       0.15323074 0.085887186 -0.009216824 0.016749483
000180 62 dc e7 bd fa 66 c3 bd b6 c9 ed 3d c2 02 b2 3d
       -0.113213316 -0.095411256 0.11610739 0.08691932
000190 23 4a e9 be 8e 9e 61 3d 9b 59 85 3d e8 08 a7 3c
       -0.45564374 0.05508285 0.065112315 0.020389989
0001a0 c9 07 9d 3b e5 9d 8f bd 91 73 06 be a3 44 9e bd
       0.004792188 -0.07012538 -0.13130023 -0.07727935
0001b0 f3 3b f9 3d ba 46 0f bc a0 0f 62 3d 56 3c 15 bd
       0.121696375 -0.00874489 0.055190682 -0.036434494
0001c0 de cf 68 bc 4d 3d 9d bd 5b a1 7e 3c c2 d0 09 3b
       -0.014209716 -0.07677708 0.0155414 0.002102897
0001d0 09 f5 1f be 50 51 fe 3c 3e 8b 02 bd ab 81 c5 3d
       -0.15620817 0.031044632 -0.031871073 0.09643873
0001e0 ed a4 81 bc cf 88 32 3d 75 41 ba 3d 5e 5b a7 bd
       -0.015825713 0.043587502 0.09094516 -0.08171724
0001f0 cc 3f c7 3d 98 a2 bc 3d 3c d4 2c be cd fc dc bc
       0.09728965 0.092107 -0.16877836 -0.026976014
000200 e3 e4 84 bd e5 49 b2 bc 2b b1 49 be 73 c2 66 3b
       -0.06488969 -0.021763751 -0.1969649 0.0035211116
000210 3f f3 72 bd a9 72 f8 3c fc 94 86 bd d3 6d 85 bd
       -0.05931401 0.030328112 -0.06571385 -0.06515088
000220 eb 23 f7 bd 4c b5 3d bd 45 25 87 be c5 0f aa 3d
       -0.12067398 -0.046315476 -0.26395622 0.08303789
000230 ca 83 1e 3e b0 f2 df bd cd 10 48 bd 56 16 40 3e
       0.15479961 -0.10934961 -0.048844147 0.1875852
000240 1d 72 9a bb 2c 69 d5 3d b9 56 4c be 7c 9c 1e bd
       -0.0047133104 0.104204506 -0.19954957 -0.038723454
000250 f5 7b 9a 3d 1f 94 29 3e 78 25 6f bd 9d 0f 1a 3d
       0.07543174 0.1656041 -0.058385342 0.037612546
000260 48 f1 12 3e 88 33 4d bc ca dc 23 3e 08 01 08 be
       0.14349854 -0.012524493 0.16002193 -0.13281643
000270 39 5a 68 3d 62 76 5d 3a 8f 51 af bc c4 89 94 bd
       0.056726668 0.00084481214 -0.021401195 -0.07252839
000280 41 30 54 3d cd a9 b3 3d aa 25 1a 3e f3 e8 81 3d
       0.05180383 0.08772621 0.1505343 0.0634326
000290 d2 97 7e be cd cb cb 3d 70 85 b1 3c 7d 8a c0 3d
       -0.24862602 0.09950981 0.021670073 0.094014145
0002a0 8a 90 2e be f0 be 3c 3d 5e 4f 78 3d a7 22 06 be
       -0.17047325 0.04608053 0.060622565 -0.13099156
0002b0 b8 2e ac bd 4e 6a 1e be f8 f3 28 3e ea 70 3e bd
       -0.084073484 -0.1547024 0.16499317 -0.046494402
0002c0 b6 da 46 3d 33 0e 6d bd b8 12 93 bd 88 ab 61 be
       0.048548423 -0.05787487 -0.07181305 -0.2203809
0002d0 f4 8f bf bc fd 43 27 3e 2d 88 d5 3c 2b de af bb
       -0.023384072 0.16334529 0.02606591 -0.0053670607
0002e0 c9 4b 37 be a4 4c f8 bd 19 75 9c 3c 01 40 6c bd
       -0.17900003 -0.12123993 0.019098805 -0.057678226
0002f0 95 00 12 3d 18 28 21 bc 83 92 17 bd 64 70 67 bd
       0.035645086 -0.009836219 -0.03700496 -0.05650367
000300 25 a3 e7 bc 03 6d fe bd e4 8f e7 bd 0f d2 a0 3d
       -0.028276036 -0.12423136 -0.11306742 0.078525655
000310 8c 90 f6 bd 61 6d 7c bc d7 fa 7e 3d 05 c6 17 3d
       -0.12039289 -0.015406937 0.06225094 0.03705408
000320 62 e0 69 bd 62 97 19 3d 52 19 36 be df 5a b9 bd
       -0.057098754 0.037497886 -0.17783096 -0.090505354
000330 85 f0 0c bd bd 7c 45 bd 59 d7 08 3a c2 f9 26 bc
       -0.034409065 -0.048214663 0.00052200776 -0.010191383
000340 97 80 d1 bc e8 18 68 3d 7e 2d c3 bd 3d d2 80 bd
       -0.025574012 0.056664377 -0.09530161 -0.062901
000350 82 39 3a be 0d 28 b9 3d 18 d9 11 3e 4e a9 1e 3e
       -0.18186 0.09040842 0.14242971 0.15494272
000360 8c 6c a8 3d 88 f4 fa bd 93 04 56 3e ba 26 0a be
       0.08223829 -0.12253672 0.20900182 -0.13491336
000370 50 4f ec bd bb 0f 43 be f1 38 ed 3c 94 86 02 3e
       -0.11538565 -0.1904897 0.028957816 0.1274665
000380 65 a6 9d 3d b8 60 33 3e 75 73 32 be b2 cf 11 be
       0.07697753 0.17517364 -0.17426856 -0.14239386
000390 d3 fe 1c 3e 7c c1 ef bd 64 44 d6 3d ac 5d fb bd
       0.15331583 -0.11706826 0.10462263 -0.12273726
0003a0 fb 2d ae bd 9a ee 2a 3d 48 53 ae 3c 76 d5 35 bd
       -0.08504864 0.041731454 0.021279946 -0.044393025
0003b0 ff b8 ff 3d 9a c4 93 bd 2a 84 da 3d 95 48 d1 bd
       0.12486457 -0.07215233 0.106697395 -0.10218922
0003c0 aa 6c 61 3c c1 89 a4 3d c2 8d ee bd 2e 3c ae 3c
       0.013758818 0.08034087 -0.11648132 0.02126893
0003d0 b3 e6 c6 3c ea eb 00 be 2f ac c0 bd 82 64 2a be
       0.024279928 -0.12589994 -0.094078414 -0.16639903
0003e0 32 fd 4b bd 8e 47 0f be 13 d4 0c bd 6b f6 67 3b
       -0.049802013 -0.1399214 -0.034381937 0.003539468
0003f0 de d5 01 bd 26 f3 65 3d 0f f2 61 3d 35 54 f1 3d
       -0.0316981 0.056140088 0.055162486 0.11783639

lstm.weight_hh_l0 f4 [200, 50]
000000 13 8d c6 bd 45 7c b1 3d e4 6a db 3d 13 3a 2b bd
       -0.096948765 0.08666281 0.10713747 -0.04180343
000010 5f e0 52 3b b5 4c 34 3d 38 01 8e bd 28 46 74 bd
       0.0032177193 0.044018466 -0.06933826 -0.05963722
000020 14 88 d1 3d 6d 00 f9 3c 2f a4 f0 bd 05 58 0c 3e
       0.10231033 0.03039571 -0.117500655 0.13705452
000030 79 fb ac bd c7 b2 0d bc b7 ba 17 bd 12 82 85 bd
       -0.08446402 -0.008648581 -0.0370433 -0.065189496
000040 f6 f0 81 3c 2b ae 37 bd 5b f5 14 3e a2 cf c7 bd
       0.01586197 -0.044843834 0.1454672 -0.097564
000050 fa 5e 0f be d2 50 2c 3d 9b 84 11 3e 37 b3 6f 3d
       -0.14001074 0.042069264 0.14210741 0.058520522
000060 b4 f1 a8 bc 3a 1f ad bd 5a 2e 05 3e 22 2d 3c bd
       -0.020623066 -0.084532216 0.13005963 -0.04594148
000070 45 cc 2c 3e 6a 6d 2b be 6b 82 1f be b6 35 e1 3c
       0.16874798 -0.16740957 -0.15577094 0.027491432
000080 37 38 d7 bd 0e e2 ed 3c 7f 88 a5 3d 5f fd 54 3e
       -0.10508769 0.029038455 0.08082675 0.20799778
000090 24 73 90 3d 03 7c 29 bd d8 1f c7 bd 19 d1 5e bd
       0.07053211 -0.041378032 -0.097228706 -0.05439863
0000a0 ae 95 68 be 23 81 a2 3d 15 30 30 be 12 98 c8 3d
       -0.22713348 0.07934787 -0.17205842 0.0979463
0000b0 f0 5d 05 be 00 94 98 3c c6 5c 55 bb 56 92 ad 3d
       -0.13024116 0.01862526 -0.0032556518 0.08475177
0000c0 b5 41 0a 3e ad e4 08 3d 0b 88 6b 3d 11 c6 eb bc
       0.13501628 0.033421207 0.057502788 -0.028780969
0000d0 d5 38 2f 3e 8d 8a 87 bc 7d 54 aa 3c 21 0f 64 bd
       0.17111523 -0.016545558 0.02079224 -0.05567849
0000e0 c1 1d cd 3d 1b 11 59 3b dd cd 51 3c ed 51 08 bd
       0.10015441 0.0033121768 0.012805429 -0.033281256
0000f0 d6 cd 80 3c d7 21 b8 bd 04 a7 89 bd b5 33 fa bd
       0.01572315 -0.089908294 -0.06721309 -0.122168936
000100 20 65 3e bc 24 73 01 3e 63 d0 90 bc 7c ce 2b be
       -0.01162079 0.12641579 -0.017677492 -0.16777986
000110 e9 d1 90 bd 95 31 12 be 06 78 28 bb 61 f6 d6 bd
       -0.07071287 -0.14276727 -0.0025706305 -0.10496212
000120 7a 9c 81 3d 35 3e bb 3d 34 3b 39 bd b7 1d c2 3b
       0.06328674 0.091427244 -0.045222476 0.0059239524
000130 7e a6 84 3c e6 ac 02 3d 20 d8 0b be e5 6e 17 3c
       0.01619267 0.03190317 -0.13656664 0.009242748
000140 38 b7 a3 bd 68 3e b7 3d 23 d6 bf bd 16 86 ae 3d
       -0.079939306 0.0894745 -0.09367015 0.085216686
000150 a8 37 2d 3e 88 63 e0 3c bf 85 3d 3e b2 b3 47 3c
       0.16915762 0.02739121 0.18508051 0.012188839
000160 62 d3 fc 3b 3d 5e c3 3d f6 7c bc 3d 2f c4 3a 3e
       0.0077156285 0.09539459 0.09203522 0.182389
000170 1b e2 c5 3d aa be d4 bd 8f cd ed bd 28 8a e9 3d
       0.09662267 -0.10387929 -0.11611473 0.11403304
000180 77 08 cd 3d b8 77 dd 3b 37 77 84 3e 80 fb 04 be
       0.1001138 0.0067586564 0.25872204 -0.12986565
000190 60 62 cc 3d fc e5 ba 3d 80 d0 ae 3d 57 0c 15 3e
       0.09979701 0.09125897 0.08535862 0.14555489
0001a0 18 82 c1 3c e0 90 2a 3e 2a b8 26 3e e9 b6 1d 3e
       0.023621604 0.16656828 0.1628119 0.15401806
0001b0 7b 2d 69 be 16 74 b7 3d 0c e3 1b bd 96 50 89 bd
       -0.22771256 0.089576885 -0.038058326 -0.06704824
0001c0 82 7b 04 3e db ba 19 3e 74 b8 e2 3b 96 0a ae 3d
       0.1293774 0.15012686 0.006918961 0.08498113
0001d0 81 25 de 3d 4d fe a2 bc 15 4e 96 3d 1a b9 cb bd
       0.10846997 -0.01989665 0.07339112 -0.09947415
0001e0 96 8e 19 3d 74 8f 06 3e 87 f8 dc 3d e1 3e 1f 3c
       0.037489496 0.1314066 0.1078959 0.009719581
0001f0 fe b0 0c 3e be a1 8f bd b4 f7 bd bd f1 16 1d 3d
       0.13739392 -0.07013272 -0.09275761 0.038351957
000200 82 fa de bd 6b e0 e3 3c e2 0c 8b bd 5c 0d 9d bd
       -0.10887624 0.027816972 -0.067895666 -0.07668564
000210 fc 31 7e be 70 41 5c bd 53 85 cd 3d bc ca 8b 3d
       -0.24823755 -0.053773344 0.10035195 0.06825778
000220 2e 77 4f 3e 40 64 3e be f6 61 79 bd e7 61 26 be
       0.20260307 -0.1859293 -0.06088444 -0.16248284
000230 5e db bc be 5a ac 62 be 37 2c 56 3d 16 01 09 3e
       -0.36886114 -0.2213606 0.05228826 0.1337932
000240 10 77 19 3e b8 c6 cc 3d c9 06 c0 3b cd 46 a9 3d
       0.14986825 0.0999884 0.005860184 0.08265457
000250 0c 78 0c 3e 79 4c 88 bd ca 91 d5 3d 21 60 84 3d
       0.13717669 -0.06655211 0.10428198 0.06463648
000260 72 bc 2b be 78 5e dc 3d 22 bd 7b 3d 42 1e d8 bc
       -0.16771105 0.10760206 0.061459668 -0.026381616
000270 66 8b 10 3e e7 3b dd 3d 0d df 89 3d 09 66 8d 3d
       0.14115676 0.10802441 0.06731997 0.06904227
000280 5a 77 03 be ab 2f 7b 3d f8 48 2a 3e 53 29 bb 3d
       -0.12838498 0.061324757 0.16629398 0.09138741
000290 94 36 f2 3c 84 b0 db bd 6d f9 e3 bd e9 12 aa 3d
       0.02956704 -0.10727027 -0.111315586 0.08304388
0002a0 80 dc fd bc bb 0d 38 be 7d a5 0a 3e 30 64 dc bb
       -0.030988932 -0.17973988 0.13539691 -0.0067258105
0002b0 8c 91 af 3d 4f c9 80 bd 41 99 07 3e 72 8d 59 3e
       0.08572683 -0.062883966 0.13242055 0.21245363
0002c0 3f 6b 98 bd b0 bf 13 3e 5e 2b 92 3d 45 e5 d9 3d
       -0.074423306 0.14428592 0.07137178 0.10639433
0002d0 20 bf 47 bd 12 2e f1 b9 f4 dd 45 3d 6a 59 b9 3a
       -0.048766255 -0.00046001427 0.048307374 0.0014141027
0002e0 a6 03 83 bc 09 6b 68 bd 73 ae 87 3c 6b 78 94 bd
       -0.01599295 -0.0567427 0.016562676 -0.072495304
0002f0 02 f3 d8 bc 6b 6b 9d 3d ae 30 34 3d ce 0a de bd
       -0.026483063 0.07686504 0.043991737 -0.108419046
000300 14 16 0e be 51 2d 91 bb 38 58 95 bd 61 ef d3 bd
       -0.1387561 -0.004430451 -0.07292217 -0.10348392
000310 34 23 b3 3d de cf 22 be 07 66 21 3d 01 8e 3a bd
       0.08746949 -0.15899608 0.03940394 -0.04554558
000320 5b 37 82 3d 23 23 3e 3e 65 b0 cc 3c eb 5d c6 bd
       0.063582145 0.18568091 0.024986455 -0.09685882
000330 07 5d 38 3e 56 47 4c 3e 7d aa a2 3d 23 19 e2 bd
       0.18004237 0.19949088 0.07942674 -0.11039951
000340 6c 77 27 3d a9 0f 62 bd f4 7c 32 bd de 7a 99 3d
       0.040885374 -0.055190716 -0.043576196 0.07494138
000350 be f9 12 be 94 f0 88 bd 4f c3 25 3a 38 8a 24 3e
       -0.14353082 -0.06686512 0.0006323354 0.16068351
000360 1b 83 61 bd 9f ed bc 3e 1a af c7 bd 19 a6 e8 bd
       -0.055056673 0.3690004 -0.09750195 -0.113598056
000370 4b c7 c5 3b 22 fe 61 bd 04 6a d8 bd 80 c1 cf 3d
       0.0060357205 -0.055174 -0.10567096 0.10144329
000380 17 93 85 be 00 fd 9a 3c 68 c1 b2 bd fa 29 27 3e
       -0.26088783 0.018919468 -0.087282956 0.16324607
000390 e0 50 e2 bc 1b 1b 1a 3e d2 d8 81 3d 20 c5 d6 3d
       -0.027626455 0.15049402 0.06340183 0.10486817
0003a0 9d 29 5b bd c9 b3 21 3b 1a 9f af 3d e0 e1 10 be
       -0.053506482 0.002467381 0.08575268 -0.14148664
0003b0 6f 22 26 3e b0 e3 8a bd 31 d7 83 bd 64 76 13 3e
       0.16224073 -0.06781709 -0.06437529 0.14400631
0003c0 f6 33 bf 3d 4e 24 5c be 27 56 1d 3e c2 2f f4 3d
       0.09336083 -0.21498224 0.15364896 0.119231716
0003d0 ca c6 3c bd 75 46 b7 3c fa c5 67 be b6 55 7f 3a
       -0.046088018 0.022372464 -0.22634116 0.000974025
0003e0 21 74 ec 3d f2 96 0c 3e c0 fb 1f be 6e 47 09 3e
       0.11545587 0.13729456 -0.15623379 0.13406155
0003f0 47 f7 1b be 5a 23 1c bd 83 ea 32 3e 0a 75 84 b9
       -0.15231048 -0.03811965 0.17472272 -0.00025264203

lstm.bias_ih_l0 f4 [200]
000000 f8 44 95 3c 6d 76 ba 3c 50 fe 4e 3e 2d da 1d be
       0.018221363 0.022761548 0.202142 -0.15415259
000010 a2 b8 a1 3e 14 4e 14 3e f6 89 f5 bd 7d 41 db bd
       0.31586176 0.1448291 -0.119892046 -0.1070585
000020 22 f0 5d 3e d9 5a b2 3d db 10 29 3d 78 46 6c 3e
       0.21673635 0.08708734 0.04127584 0.23073757
000030 78 14 c9 bd c0 5f 1e 3b da da cc 3d 45 7f a5 3e
       -0.09818357 0.0024165958 0.1000268 0.3232366
000040 67 7f e9 bd 98 25 c5 3d 8d 10 50 3e bf df 6f 3d
       -0.11401253 0.09626311 0.20318814 0.05856299
000050 89 04 f2 bd 0c 1b f5 bd 2b 81 cb 3d 2f 6d 1c bc
       -0.11817271 -0.119680494 0.09936746 -0.009547516
000060 e2 ab 25 be 3b 9e 04 3e 08 20 93 3c 00 29 0f be
       -0.1617885 0.12950985 0.01795961 -0.13980484
000070 d9 95 fd bd a3 36 49 bd 0c ca a0 3e 09 7b 1e 3e
       -0.12382097 -0.04912437 0.3140415 0.15476622
000080 94 ca df bc 94 38 a5 bd 51 cf 45 3e 1b 28 67 3e
       -0.027318276 -0.08067432 0.19317366 0.22573893
000090 55 71 cc 3d 33 b0 94 bd 71 16 a8 3c ae 19 c2 ba
       0.09982554 -0.0726017 0.020518513 -0.0014808679
0000a0 89 b8 02 3e 4c c3 56 bd de 95 a2 3d f4 01 19 be
       0.12765707 -0.052432343 0.07938741 -0.14942151
0000b0 95 1a ea bb 81 94 86 3e af 6d 7f 3e 9b 66 fe bd
       -0.007144282 0.26285174 0.24944185 -0.12421914
0000c0 95 99 b9 3d 77 f0 20 3e ef 6f 89 bd 40 db c4 bd
       0.090624966 0.1571673 -0.06710803 -0.09612131
0000d0 f7 e3 48 3b ed cd 08 be e7 8c 50 be e6 3c 00 bd
       0.0030653456 -0.13359804 -0.2036625 -0.031308077
0000e0 5b c2 6b bd 84 0d 00 bc ae 96 93 be f0 e8 71 be
       -0.0575584 -0.007815722 -0.28825897 -0.23624015
0000f0 8d 67 17 bd c8 7c 0e bd 45 89 09 bc 4c a8 9e 3b
       -0.036963988 -0.03478697 -0.008394544 0.00484184
000100 25 9a 51 bd d8 7c e0 bd 3a ef b1 bd 30 8e 3d bd
       -0.051172394 -0.10961312 -0.08688207 -0.04627818
000110 c4 0e 2d bd 26 4e e6 3d 26 e4 e8 3c d4 c4 2c be
       -0.04225041 0.112453744 0.028429102 -0.16871959
000120 a0 7d 0f 3d ac 0b bc 3d 74 f5 42 3e 6f ea bc 3d
       0.035031915 0.09181914 0.19038945 0.09224402
000130 10 24 07 be 61 8f 0a 3e 7d 2d 9e 3c af b1 8c bd
       -0.1319735 0.13531257 0.0193088 -0.06869828
000140 68 0f 9a bd 1d 96 ed 3d 2f a4 33 bd cd 71 1a 3e
       -0.0752247 0.116008975 -0.04385775 0.15082474
000150 cd 93 fa bd 0b fa 81 3c 75 d5 1e be 92 9e 59 bd
       -0.12235222 0.0158663 -0.15511115 -0.05312974
000160 e0 36 ba 3d 2c d9 74 bd d4 06 59 be 98 59 c2 3c
       0.09092498 -0.059777424 -0.21194011 0.023724362
000170 cc ac 38 3d 89 05 ca bd 2b c1 87 3c d2 0d a8 bd
       0.045086667 -0.09864337 0.016571602 -0.08205761
000180 60 c5 3d bd fa 69 07 be c7 98 2e be e9 32 87 3d
       -0.04633081 -0.1322402 -0.17050467 0.06601507
000190 30 ee ec bd eb 2a cc 3d 8d 32 b6 3d 0a 81 73 bb
       -0.11568868 0.099691235 0.088963605 -0.003715577
0001a0 95 95 5f 3d 3b d4 87 3b d6 55 1b 3d 47 87 85 bd
       0.054586012 0.004145173 0.037923656 -0.06519943
0001b0 39 1c 82 ba cd 3f e1 bd a1 39 9d 3d 7e b6 68 bd
       -0.0009926624 -0.10998497 0.076770075 -0.056814663
0001c0 c3 ba 98 bd 81 29 93 bd 71 7b b4 bd 70 87 e7 bd
       -0.07457497 -0.071856506 -0.08812607 -0.113051295
0001d0 96 b7 37 bd 67 e1 b2 3d 5b e9 ae 3d 2d 1b 64 bd
       -0.044852816 0.08734398 0.08540603 -0.05568998
0001e0 40 f1 e5 bc d2 a1 99 bd 49 eb 88 3d 55 a5 e9 3d
       -0.028069139 -0.07501568 0.06685502 0.11408488
0001f0 00 66 cb bd 70 23 1d be 30 f9 9d bd 99 91 a9 bd
       -0.09931564 -0.1534555 -0.07713544 -0.08279724
000200 5e 72 90 bd 94 2d f4 3c 67 5e 9d 3d a1 72 91 bd
       -0.07053064 0.02980689 0.076840214 -0.07101942
000210 41 4d c2 3d a3 c2 91 bc 87 f1 59 3d d8 4a a6 3d
       0.09487391 -0.017793005 0.053208854 0.08119744
000220 db 88 05 3e c3 40 b6 3d bd 30 1c be 16 b2 83 3d
       0.13040487 0.08899071 -0.15252967 0.064304516
000230 9c 9a 86 bd cb 52 b3 bd 8c 99 9a 3d d3 75 6b 3d
       -0.06572458 -0.08756026 0.07548818 0.057485413
000240 5d 86 7f bc ed 6c 00 3e 25 e4 16 bd be cf 07 be
       -0.015596 0.12541552 -0.03683867 -0.13262841
000250 22 d0 a6 3d 91 79 84 bd 92 29 3c 3a f1 60 59 3d
       0.08145167 -0.064684995 0.00071778253 0.053070966
000260 37 f3 86 3d 15 9e 71 bd e3 e8 5e 3e 75 38 ae 3d
       0.06589358 -0.05898865 0.21768527 0.08506862
000270 9b 81 7c bd 57 11 0d be ae 00 bc 3e 7f 70 23 3e
       -0.06164704 -0.13776146 0.3671927 0.15960883
000280 62 be 1a be a2 77 1b 3e f9 d8 bb 3d 6d e7 49 3d
       -0.15111688 0.15182355 0.091722436 0.04929297
000290 a3 cb a0 bd 9a 71 38 3e c2 7b dd bd be bd bb 3d
       -0.078513406 0.18012086 -0.108146206 0.0916705
0002a0 4a 5f 8b bc de 10 26 3c 9e ad b2 3c 95 0c a9 bd
       -0.01701321 0.010135857 0.021811303 -0.08254353
0002b0 6d ab 12 3d ba c5 fe bd b3 33 ab bd 04 67 29 3d
       0.035808016 -0.12440057 -0.0835947 0.04135801
0002c0 50 27 c0 3b 95 fb 95 3d c7 f3 47 be 19 75 fb 3d
       0.0058640614 0.07323376 -0.19526587 0.12278194
0002d0 81 4a 70 3e 46 bb 87 bd 12 ed 15 3e 85 00 1c be
       0.23465921 -0.066275164 0.14641216 -0.15234573
0002e0 06 2c f0 3d df fc 00 3e 8d e2 00 3e 48 47 02 3c
       0.11727147 0.12596463 0.12586422 0.007951565
0002f0 43 fc a5 3d a8 05 2f 3e a5 bf 49 3e e9 59 81 3d
       0.08104756 0.17092001 0.19702013 0.06315977
000300 95 4d 13 3e 4c 15 71 3d 3d 62 00 3e 69 db 25 3d
       0.14385064 0.0588582 0.12537475 0.04049245
000310 0e 52 77 3d 2c 29 3c 3d 49 15 8c bc cd 13 8a bd
       0.060380988 0.045937702 -0.017099993 -0.06742058

lstm.bias_hh_l0 f4 [200]
000000 21 54 9c bd b8 14 40 3e 3e 51 4d 3e 80 e9 79 bc
       -0.07633234 0.18757904 0.20050523 -0.015253425
000010 ab d6 0a 3e 43 88 20 3e 68 7b 1f be 84 e8 97 3b
       0.13558452 0.1567698 -0.1557442 0.0046358723
000020 a3 7b 51 3e b3 b7 1e 3e 76 51 43 bd f2 74 ba 3d
       0.2045732 0.15499763 -0.04768511 0.09104337
000030 3f a1 99 3d e2 b5 96 3d ca b3 cb bd b8 d9 f2 3d
       0.075014584 0.0735891 -0.099464014 0.11857933
000040 4c 7a a6 3d 1a 34 8d 3e 87 bb 5f 3e 8b 78 8c bd
       0.08128795 0.27578813 0.2184888 -0.06858929
000050 55 eb d3 3b db 49 c5 3d 9f f1 51 bd b3 d1 87 bb
       0.0064672627 0.096332274 -0.05125582 -0.004144871
000060 c1 e6 d3 bd a2 df 48 3e a5 7c d8 bd 6b 9f e9 bd
       -0.10346747 0.19616559 -0.10570649 -0.1140736
000070 b2 df fe bd 69 cf 1b be 92 50 09 3e 0a 35 f2 3d
       -0.1244501 -0.1521584 0.13409641 0.11826523
000080 c9 9d 7a 3d 7f 85 a4 3d 56 71 6c 3e 91 ab e3 3d
       0.061185632 0.08033275 0.23090109 0.11116708
000090 65 09 4f bd e3 1f 3d 3d 1b b0 f7 bd 89 63 f3 3d
       -0.05054607 0.046172988 -0.12094136 0.11884219
0000a0 f8 73 24 3e 0f e0 07 bd 2b 80 2a 3d af 3e 97 bd
       0.16059864 -0.033172663 0.041626137 -0.07385003
0000b0 89 a1 a8 bc 30 02 8d 3d 3f 8c 86 3d 5a fc b0 bc
       -0.020584838 0.06885183 0.065697186 -0.021604706
0000c0 25 e4 cb bd 69 ae 01 3e 0c 54 c0 bd 5b 07 af bd
       -0.099556245 0.12664188 -0.09391031 -0.08546325
0000d0 a0 1f 5b be 3d 53 e6 3d ff a5 56 be 22 f1 15 be
       -0.21398783 0.11246345 -0.2096176 -0.14642766
0000e0 17 86 3c bc d4 9f 2f 3d c5 c4 8a be 9f 24 27 be
       -0.011506579 0.042877033 -0.27103248 -0.16322564
0000f0 22 19 8f bc d3 c2 ef bb 92 9c 1d bd dc cb 47 3e
       -0.017468039 -0.007316926 -0.038479395 0.1951136
000100 ce 1e 6b bc 3b e9 02 be fb db 42 bd 22 16 72 bd
       -0.014350606 -0.12784283 -0.04757307 -0.05910314
000110 6b 8c 32 be 7d a6 74 3d 7a 0c bf 3b aa 24 62 3d
       -0.17436378 0.059729088 0.0058303447 0.055210747
000120 55 1e 18 3d 41 11 75 3d 39 e6 aa 3d a4 a6 c1 bc
       0.037138302 0.059830908 0.08344693 -0.02363903
000130 7c 8f 32 be e2 4c 90 3c 0d d0 68 bb 03 16 65 be
       -0.17437547 0.017614786 -0.0035524399 -0.22371678
000140 58 b5 7c be 63 35 77 bd 5f ec 93 3d ba bc 83 3d
       -0.24678552 -0.060353648 0.072228186 0.06432481
000150 db 98 f0 3d 93 05 b5 bb 0e 27 18 bd b5 75 99 bd
       0.11747905 -0.005524346 -0.03714662 -0.07493154
000160 22 bd a4 bc 9d df 47 3d 0c 96 ab bd 05 1a 96 bd
       -0.020109717 0.04879724 -0.083782285 -0.073291816
000170 c5 10 b3 bd f9 ca 53 3d b5 ff ef bd ea ee 3d 3d
       -0.08743433 0.05170724 -0.11718694 0.046370424
000180 d7 e8 66 bd f7 99 11 bb 52 9b 57 be a6 29 18 bd
       -0.056374397 -0.0022217014 -0.21055344 -0.037149094
000190 d5 af 9e 3c e9 b3 a2 bc 25 74 47 3b d7 f0 bc 3d
       0.019370953 -0.019861178 0.0030434218 0.09225624
0001a0 4c ee 1e be 73 dc 07 bd 94 20 97 bc 36 73 0c bb
       -0.1552059 -0.03316922 -0.018448152 -0.0021430976
0001b0 18 bf 7f bd f4 d9 e6 3d 3e 9b 1b 3d 75 f4 8f bd
       -0.0624381 0.1127204 0.037989847 -0.07029048
0001c0 0b 36 53 bd 5f cd d0 3d b8 07 57 3d b4 c5 f6 bd
       -0.05156521 0.101954214 0.052497596 -0.12049428
0001d0 4e 67 d8 3c 8b 84 2b 3e d1 54 83 ba 76 e2 86 3d
       0.026416447 0.1674978 -0.0010019784 0.06586163
0001e0 10 a9 a2 bd 1c fd 8e 3c da c0 84 3d 01 f0 f4 3d
       -0.07942402 0.017454676 0.06482096 0.119598396
0001f0 f5 32 11 be 49 f3 0c be 5a 7b a6 bd 03 2f b2 3d
       -0.14179595 -0.13764681 -0.08128996 0.08700373
000200 ec 42 88 3c bb ef 4e bd 75 4e e4 bd 48 a1 b9 bd
       0.016633473 -0.050521594 -0.11147777 -0.09063965
000210 f6 f9 2e 3e be fe b3 3c 3c 14 fa bd 5e 8a 2f bd
       0.1708754 0.021972056 -0.12210891 -0.042856567
000220 e6 f3 13 3e f1 af f3 3d 1d 41 3a 3b a2 f5 fb 3c
       0.14448509 0.118987925 0.0028420158 0.030756775
000230 64 e6 02 be d9 12 ef 3c 61 e3 53 bd 2e 04 9c 3d
       -0.127832 0.029183792 -0.051730517 0.07617985
000240 75 d5 f5 3d d7 b2 91 3d 29 ea 91 3d 7e a2 81 3d
       0.12003604 0.07114189 0.07124741 0.06329821
000250 e3 79 04 3e d1 38 fd 3c b0 f0 d7 3d 15 71 b6 bb
       0.12937121 0.030910881 0.10543954 -0.0055676796
000260 a3 56 28 3d 18 ec 33 be 9b e8 2c 3e bf 08 cd 3d
       0.04109825 -0.17570531 0.16885607 0.10011434
000270 84 8c 24 be 1b 36 06 3c 08 18 5e 3e 64 35 67 3e
       -0.16069227 0.008191611 0.21688855 0.2257896
000280 c4 39 8e 3c cb 63 d0 3d 6b ad 56 3d 9f 11 7b bc
       0.01736153 0.10175284 0.052411478 -0.015324025
000290 4e 93 c5 bd 2e 56 78 3e d1 9a 2b be a4 e8 c4 3d
       -0.09647237 0.24251625 -0.16758277 0.09614685
0002a0 d2 b5 c6 3d 74 00 ff 3c b4 e9 a4 3d c1 34 8b 3d
       0.09702648 0.031128146 0.08052388 0.067971714
0002b0 be 72 a4 bc 8c c5 59 3d 45 28 8b bd e8 2c 9b 3d
       -0.020074245 0.05316691 -0.0679479 0.075769246
0002c0 11 ad 81 bd 40 c3 61 bd ed 0f 1e bd 45 b4 37 3d
       -0.06331838 -0.055117846 -0.038589407 0.044849653
0002d0 f2 d1 79 3e 6d 25 8a bd b7 35 d0 3d 92 83 e4 bd
       0.24396494 -0.0674542 0.10166495 -0.111579075
0002e0 9d a8 d0 3d d2 6b f0 3d 03 9e c7 3d 80 20 c9 bb
       0.101884104 0.11739315 0.09746935 -0.0061379075
0002f0 b0 29 0b 3d 5f db de 3d b2 ae ad 3d bf 10 f6 3d
       0.033975303 0.108816855 0.08480586 0.12014913
000300 6e 85 90 3c 93 74 9a 3d e1 e8 b0 3d f8 64 8e 3d
       0.01764175 0.07541766 0.08638168 0.06952852
000310 e0 15 1c 3e a5 77 d7 bd 68 91 38 3d ba 2b 59 bd
       0.1524272 -0.10520867 0.045060545 -0.053020217
