pol_models/aqi_last_7_model_state.pt (torch, 650495 bytes, 16 tensors)

conv1.weight f4 [64, 300, 3]
0	0x3cd80d0c	0.026373409
1	0xbcaebdd6	-0.021330755
2	0x3cd0edf2	0.025504086
3	0xbcd28f3a	-0.025703061
4	0xbbf12258	-0.0073588304
5	0xbc8448c9	-0.016147988
6	0xbccc5714	-0.024943866
7	0xbc6cdaf4	-0.014456499
8	0xbbeb00d8	-0.0071717314
9	0x3c9adac2	0.01890314
10	0xbd0838b9	-0.03325722
11	0x3d01da75	0.031702477
12	0x3bc7ca20	0.006097093
13	0xbcdb35a5	-0.026758978
14	0x3cc9b516	0.024622481
15	0xbc1c601e	-0.0095444005
16	0xbbe38f58	-0.006944578
17	0x3cf6992a	0.030102331
18	0x3ce92822	0.02846152
19	0xbd068520	-0.0328418
20	0xbc9ada1e	-0.018902835
21	0x3ce78f12	0.028266463
22	0x3c518d44	0.012790028
23	0x3ca6a29a	0.020341206
24	0xb80f7c00	-3.420934e-05
25	0x3c8e51ee	0.017373051
26	0xbc036852	-0.008020477
27	0x3c053b08	0.00813175
28	0xbcd4e4a9	-0.02598794
29	0x3d01da65	0.031702418
30	0xbca11dc9	-0.019667523
31	0xbc8b7258	-0.017022297
32	0x3d007423	0.031360757
33	0xbc1e9130	-0.00967817
34	0x3b8f7ac0	0.0043786466
35	0xbcdcbd76	-0.02694581
36	0xbc1fd0f4	-0.009754408
37	0xbc99bd40	-0.018767
38	0xbd0030bf	-0.031296488
39	0x3cadee9a	0.021231938
40	0xbc9fcd3a	-0.01950704
41	0x3c6be5e0	0.014398068
42	0xbd05d14f	-0.032670315
43	0xbb634058	-0.0034675803
44	0x3cb6826a	0.022278983
45	0xbc6e6234	-0.014549781
46	0x3b373440	0.0027954727
47	0x3c98d496	0.018656056
48	0xbcb3ad5e	-0.021933254
49	0xbce13554	-0.02749125
50	0xbbdf7b9c	-0.0068201553
51	0xbb5a15a8	-0.0033277068
52	0xbd08855f	-0.033330318
53	0x3cdc2020	0.026870787
54	0x3cb785cc	0.022402667
55	0xbcb932e9	-0.022607284
56	0xbbab8190	-0.005233951
57	0xbd053144	-0.032517686
58	0x3c70080c	0.014650356
59	0x3c8ac106	0.016937744
60	0xbc8c7f1c	-0.017150454
61	0xbce93a4c	-0.02847018
62	0x3c7fa164	0.015602443
63	0x3d01866d	0.03162234
64	0x3c1b3d3c	0.009475049
65	0x3cf72406	0.030168545
66	0x3c45a1d8	0.012062512
67	0x3b975f08	0.004619483
68	0xbc89893c	-0.016789071
69	0x3b09fde0	0.0021055862
70	0xbcab5ff2	-0.020919774
71	0x3c5f6420	0.0136347115
72	0xbc8b4669	-0.017001348
73	0xbc86a6be	-0.01643693
74	0xbcbdb150	-0.023155838
75	0xbceb4bba	-0.028722633
76	0xbc0448f0	-0.00807403
77	0x39528900	0.00020078197
78	0xbc6f38de	-0.014600961
79	0xbc3fbb28	-0.011702336
80	0xbbd46834	-0.0064821485
81	0x3c83ece2	0.016104165
82	0xbbdb00d8	-0.00668345
83	0x3cd0dc88	0.025495782
84	0xbcd4711a	-0.025932837
85	0xbc5960f8	-0.013267748
86	0xbcea411f	-0.028595505
87	0xbcf798ce	-0.03022423
88	0x397b9a00	0.00023994595
89	0x3cabb140	0.020958543
90	0xbc05b34e	-0.008160425
91	0xbc713106	-0.014721161
92	0x3bed1cf0	0.0072361156
93	0xbc0eb326	-0.0087097045
94	0x3c46a064	0.012123201
95	0xbc99743c	-0.018732183
96	0xbcbc6d69	-0.02300139
97	0xbc29b116	-0.010357162
98	0xbca0edd2	-0.019644652
99	0xbb3b6930	-0.0028596632
100	0xbcb89c10	-0.022535354
101	0xbcf590e9	-0.029976325
102	0x3c793650	0.015210703
103	0xbc205244	-0.009785239
104	0xbcc2385c	-0.023708515
105	0xbc16f030	-0.009212539
106	0x3cba8f70	0.022773474
107	0xbca733a9	-0.020410376
108	0x3d02a12b	0.031891983
109	0xbc50ef62	-0.012752386
110	0xbcc8a6d6	-0.024493616
111	0xbce546bf	-0.027987836
112	0xbcb127bc	-0.021625392
113	0xbcdad45c	-0.026712589
114	0x3c3fac38	0.011698775
115	0x3cc51fb0	0.024062961
116	0xbca5de62	-0.020247642
117	0x3c3edd94	0.011649508
118	0x3c229a00	0.009924412
119	0xbc95fae5	-0.018308112
120	0xbcea6bc7	-0.028615845
121	0x3b87a0c8	0.0041390397
122	0xbc85b9e0	-0.016323984
123	0x3c2f8628	0.010713138
124	0x3ce0044e	0.027345803
125	0x3d073119	0.033005808
126	0xbc1f42a2	-0.009720476
127	0x3a312cc0	0.00067586824
128	0xbc1ae15e	-0.009453146
129	0x3c071fd4	0.0082473345
130	0x3ce8119a	0.028328706
131	0x3c98eade	0.01866668
132	0xbb5e36d0	-0.0033907183
133	0xbc8e6db6	-0.017386299
134	0xbc9b4c3c	-0.01895725
135	0xb8e01200	-0.00010684505
136	0xbce2e5b2	-0.027697418
137	0xbc50130e	-0.0126998555
138	0x3bcd5558	0.0062662773
139	0x3cd2e2f4	0.025742985
140	0x3d080f85	0.033217926
141	0xbcdb6676	-0.026782256
142	0xbcb93256	-0.02260701
143	0x3ca38b54	0.019963898
144	0xbc9655c9	-0.018351452
145	0xbc82f48b	-0.015985748
146	0xbc11488e	-0.008867396
147	0x3c3ea568	0.011636116
148	0xbb84c6d4	-0.0040520225
149	0x3ce1c0f8	0.027557835
150	0xbcb4a79a	-0.022052575
151	0xbb44d178	-0.003003208
152	0xbcc40789	-0.023929374
153	0x3cfd2016	0.030899089
154	0xb90aab00	-0.00013224408
155	0x3bc69d28	0.006061215
156	0xbc68d8c6	-0.014211839
157	0xbce41ad2	-0.02784482
158	0x3c73e05c	0.014885034
159	0xbb75b248	-0.0037490297
160	0x3cd0ae38	0.025473699
161	0xbc57564a	-0.0131431315
162	0xbcb4b423	-0.022058552
163	0xbae917c0	-0.0017783567
164	0xbbabffa4	-0.0052489806
165	0xbcdff787	-0.02733971
166	0xbcdecbf6	-0.027196866
167	0x3d031959	0.032006595
168	0x3c9d92c4	0.019235022
169	0x3c4c1d7c	0.0124582015
170	0xbc53fdb8	-0.012938909
171	0xbc8f8b56	-0.017522495
172	0x3c2836dc	0.010266986
173	0xbcd8c490	-0.026460916
174	0xbc81af2d	-0.0158306
175	0xbb86d360	-0.0041145533
176	0xbbd3ffa4	-0.0064696837
177	0xbcea1c0c	-0.028577827
178	0xbc2d59de	-0.010580508
179	0x3be8d0e8	0.0071049817
180	0x3cb74448	0.022371426
181	0xbd07c89e	-0.033150308
182	0xbbb2703c	-0.0054455083
183	0xbc957869	-0.018245893
184	0xba989d80	-0.0011643618
185	0x3c139404	0.009007458
186	0x3b3b87f0	0.002861496
187	0x3bfbb5f0	0.0076816007
188	0xbc35eb5a	-0.0111034755
189	0x3cb6ba0a	0.022305507
190	0x3b8d4b78	0.004311975
191	0xbce0c721	-0.027438702
192	0x3c026324	0.007958207
193	0x3ca903d8	0.020631716
194	0xbced56a3	-0.028971976
195	0xbc8fb82d	-0.017543877
196	0x3be43358	0.0069641285
197	0x3d012cbb	0.0315368
198	0xbcf929ba	-0.030415405
199	0xbcc592e0	-0.024117887
200	0xbcfc3c98	-0.030790612
201	0xbcb46394	-0.022020139
202	0x3c72ea74	0.014826406
203	0xbcbafde3	-0.02282614
204	0x3ce90c50	0.028448254
205	0xbc0a0234	-0.008423377
206	0x3ab18aa0	0.0013545342
207	0xbce99a05	-0.028515825
208	0x3c1d8410	0.009614006
209	0xbce3c263	-0.027802652
210	0xbc6cd3ce	-0.014454795
211	0xbc85b8c3	-0.016323453
212	0x3ccc46fe	0.024936195
213	0x3ce26bba	0.027639259
214	0xbca063c7	-0.019578828
215	0xbbb6a360	-0.005573675
216	0xbbc88c08	-0.0061202087
217	0x3c0f5724	0.008748803
218	0xbc15459e	-0.009110836
219	0x3cad4298	0.021149918
220	0x3ca36c5a	0.019949127
221	0xbcc68c45	-0.024236808
222	0x3c613fc0	0.013748109
223	0xbc26e1b0	-0.010185644
224	0x3c8b54dc	0.017008238
225	0x3a2c5e80	0.0006575361
226	0xbcd44c87	-0.025915397
227	0xbc5e3bf0	-0.013564095
228	0xbac44cc0	-0.0014976487
229	0x3a969de0	0.0011491142
230	0xbcf47e50	-0.029845387
231	0x3a972580	0.0011531562
232	0x3c887c24	0.016660757
233	0xbc1d64f8	-0.009606592
234	0x3cfbfc16	0.030759852
235	0x3ced0f06	0.028937828
236	0x3a172f80	0.0005767271
237	0x3c433ce8	0.011916377
238	0xbce60c43	-0.028082019
239	0x3ccfc442	0.025362138
240	0x3c8c9306	0.01715995
241	0x3b6f46d0	0.0036510713
242	0x39639300	0.00021703169
243	0xbcf39d12	-0.029737983
244	0x3ce9c4dc	0.028536253
245	0x3cce0f9a	0.025153924
246	0x3d0480dd	0.032349456
247	0xbc954e02	-0.018225674
248	0x3cbc5b4e	0.022992756
249	0x3cc236a4	0.023707695
250	0xbcee52b4	-0.02909217
251	0x3cb7e472	0.022447798
252	0xbd052120	-0.032502294
253	0xbc8cceab	-0.01718839
254	0x3c6bff18	0.014404081
255	0x3cca8aa4	0.024724312

conv1.bias f4 [64]
0	0x3cafe254	0.021470226
1	0xbe1ec9d7	-0.15506683
2	0xbd139b97	-0.036037054
3	0xbe4ac4e3	-0.19801669
4	0xbc8389c7	-0.016056908
5	0xbcae497f	-0.02127528
6	0xbba6f632	-0.0050952667
7	0x3b6678df	0.003516726
8	0x3c56b5cd	0.013104868
9	0x3b593880	0.003314525
10	0x3bb25f16	0.005443464
11	0xbb2363b8	-0.0024931263
12	0xbc0d250b	-0.008614789
13	0xbcfff14f	-0.031242995
14	0xbc055cc8	-0.008139797
15	0xbd0f8970	-0.03504318
16	0xba8ba2f1	-0.0010653419
17	0xbe0f5460	-0.1399703
18	0xbbf8cd1c	-0.0075928103
19	0xbe158826	-0.14602718
20	0xbd0c953a	-0.034322
21	0xbd10b048	-0.035324365
22	0xbccaada2	-0.024740998
23	0x3c2bbf23	0.010482582
24	0xbcca638a	-0.024705667
25	0x3c75af35	0.014995386
26	0xbd650f83	-0.055922996
27	0x3b0acf16	0.0021180562
28	0x3c5f985a	0.013647163
29	0xbe1832d1	-0.14863135
30	0xbdf6dd51	-0.120539315
31	0x3de9585f	0.113938086
32	0x3cbc1362	0.022958461
33	0xbcacb4a1	-0.021082224
34	0xbe0ab3e9	-0.13545193
35	0x3ca431f1	0.020043345
36	0xbd0af4ac	-0.033924744
37	0xbdf6abd6	-0.12044494
38	0xbe309caa	-0.17247263
39	0xbaa7d8fb	-0.0012805754
40	0x3d17525c	0.03694378
41	0xbe25802e	-0.16162178
42	0x3d88e0f4	0.066835314
43	0xbcaa6090	-0.020797998
44	0xbd66b76b	-0.056327265
45	0xbd8d3ddb	-0.068965636
46	0xbcaf17f7	-0.021373732
47	0xbce0a4d0	-0.027422339
48	0xbe73f863	-0.23825221
49	0xbe02303c	-0.12713712
50	0xbc8d1e9f	-0.017226515
51	0xbc890b72	-0.01672909
52	0xbce5faee	-0.028073754
53	0xb9b48266	-0.0003442943
54	0x3b13a2f3	0.0022527545
55	0xbd7a2e48	-0.061079293
56	0x3ce22792	0.02760676
57	0xbd19a9d7	-0.037515488
58	0xbbf0d867	-0.007350016
59	0x3b6a6453	0.0035765364
60	0xbb9d72e5	-0.0048049563
61	0xbbf7a951	-0.007558026
62	0xbdcbe107	-0.0995503
63	0x38e4eb8b	0.000109157605

conv2.weight f4 [128, 64, 3]
0	0xbd2beb0c	-0.041972205
1	0xbd7e291a	-0.062050916
2	0xbd2714f3	-0.040791463
3	0xbc18b884	-0.009321336
4	0xbe415749	-0.18880953
5	0xbde6e29c	-0.11273691
6	0xbd40bf71	-0.047057573
7	0x3c0e5c10	0.008688942
8	0xbd3eb017	-0.04655465
9	0x3c3980c8	0.011322208
10	0x3c33e0a7	0.010978854
11	0xbd1a40a3	-0.0376593
12	0xbca4e8d5	-0.020130554
13	0x3cf9d4cc	0.030496977
14	0x3d59f260	0.053209662
15	0x3d8715dc	0.06595966
16	0xbd04975f	-0.03237092
17	0xbd214154	-0.039368942
18	0x3d1c769a	0.038199045
19	0x3d333482	0.043751247
20	0x3d71992a	0.05898396
21	0xbd0422db	-0.032259803
22	0x3ced9352	0.029000912
23	0xbd0c01ff	-0.03418159
24	0xbce35430	-0.027750105
25	0xbd2116a6	-0.03932824
26	0x3d2893e4	0.041156664
27	0x3ccfa9cc	0.02534952
28	0x3d619535	0.055073936
29	0xbd29dd45	-0.041470785
30	0xbd8e2370	-0.06940353
31	0x3cd5038f	0.026002673
32	0x3a21d6e4	0.0006173684
33	0xbd84c01d	-0.06481955
34	0x3c7b499e	0.015337376
35	0xbd2ec018	-0.042663664
36	0x3d83b3f6	0.06430809
37	0xbd6bb570	-0.05754608
38	0xbd4cc8b1	-0.04999608
39	0xbbbbf5af	-0.005736075
40	0xbd0aded2	-0.033903904
41	0xbc02cfc8	-0.007984109
42	0xbd4b97ba	-0.049705245
43	0xbcb84b2d	-0.022496784
44	0xbd203729	-0.039115105
45	0x3cdb1471	0.026743146
46	0x3cfe2e79	0.03102802
47	0xbd84c862	-0.064835325
48	0x3d8425e0	0.064525366
49	0xbd17b153	-0.037034344
50	0xbd506f52	-0.050887413
51	0xbcfaa188	-0.030594602
52	0x3cddaa4a	0.02705874
53	0x3c599cbb	0.013281996
54	0xbc55bf51	-0.013046102
55	0xbd8d80b1	-0.069093116
56	0xbd004dba	-0.031324126
57	0xbd5dfe9f	-0.054197904
58	0xbe6d358b	-0.23164956
59	0xbe7961cb	-0.24353711
60	0xbd26b16a	-0.04069654
61	0xbd9a7143	-0.07541134
62	0xbd4d8f8e	-0.050185733
63	0xbbfbc9eb	-0.0076839826
64	0xbd9bfc41	-0.07616473
65	0xbd9b374d	-0.07578907
66	0xbd84df58	-0.06487912
67	0x3cdefea8	0.027221039
68	0x3c7ee5d8	0.015557729
69	0xbd44c244	-0.04803683
70	0xbc347963	-0.011015269
71	0xbcd9a4de	-0.026567873
72	0x3a8c78dd	0.0010717172
73	0x3cdf001f	0.027221737
74	0x3c5ac431	0.01335244
75	0x3d06e7bb	0.03293584
76	0xbd3f6993	-0.046731543
77	0xbd8db2d9	-0.06918878
78	0xbd11ea28	-0.0356237
79	0xbcfbcbf5	-0.030736903
80	0xbca3be19	-0.019988107
81	0x3d86cac1	0.06581641
82	0xbd2ffcab	-0.042965572
83	0x3c269a18	0.010168575
84	0xbcf61b6c	-0.030042373
85	0xbd8351d7	-0.06412094
86	0x3d42de65	0.047575373
87	0xbc78f671	-0.015195475
88	0x3dd8b217	0.10580843
89	0x3c84f151	0.01622835
90	0xbddc8c14	-0.10768905
91	0xbda14724	-0.07874897
92	0xbd759cd8	-0.05996403
93	0x3c9819ea	0.018567044
94	0x3de18566	0.11011772
95	0x3db072ca	0.08615644
96	0x3d0724e3	0.032994162
97	0xbd43f4b9	-0.047840808
98	0x3d28c8d8	0.041207165
99	0x3d5769da	0.052591182
100	0xbd4be8f7	-0.04978272
101	0xbd7d6e7d	-0.061872948
102	0x3b23a708	0.0024971385
103	0xbd6c5869	-0.057701502
104	0x3c8d0fc9	0.017219441
105	0xbd38273a	-0.044959284
106	0xbd9713a2	-0.073767915
107	0xbcdd308e	-0.027000692
108	0xbc397260	-0.011318773
109	0xbbddba26	-0.0067665754
110	0xbd56066e	-0.052252226
111	0x3d963fa7	0.073363595
112	0xbd8f3107	-0.06991773
113	0xbda10550	-0.078623414
114	0x3d6d79e2	0.057977565
115	0xbdb69d67	-0.08916741
116	0xbd5ef9c9	-0.054437432
117	0xbd07ea38	-0.033182353
118	0x3c81b040	0.015831113
119	0x3d52793c	0.05138515
120	0x3e0ae8e6	0.13565406
121	0xbdd56de3	-0.1042135
122	0xbd380744	-0.044928804
123	0xbdaf7100	-0.08566475
124	0x3d8d24d5	0.06891791
125	0x3d63c286	0.055605434
126	0x3d141d7b	0.036160927
127	0xbd2d6d5c	-0.04234062
128	0xbdb46e8a	-0.08810146
129	0xbb8d4c9c	-0.004312111
130	0x3a09a3fc	0.0005250571
131	0x3d665fcb	0.0562437
132	0xbc45dd9e	-0.012076763
133	0x3e658593	0.22414236
134	0x3e21e702	0.15810779
135	0xbd6e1125	-0.05812182
136	0x3d9f707d	0.07785127
137	0x3d1e8c0c	0.038707778
138	0x3ca9ca34	0.0207263
139	0xbd54677b	-0.0518565
140	0x3d62293f	0.055215117
141	0x3cfcfdc0	0.030882716
142	0xbd0a83e3	-0.033817183
143	0x3cd230c0	0.025658011
144	0xbd26e87b	-0.040749054
145	0x3e324796	0.1741012
146	0xbd006f4b	-0.031356137
147	0x3c87ecf1	0.016592475
148	0x3d089da9	0.03335348
149	0xbd918ed1	-0.07107318
150	0xbd1307b5	-0.035896022
151	0x3d720763	0.059089076
152	0x3d3213a7	0.043475773
153	0xbc9e76bd	-0.019343728
154	0x3b898607	0.0041968855
155	0x3cdb1007	0.02674104
156	0xbd815578	-0.0631513
157	0xbc9a6784	-0.018848188
158	0xbd167d7a	-0.036740758
159	0xbd7331a3	-0.05937351
160	0x3d8bfb2c	0.068350166
161	0xbb9df080	-0.0048199296
162	0xbc826be5	-0.015920589
163	0x3cc88523	0.024477547
164	0x3cb55ca9	0.02213891
165	0x3d1cfbe2	0.03832615
166	0xbc77b573	-0.015118944
167	0xbd01801f	-0.031616326
168	0xbd223c25	-0.03960814
169	0x3d59fe0f	0.053220805
170	0x3d3c7984	0.046014324
171	0x3d3368e5	0.043801207
172	0xbd2bf8ca	-0.04198531
173	0x3b570c31	0.0032813663
174	0xbbb9eb56	-0.005673806
175	0x3cbd3d78	0.0231006
176	0xbd323b24	-0.043513432
177	0x3bd5f38f	0.0065292786
178	0x3c9e4779	0.01932119
179	0x3d571074	0.052505925
180	0xbcce027e	-0.025147673
181	0xbc6ad707	-0.014333493
182	0xbda0b66f	-0.078472964
183	0x3c03da0a	0.00804759
184	0x3d823147	0.06357055
185	0xbd663128	-0.056199223
186	0x3d1b5658	0.03792414
187	0x3cbdbe7e	0.023162123
188	0x3d1cd753	0.038291287
189	0xbd1d0ff9	-0.03834531
190	0x3c6d34fe	0.014477966
191	0x3d1ed091	0.038773123
192	0xbd2a52f8	-0.04158303
193	0xba3d8d80	-0.0007230863
194	0x3d83d344	0.0643678
195	0x3d48f4c5	0.049061555
196	0x3d2b9dba	0.041898467
197	0xbcffe976	-0.031239253
198	0x3aab1932	0.0013053773
199	0x3ce3f44d	0.027826453
200	0xbcbc3838	-0.022976026
201	0xbd157c35	-0.036495406
202	0x3c933f4d	0.01797452
203	0xbbb482bf	-0.00550875
204	0xbd313504	-0.04326345
205	0xbd2bf2c0	-0.04197955
206	0xbc752c21	-0.014964134
207	0x3d1166fa	0.035498597
208	0xbc9a1f4e	-0.018813755
209	0xbb86a860	-0.0041094273
210	0xbce42b39	-0.027852641
211	0xbd71eafd	-0.059061993
212	0x3d06647c	0.032810673
213	0xbd7439bb	-0.05962537
214	0xbc9263f4	-0.017869927
215	0xbd6b613b	-0.057465773
216	0x3d671b04	0.05642225
217	0xbd2b0df8	-0.04176137
218	0x3d839dd4	0.06426588
219	0x3d05ca0b	0.032663386
220	0x3ca9bce8	0.02071996
221	0x3aa049f9	0.0012229077
222	0x3d1a691b	0.037697893
223	0x3d00f7b2	0.03148622
224	0xbbe8b1f2	-0.007101291
225	0xbd61a864	-0.05509223
226	0xbd891320	-0.06693101
227	0xbc90d0ba	-0.017677654
228	0x3d12e4eb	0.035862844
229	0xbc37b711	-0.01121308
230	0x3cc3a3f7	0.023881895
231	0xbc683f34	-0.014175225
232	0x3cd4ee83	0.025992638
233	0xbc235970	-0.009970054
234	0x3c283bfd	0.010268209
235	0x3cb70198	0.022339627
236	0xbc3e9124	-0.011631284
237	0xbd4734a8	-0.0486342
238	0xbcc52733	-0.024066543
239	0x3d0997c0	0.033591986
240	0x3d6402a5	0.055666585
241	0xbd9711c1	-0.07376433
242	0x3ca1ef3d	0.019767398
243	0xbc81fb6d	-0.01586696
244	0xbd317886	-0.04332783
245	0x3be50b3f	0.006989866
246	0xbd120f8c	-0.035659358
247	0x3cd2b6cc	0.02572193
248	0xbd0ea0e9	-0.034821425
249	0xbd659b22	-0.05605615
250	0xbbaed369	-0.0053352606
251	0xbd5b3ec4	-0.053526655
252	0xbd194f25	-0.037428994
253	0xbc3f2526	-0.011666572
254	0xbd15d195	-0.036576826
255	0x3d2fa8a7	0.04288545

conv2.bias f4 [128]
0	0x3db20ebb	0.08694216
1	0xbd3ee43d	-0.046604384
2	0xbd14b3e5	-0.036304373
3	0x3d5c8f3d	0.05384754
4	0xbcf59404	-0.029977806
5	0x3a191ce7	0.00058407936
6	0xbd0cc224	-0.034364834
7	0xbe0e03d5	-0.1386865
8	0xbe0336dd	-0.12813897
9	0x3e558e9b	0.20855181
10	0xbdf38c9c	-0.118920535
11	0x3da0cd30	0.078516364
12	0xbe1a47a8	-0.15066397
13	0xbdfcca76	-0.12343304
14	0xbe2f501a	-0.171204
15	0xbd896dd9	-0.06710405
16	0xbce78b58	-0.028264686
17	0xbdc5f67c	-0.09666154
18	0xbe1bea28	-0.15226042
19	0x3b9f42b9	0.004860249
20	0xbc1ea0b1	-0.0096818665
21	0xbd8c3efb	-0.0684795
22	0xbdae3739	-0.08506627
23	0x3e66c520	0.22536135
24	0xbdf240ff	-0.11828803
25	0xbd7db632	-0.061941333
26	0x3e91a02d	0.28442517
27	0xbdbb4d64	-0.091456205
28	0xbd4c56a2	-0.049887307
29	0xbddf86d1	-0.10914386
30	0xbdb8037e	-0.08985041
31	0xbd8a82e1	-0.067632444
32	0x3d94bd79	0.072627015
33	0xbdb47540	-0.08811426
34	0xbdd3db30	-0.10344541
35	0xbd873bac	-0.066031784
36	0xbd9b82a0	-0.07593274
37	0xbe0d3873	-0.13791065
38	0xbbcf49c4	-0.006325932
39	0xbd3bfad4	-0.045893505
40	0xbdd81cc8	-0.105523646
41	0xbd916bd1	-0.071006425
42	0xbdc2afd4	-0.09506193
43	0xbe17ed9a	-0.14836732
44	0x3e524051	0.20532347
45	0xbd6a844b	-0.05725507
46	0xbc2ee6b1	-0.010675118
47	0xbdff97ad	-0.12480102
48	0xbcba197d	-0.022717232
49	0xbcfab3cf	-0.030603318
50	0xbe4f4a2e	-0.20243141
51	0xbda420fc	-0.08014104
52	0x3d440660	0.047857642
53	0xbc95abd0	-0.018270403
54	0xbd8bbc6f	-0.0682305
55	0xbdac974c	-0.08427295
56	0xbc4b7e26	-0.012420213
57	0xbd2b199c	-0.04177247
58	0x3e66c9cb	0.22537915
59	0xbd33158e	-0.043721728
60	0xbda8405f	-0.08215403
61	0xbdba5acd	-0.0909935
62	0xbd8dbfbf	-0.06921338
63	0xbd9f62a9	-0.0778249
64	0xbd8db7d5	-0.06919829
65	0xbe249f94	-0.16076499
66	0x3e7cd353	0.24689989
67	0xbd5f31d9	-0.054490898
68	0xbe03f38b	-0.12885873
69	0xbc62a96c	-0.013834339
70	0xbd534a7a	-0.0515847
71	0xbe074bb9	-0.1321248
72	0xbe07a6e7	-0.13247262
73	0xbcee8163	-0.02911443
74	0xbd8711c2	-0.06595184
75	0xbe0fd24c	-0.14045066
76	0x3e891f5f	0.26781747
77	0xbe2bf8a6	-0.1679407
78	0xbdafd49d	-0.08585475
79	0xbba84a96	-0.0051358445
80	0xbe335225	-0.17511804
81	0xbd884e28	-0.06655532
82	0x3dd5b75e	0.10435365
83	0xbd640463	-0.055668246
84	0xbdb24806	-0.08705144
85	0xbd74b336	-0.05974122
86	0xbd3f8ddd	-0.04676615
87	0xbdb40a4a	-0.08791025
88	0xbe1bdf12	-0.15221813
89	0xbd3e7caa	-0.046505608
90	0xbd1e60fc	-0.03866671
91	0xbe2b942b	-0.1675574
92	0xbc5d8233	-0.013519811
93	0xbdea44f1	-0.11438931
94	0xbe45b56d	-0.1930749
95	0xbdcf35a8	-0.10117656
96	0xbe067242	-0.13129523
97	0xbc7e50ea	-0.015522221
98	0x3d2d7763	0.042350184
99	0xbce33c41	-0.027738692
100	0xbd86474f	-0.0655657
101	0x3aaec252	0.0013333058
102	0xbcfcfd2a	-0.030882437
103	0xbe5754a8	-0.21028388
104	0xbd1b0d8a	-0.03785471
105	0x3e2266e3	0.1585956
106	0xbe1e16ad	-0.15438338
107	0xbd346525	-0.04404177
108	0xbc8f95a6	-0.017527413
109	0xbdea2583	-0.11432936
110	0xbcbb46c2	-0.022860888
111	0xbe3279ee	-0.17429325
112	0xbbabcd19	-0.0052429554
113	0xbde29576	-0.11063664
114	0x3d9975c8	0.07493168
115	0xbd93d87f	-0.07219028
116	0xbd2db2e0	-0.042406917
117	0xbd0fb070	-0.035080373
118	0x3d2c4ff1	0.042068426
119	0xbd4f52d7	-0.05061611
120	0xbd885c4b	-0.066582285
121	0xbe00d15c	-0.12579864
122	0xbe2368c1	-0.15957929
123	0xbd6b674f	-0.05747157
124	0x3e385f2c	0.18005055
125	0xbd98821b	-0.07446691
126	0xbdbeb349	-0.0931154
127	0x3e6c4f9a	0.2307724

lstm.weight_ih_l0 f4 [200, 128]
0	0xbc93f921	-0.01806313
1	0xbd5e2d14	-0.05424221
2	0xbd12806c	-0.035767004
3	0xbd81d115	-0.06338707
4	0x3cf2b9d6	0.02962963
5	0x3dc44797	0.09583967
6	0x3ce6086a	0.028080184
7	0x3d9e0537	0.077158384
8	0x3da9041b	0.08252736
9	0x3dbf973f	0.0935502
10	0x3c7c2d7a	0.015391702
11	0x3db23d24	0.08703068
12	0x3d81e6a5	0.0634282
13	0x3dbc5112	0.091951504
14	0x3da0ba8c	0.07848081
15	0x3bc9c5c4	0.0061576087
16	0xbdf1d88e	-0.11808883
17	0x3d208daf	0.03919762
18	0x3d39d50a	0.045369186
19	0x3d8341db	0.06409045
20	0xbd077af3	-0.033076238
21	0x3d38cb2b	0.04511563
22	0x3e0fada5	0.14031084
23	0xbe3acce8	-0.18242228
24	0x3cefa8e0	0.02925533
25	0xbd736a5d	-0.059427608
26	0x3e13ef4d	0.14446755
27	0x3daa7474	0.08322993
28	0x3e139a08	0.14414227
29	0x3e083b00	0.13303757
30	0xbd6a9bf8	-0.05727765
31	0x3d260acc	0.04053764
32	0x3cb329f0	0.021870583
33	0xbc011396	-0.007878205
34	0x3d6fd2b7	0.058550563
35	0xbdeecf22	-0.11660601
36	0x3d09c024	0.033630505
37	0x3dfbe52e	0.12299572
38	0x3d4148b2	0.04718847
39	0x3dab9e85	0.083798446
40	0x3e0c370d	0.13692875
41	0x3db7016e	0.089358196
42	0xbdbe7cf4	-0.09301177
43	0x3cf1baa9	0.029507952
44	0x3e151aea	0.14561048
45	0x3dc25108	0.09488112
46	0xbd9134e5	-0.07090167
47	0xbd4e9142	-0.050431497
48	0x3e1771c9	0.147895
49	0x3b258f56	0.0025262437
50	0xbcef433d	-0.029206866
51	0xbcf16209	-0.029465692
52	0xbd9ebfff	-0.07751464
53	0x3c6c1f94	0.014411826
54	0xbd06c5ba	-0.03290341
55	0xbe026cd3	-0.12736826
56	0x3d851606	0.06498341
57	0x3d4c8544	0.04993178
58	0x3e85e0be	0.26148027
59	0x3cdb2018	0.026748702
60	0x3c55bb5f	0.013045161
61	0x3e109737	0.14120184
62	0xba277941	-0.00063886127
63	0x3e13a40e	0.1441805
64	0x3de2c085	0.110718764
65	0x3d14516b	0.03621046
66	0x3e22073e	0.15823075
67	0x3b26410e	0.0025368365
68	0x3cf253d9	0.029580997
69	0xbde8ed2b	-0.11373361
70	0xbd999706	-0.074995086
71	0x3d92a55f	0.07160448
72	0x3e3a4d5c	0.18193573
73	0x3dae33e0	0.08505988
74	0xbe025299	-0.12726821
75	0xbd0865c7	-0.033300187
76	0x3e4f7034	0.20257646
77	0xbc11bc9f	-0.008895068
78	0xbc66f5ff	-0.014096736
79	0xbd8080bc	-0.06274554
80	0xbd6b4add	-0.057444442
81	0x3e1ad72a	0.15121141
82	0xbdab0ba4	-0.0835183
83	0x3dbb3698	0.09141272
84	0xbdba4568	-0.090952694
85	0x3d57164e	0.052511506
86	0x3dbf54e0	0.093423605
87	0x3da884d2	0.082284585
88	0xbd98926b	-0.07449802
89	0xbda19166	-0.07889061
90	0xbcc6cc07	-0.02426721
91	0x3c9c01fc	0.019043915
92	0x3d94108a	0.07229717
93	0xbb38ae95	-0.002818023
94	0x3dbaef01	0.091276176
95	0xbcdbffd8	-0.026855394
96	0x3d397ef7	0.0452871
97	0x3da23d89	0.07921893
98	0x3dad0fd3	0.08450284
99	0xbdd2fee7	-0.10302525
100	0xbaeba9dd	-0.00179797
101	0x3d74418f	0.059632834
102	0x3de35ef5	0.11102096
103	0xbba692c3	-0.0050834133
104	0x3db5c6ba	0.08875795
105	0x3e355fac	0.17712277
106	0xbd0afc41	-0.033931974
107	0xbe06ef6d	-0.13177271
108	0x3e22c2bb	0.15894596
109	0xbd45e571	-0.048314516
110	0x3d1cf6ff	0.03832149
111	0x3b6d1ad3	0.0036179319
112	0x3e14c9d1	0.14530112
113	0x3ac7ecd7	0.0015253079
114	0xbd545c8a	-0.051846065
115	0x3ca13f48	0.019683495
116	0xbdec47f6	-0.11537163
117	0x3ba37b8c	0.004989093
118	0xbcfa157d	-0.030527825
119	0xbdd8ce36	-0.105862066
120	0xbd54df54	-0.051970795
121	0xbc95666d	-0.018237317
122	0xbdbf7e6b	-0.09350284
123	0xbdf54517	-0.119760685
124	0x3d5f3e11	0.05450255
125	0x3dbe9f93	0.0930778
126	0xbdbc6cfe	-0.09200476
127	0x3e4b8dfb	0.1987838
128	0x3be232d0	0.00690303
129	0x3d6775e1	0.056508902
130	0x3c8f40a6	0.017486881
131	0xbdb0ab9a	-0.086264804
132	0xbb543433	-0.0032379746
133	0xbe4f54a7	-0.20247136
134	0x3df6c30d	0.12048922
135	0xbe264ebb	-0.16240971
136	0x3cf43f3c	0.029815309
137	0x3db9e12a	0.0907615
138	0xbd247fd7	-0.04016098
139	0xbdd0aa83	-0.101887725
140	0xbd948ffa	-0.07254024
141	0x3de6aa0d	0.11262903
142	0xbc8b3012	-0.016990695
143	0xbda8fd31	-0.082514174
144	0xbde26355	-0.11054102
145	0x3ce13433	0.02749071
146	0x3d1cad29	0.038251076
147	0xbe088b8f	-0.13334487
148	0x3de36390	0.111029744
149	0x3dfe7739	0.12425084
150	0xbd339ffc	-0.043853745
151	0x3e7ee33e	0.24891374
152	0xbd867206	-0.06564717
153	0x3d7d0e43	0.06178118
154	0x3d47a010	0.048736632
155	0xbe0b39c9	-0.13596262
156	0x3cc79662	0.0243637
157	0xbe12ef2b	-0.14349048
158	0xbdb4108a	-0.08792217
159	0xbd651810	-0.05593115
160	0x3d4251e0	0.047441363
161	0x3e0d8810	0.13821435
162	0xbcefafd6	-0.02925865
163	0xbdb19a34	-0.0867199
164	0x3d121763	0.035666835
165	0x3ddc715f	0.10763811
166	0xbe19fc70	-0.15037704
167	0xbe0bcc52	-0.13652161
168	0x3cd0c0d2	0.025482569
169	0xbde3abc0	-0.11116743
170	0xbe0fe828	-0.14053404
171	0xbe134c45	-0.14384563
172	0x3eb684ec	0.35648286
173	0x3da81b6f	0.082083575
174	0x3e0dc898	0.13846052
175	0xbe02c104	-0.12768942
176	0x3b353182	0.0027647917
177	0xbdc2c089	-0.095093794
178	0xbd17948f	-0.03700691
179	0x3d7ef344	0.062243715
180	0x3e25adfd	0.16179653
181	0x3cf91c75	0.030409077
182	0x3d95f941	0.07322932
183	0x3d567d4d	0.05236559
184	0xbdccfa0b	-0.100086294
185	0x3bf2d550	0.0074106827
186	0x3e2c609e	0.16833732
187	0xbdb102e0	-0.086431265
188	0xbe0587bc	-0.1304006
189	0xbd7df392	-0.061999865
190	0xbd907736	-0.07053988
191	0xbdb9f806	-0.0908051
192	0xbd8cfc29	-0.06884033
193	0xbd87ead9	-0.066365905
194	0xbd98e89f	-0.07466244
195	0xbc8389fc	-0.016057007
196	0x3d2582af	0.040407833
197	0xbdc98d66	-0.09841423
198	0xbdcb309d	-0.099213816
199	0xbde8f39c	-0.1137459
200	0x3d1ec3d2	0.038760968
201	0xbdcbf554	-0.09958902
202	0x3e159e0d	0.14611073
203	0xbdc29313	-0.095007084
204	0xbd88cd06	-0.0667973
205	0xbe17a881	-0.14810373
206	0x3c267b2b	0.0101612015
207	0x3e034d07	0.12822352
208	0xbe27a557	-0.16371666
209	0xbdafa1d0	-0.08575785
210	0x3e208b80	0.15678215
211	0xbb73741c	-0.0037148064
212	0x3d45c4b1	0.048283283
213	0xbe0830ce	-0.13299868
214	0x3d86d076	0.065827295
215	0xbd097860	-0.033562064
216	0x3bfa2177	0.007633384
217	0x3dcc02c5	0.09961466
218	0xbcc8855b	-0.024477651
219	0xbe1f0afe	-0.15531537
220	0xbcc59cad	-0.02412256
221	0x3d98baef	0.0745753
222	0xbdab847c	-0.08374879
223	0xbd8cb71c	-0.06870863
224	0xbd43c49f	-0.047794934
225	0x3dc2c852	0.09510864
226	0xbd385dc4	-0.045011297
227	0xbc8ae1b0	-0.01695332
228	0xbd86d44d	-0.06583462
229	0x3d8e8d4a	0.069605425
230	0x3c5464a2	0.012963446
231	0x3daf0286	0.08545403
232	0xbe124b0e	-0.14286444
233	0xbd4ecbc0	-0.05048728
234	0x3e2986d0	0.16555333
235	0xbdeb62fc	-0.11493489
236	0xbd5edece	-0.0544117
237	0x3d02adc5	0.031904
238	0x3dd142d4	0.102178246
239	0xbd5bca76	-0.05365988
240	0xbe0d1e53	-0.13781099
241	0xbc044942	-0.008074107
242	0x3dc30dcd	0.09524117
243	0x3c771455	0.015080531
244	0xbe087727	-0.13326703
245	0xbb72ec09	-0.0037066957
246	0x3d5d6955	0.05405553
247	0xbddd8c19	-0.10817737
248	0xbd90d6d4	-0.07072225
249	0xbdc82f3d	-0.09774635
250	0xbe0e060e	-0.13869497
251	0xbd900926	-0.07032995
252	0xbdee1763	-0.116255544
253	0xbd8b2541	-0.06794215
254	0xbd39c70b	-0.045355838
255	0x3ead6a21	0.33870032

lstm.weight_hh_l0 f4 [200, 50]
0	0xbb8a63bb	-0.0042233146
1	0xbdb45564	-0.088053495
2	0xbcca0a30	-0.02466306
3	0xbe116d80	-0.14201927
4	0x3e23d492	0.15999058
5	0xbcc8bb1d	-0.024503285
6	0x3e02b6f3	0.12765102
7	0x3e07314d	0.132024
8	0xbbf30355	-0.0074161687
9	0xbd3f24e4	-0.04666604
10	0xbdca6ca6	-0.09884004
11	0xbe0f65c0	-0.14003658
12	0x3dd7e053	0.10540833
13	0xbd6f42a9	-0.05841318
14	0xbe0b8990	-0.13626695
15	0x3c6854dd	0.014180389
16	0xbce2da57	-0.027692003
17	0xbe128cb4	-0.14311486
18	0xbdd3ecf4	-0.103479296
19	0xbe03ee92	-0.12883976
20	0x3dbf640e	0.09345256
21	0xbd3b1c8e	-0.04568153
22	0xbd810bcb	-0.063010775
23	0xbdd05c48	-0.10173851
24	0x3e03cb90	0.12870622
25	0x3e01ce9a	0.12676468
26	0x3e175b23	0.1478086
27	0x3da0be95	0.07848851
28	0x3dba3980	0.090929985
29	0xbd9bd3d7	-0.076087646
30	0xbda30eb9	-0.079617925
31	0x3cd1562b	0.025553783
32	0xbd984aa0	-0.074361086
33	0x3df78c2f	0.12087285
34	0xbe1e497c	-0.1545772
35	0x3debb3a4	0.11508873
36	0x3d487439	0.048938964
37	0xbdef1eb2	-0.116757765
38	0x3d7ec516	0.062199675
39	0xbe014ce5	-0.12626989
40	0xbd229c2e	-0.039699726
41	0xbe06978f	-0.13143753
42	0xbe0326c3	-0.12807755
43	0xbbecee3b	-0.0072305477
44	0xbd9f2d31	-0.077722915
45	0xbeaa342f	-0.33242938
46	0xbda36b1c	-0.07979414
47	0xbcf9672b	-0.030444702
48	0xbb5241a5	-0.0032082584
49	0x3e0a38b6	0.13498196
50	0xbd8fd0fa	-0.07022281
51	0xbcefbca6	-0.02926476
52	0x3e110bee	0.14164707
53	0xbd18d62f	-0.037313636
54	0x3d69463c	0.056951746
55	0xbcfcbca1	-0.030851664
56	0x3bacdcf9	0.0052753654
57	0x3d315bf3	0.04330058
58	0xbdb79839	-0.08964581
59	0x3c1ab7c6	0.009443229
60	0x3d5d9f81	0.054107193
61	0x3df2ebd7	0.11861389
62	0x3d93bbec	0.07213578
63	0x3da67e4f	0.0812956
64	0x3cdfb7e4	0.027309366
65	0xbdd4d152	-0.10391487
66	0xbd91ac2a	-0.07112916
67	0x3e1d210d	0.15344639
68	0xbcb5cfe4	-0.022193857
69	0x3dca9d0e	0.09893237
70	0x3e0615b5	0.13094218
71	0x3dbd6525	0.092478074
72	0x3d3ff4cf	0.046864327
73	0x3d4ca563	0.049962413
74	0xbd6fc93a	-0.058541514
75	0xbded7df9	-0.11596293
76	0x3daecfd3	0.08535733
77	0xbd5a6d28	-0.053326756
78	0x3cfc44aa	0.03079446
79	0xbd921118	-0.071321666
80	0x3deb7e3d	0.114986874
81	0xbdd54ae0	-0.10414672
82	0x3d8aff60	0.0678699
83	0xbe14b554	-0.14522296
84	0x3dcb72f6	0.099340364
85	0x3db68eba	0.08913942
86	0xbcde0bda	-0.02710526
87	0x3d04efab	0.032455128
88	0x3d7fd0ff	0.062455174
89	0x3ca55541	0.020182254
90	0xbc1af09a	-0.009456778
91	0xbd96f242	-0.07370426
92	0x3c59a2d7	0.013283453
93	0x3cb7c6e5	0.022433707
94	0x3d1340db	0.035950523
95	0xbd909a28	-0.07060653
96	0x3d1b4c3c	0.0379145
97	0x3cdc72ad	0.02691015
98	0x3de7e7e5	0.11323527
99	0x3ddbe629	0.10737259
100	0x3d87824f	0.06616651
101	0x3d8a9df9	0.06768412
102	0xbd77c8ac	-0.06049411
103	0x3dbe30c9	0.09286649
104	0xbd821236	-0.0635113
105	0xbe836dc9	-0.25669697
106	0xbe49797a	-0.19675246
107	0xbda1239e	-0.078681216
108	0xbd5af864	-0.05345954
109	0xbdd65e2a	-0.10467179
110	0xbc483fdd	-0.012222257
111	0x3e33b054	0.17547733
112	0xbd4d9e1f	-0.050199624
113	0xbd61bf2d	-0.05511396
114	0x3d00285d	0.031288493
115	0xbe1ef858	-0.15524423
116	0xbcd145a0	-0.025545895
117	0x3e1b370c	0.15157717
118	0xbd1faa52	-0.03898079
119	0x3e27bce4	0.1638065
120	0xbe3bb127	-0.18329297
121	0x3e0236cf	0.1271622
122	0x3d61c720	0.05512154
123	0x3de7d876	0.113205835
124	0x3e09be4a	0.13451496
125	0x3d9ec50c	0.077524275
126	0xbe85a6f5	-0.2610394
127	0xbe532809	-0.20620741
128	0x3d3a8bcd	0.04554348
129	0xbd49d1ff	-0.049272534
130	0x3de9f997	0.114245586
131	0xbdb30d6c	-0.087427944
132	0x3ca0fca1	0.019651713
133	0xba493476	-0.0007675359
134	0x3df2a097	0.11847036
135	0xbe122343	-0.14271264
136	0x3d8f156f	0.0698651
137	0xbc83514e	-0.01602998
138	0xbd4da4cf	-0.050206
139	0xbe38fa62	-0.18064263
140	0x3e10ccbd	0.14140601
141	0x3e305b9a	0.17222443
142	0xbc20f316	-0.009823581
143	0xbc50a75c	-0.012735214
144	0xbd85dde8	-0.06536466
145	0x3e3406ac	0.1758067
146	0x3e299232	0.16559675
147	0x3daa0ed6	0.08303611
148	0x3ddc46da	0.10755701
149	0xbdb679d3	-0.08909955
150	0xbde70b6f	-0.11281478
151	0xbe2edbee	-0.17076084
152	0x3d1a851a	0.03772459
153	0x3d28eaaf	0.041239437
154	0x3d7f88dd	0.062386382
155	0xbdea8d3b	-0.11452719
156	0xbcbb0fba	-0.022834647
157	0x3e1f1a17	0.15537296
158	0xbdd903cb	-0.105964266
159	0xbd577a2a	-0.05260674
160	0xbe43b6ba	-0.19112673
161	0xbc724c74	-0.014788736
162	0x3e0ab163	0.1354423
163	0xbe85a379	-0.26101282
164	0xbe06fa1d	-0.13181348
165	0x3d92feed	0.071775295
166	0x3dcea41e	0.100898966
167	0xbe24713d	-0.16058822
168	0xbce51a4d	-0.027966643
169	0x3e1a8827	0.15091
170	0xbccc7248	-0.024956837
171	0x3d2c94cb	0.042134088
172	0x3d2ecb02	0.042674072
173	0x3dd69aad	0.10478721
174	0xbe03d815	-0.12875398
175	0xbe030af6	-0.1279715
176	0xbd8e83a9	-0.06958706
177	0x3dc0ac72	0.09407891
178	0x3e2376c6	0.15963277
179	0x3c8ec6a6	0.017428707
180	0xbde47f3b	-0.1115708
181	0xbc3f5160	-0.011677116
182	0x3dbf1d58	0.09331769
183	0x3d3b74b6	0.0457656
184	0xbe1db244	-0.15400034
185	0x3d95c612	0.073131695
186	0x3dd52387	0.10407167
187	0x3d9ea4c1	0.07746268
188	0x3e1917af	0.14950441
189	0xbd988942	-0.07448055
190	0xbc154863	-0.009111497
191	0x3def09da	0.11671801
192	0xbe989395	-0.29800096
193	0x3db282c0	0.08716345
194	0xbbe5e5f3	-0.0070159375
195	0xbe57c9b6	-0.2107304
196	0xbd8799c8	-0.06621128
197	0xbde5021f	-0.11182045
198	0x3e26057f	0.16213034
199	0xbe10f53b	-0.14156048
200	0xbdd2b2e8	-0.1028803
201	0xbda5dd0f	-0.08098804
202	0x3d75a9c1	0.059976343
203	0xbdc9e560	-0.09858203
204	0xbdbf3a4f	-0.09337293
205	0xbe1648cc	-0.14676207
206	0xbd20e0cc	-0.039276883
207	0x3d021daa	0.03176657
208	0xbc630516	-0.013856193
209	0x3d84be6f	0.06481635
210	0xbca408b9	-0.02002369
211	0x3cf55280	0.029946566
212	0x3da191b8	0.07889122
213	0xbe2acd4f	-0.16679882
214	0xbdc20919	-0.094743915
215	0xbdc02eb7	-0.0938391
216	0x3d8415db	0.06449481
217	0x3dbab281	0.09116078
218	0xbd4fe21e	-0.05075275
219	0xbd303287	-0.043016937
220	0xbe31d567	-0.17366563
221	0x3e3270c4	0.17425829
222	0xbe1f01c9	-0.15528025
223	0xbcc702bf	-0.024293302
224	0x3dcfe998	0.10151976
225	0xbe1f17e2	-0.15536454
226	0x3db22fbf	0.08700513
227	0xbd172f71	-0.036910478
228	0xbe122693	-0.14272527
229	0xbd60e06f	-0.054901537
230	0x3e127e08	0.1430589
231	0xbd8884da	-0.066659644
232	0x3da8d5a9	0.082438774
233	0xbe184108	-0.14868557
234	0x3dffce8e	0.12490569
235	0xbc0ea316	-0.008705875
236	0xbe448308	-0.1919061
237	0x3d6a052d	0.057133842
238	0x3e240c91	0.16020419
239	0xbdcea40d	-0.10089884
240	0xbd16c1ef	-0.036806043
241	0x3d80b1d2	0.062839165
242	0xbe365848	-0.17807114
243	0x3cb53fb0	0.022125095
244	0xbdf0e4fe	-0.11762427
245	0x3e236e7f	0.1596012
246	0xbd1f2af9	-0.03885934
247	0x3981bd59	0.00024745872
248	0xbdf39016	-0.118927166
249	0xbe43eb61	-0.19132759
250	0x3c94e6cc	0.018176459
251	0xbcaa547b	-0.020792237
252	0x3e27e883	0.1639729
253	0xbe27b646	-0.16378126
254	0x3e1a360c	0.1505968
255	0x3e149b5a	0.14512387

lstm.bias_ih_l0 f4 [200]
0	0xbe0675e7	-0.13130914
1	0x3d413fbb	0.04717992
2	0x3ca2c5a2	0.01986963
3	0x3e76c750	0.24099469
4	0xbdb21997	-0.08696287
5	0x3dbff8c8	0.09373623
6	0xbda90e2c	-0.08254656
7	0xbdb525b6	-0.088450834
8	0xbc61877d	-0.013765213
9	0x3e212fe1	0.1574092
10	0x3d8cbb99	0.06871719
11	0x3d30a698	0.043127626
12	0xbd3278f9	-0.0435724
13	0x3e4d7504	0.20064169
14	0x3c38f506	0.011288887
15	0xbc5d92f7	-0.013523809
16	0x3de12144	0.10992673
17	0x3dfb5176	0.12271397
18	0x3d22252d	0.039586235
19	0x3dd701b1	0.104983695
20	0xbe0135a4	-0.12618119
21	0x3ddb7d19	0.1071722
22	0x3e3e3cf3	0.18577938
23	0xbe0e187c	-0.13876528
24	0xbda00922	-0.07814242
25	0xbe0d4c3d	-0.13798614
26	0xbdbb157d	-0.09134958
27	0x3e1b4240	0.15161991
28	0x3e081519	0.13289298
29	0x3d8a2da1	0.06746984
30	0xbd440d85	-0.047864456
31	0x3bc31418	0.005953323
32	0x3e02d76b	0.12777488
33	0x3d6ebf45	0.058287878
34	0x3e001f22	0.12511876
35	0x3e4e3cd3	0.2014039
36	0x3e6d8a33	0.2319725
37	0x3cb385ca	0.021914382
38	0x3d7862a6	0.060640953
39	0x3dbf0848	0.093277514
40	0xbdb03406	-0.08603673
41	0xbdaef288	-0.08542353
42	0x3dca361a	0.098736
43	0x3dfe09b2	0.12404193
44	0x3dd1a409	0.10236365
45	0x3e21f29e	0.15815207
46	0xbb846884	-0.0040407795
47	0x3e428e0e	0.18999502
48	0xbd59d3f0	-0.053180635
49	0x3dc6e99c	0.09712526
50	0xbc1f79f7	-0.0097336685
51	0x3da978d3	0.082749985
52	0xbd8341b1	-0.06409014
53	0x3d27c043	0.04095484
54	0x3d45f7bc	0.04833196
55	0xbe22c875	-0.15896781
56	0xbe2c78c7	-0.16842948
57	0xbd84ce0d	-0.064846136
58	0xbe3dd01e	-0.18536422
59	0xbcba45f4	-0.022738434
60	0xbe1545f5	-0.14577468
61	0x3b66072d	0.0035099492
62	0x3dc7b6a9	0.097516365
63	0xbdd871c7	-0.10568576
64	0xbd886b0c	-0.066610426
65	0x3dcb1a87	0.09917169
66	0xbe316bd6	-0.17326292
67	0xbd8b0832	-0.067886725
68	0xbdfe1545	-0.124064006
69	0x3e22e5bd	0.1590795
70	0xbd465769	-0.048423205
71	0xbd2d5f6f	-0.04232734
72	0x3c891769	0.016734796
73	0xbe319b7b	-0.17344467
74	0xbd310bf0	-0.043224275
75	0x3dd8916d	0.10574613
76	0xbc417db3	-0.011809754
77	0x3d558bf8	0.052135438
78	0xbd76921f	-0.060197946
79	0xbe0a09e6	-0.13480338
80	0x3ce8add5	0.028403202
81	0x3d221508	0.03957084
82	0xbe29aad4	-0.16569072
83	0xbd749947	-0.05971649
84	0xbd78f287	-0.060778167
85	0xbdab2839	-0.08357281
86	0xbde522fa	-0.11188312
87	0xbcc78707	-0.024356378
88	0x3d96a704	0.073560745
89	0xbded4921	-0.11586214
90	0xbdce5d22	-0.100763574
91	0xbd7061b6	-0.058686934
92	0xbe6fd1fe	-0.2341995
93	0x3dd0b8c5	0.10191492
94	0x3d90fb45	0.07079176
95	0xbce1764d	-0.02752223
96	0xbdcf4b48	-0.10121781
97	0xbdceef7e	-0.10104273
98	0xbd21229d	-0.03933965
99	0xbe0a380b	-0.13497941
100	0xbccb4b58	-0.0248162
101	0xbdee631b	-0.116399966
102	0xbe03bea7	-0.12865697
103	0x3d9adf19	0.07562084
104	0xbdb5e632	-0.08881797
105	0xbe10b31d	-0.14130826
106	0x3b64521c	0.003483898
107	0x3da81bc8	0.08208424
108	0xbba90905	-0.005158546
109	0xbdb57952	-0.08861031
110	0xbc779b9f	-0.015112787
111	0xbdc73f5c	-0.09728882
112	0x3e29c07d	0.16577335
113	0x3e0d5c6f	0.13804792
114	0xbcfdfae0	-0.031003416
115	0x3d9a3575	0.07529727
116	0x3e1bce30	0.15215373
117	0xbde259c0	-0.11052275
118	0xbddfe81e	-0.10932945
119	0x3dbed4f1	0.09317959
120	0xbd85435b	-0.06506988
121	0x3da68493	0.08130755
122	0xbdc56dc7	-0.09640079
123	0xbbd06faa	-0.0063609676
124	0x3db51e38	0.088436544
125	0x3ce2081a	0.027591754
126	0xbd8a0543	-0.06739285
127	0x3dc13a65	0.09434966
128	0x3dcebca7	0.10094576
129	0x3dce7689	0.100812025
130	0xbcc404e6	-0.023928117
131	0xbcf466f5	-0.02983425
132	0xbd9a4798	-0.07533187
133	0x3cac2365	0.021012971
134	0xbd2343a7	-0.03985944
135	0xbcf2c74e	-0.029636052
136	0xbba5c82b	-0.0050592623
137	0x3d57e224	0.0527059
138	0x3dd53349	0.104101725
139	0xbd588a4f	-0.052866276
140	0x3cb38c18	0.021917388
141	0x3d82df4a	0.06390245
142	0x3d6a5566	0.05721035
143	0x3d8bf318	0.06833476
144	0x3da6c900	0.081438065
145	0xbd739a59	-0.05947337
146	0xbc622365	-0.013802384
147	0xbd45ea02	-0.04831887
148	0xbd4ab326	-0.049487256
149	0xbb5c8507	-0.0033648626
150	0xbda1038c	-0.07862005
151	0xbdee70d1	-0.11642612
152	0x3d022b9e	0.031779878
153	0x3e12bf4b	0.14330785
154	0x3db38b2a	0.08766778
155	0x3dc9f957	0.09862011
156	0x3d26629c	0.040621385
157	0x3e3b899b	0.18314211
158	0x3dec83be	0.11548565
159	0x3d65d61c	0.056112394
160	0x3e465021	0.19366504
161	0x3d9aed42	0.075647846
162	0x3cf41d9b	0.029799273
163	0x3de0d8c3	0.10978844
164	0xbdb59dbd	-0.08867977
165	0x3ab53bbe	0.0013827009
166	0x3da578c0	0.08079672
167	0x3c03b222	0.008038076
168	0xbe1ef066	-0.15521392
169	0x3dd50c3c	0.10402724
170	0xbd8f8ff2	-0.07009877
171	0xbceabe5e	-0.028655227
172	0x3d6dcca2	0.05805648
173	0x3ce47deb	0.027892074
174	0x3d8a13f1	0.06742085
175	0xbdbb9054	-0.09158388
176	0x3db507cd	0.088393785
177	0x3ce53ca0	0.02798301
178	0x3e10bee5	0.1413532
179	0xbdb4d2cc	-0.08829269
180	0xbc45f4d2	-0.0120822955
181	0xbda7bd03	-0.08190348
182	0xbc3f2561	-0.011666627
183	0xbdf13f7f	-0.11779689
184	0x3e4dd9d0	0.2010262
185	0x3e618363	0.22022776
186	0x3ce5834a	0.028016705
187	0x3d0a42f0	0.033755243
188	0xbd58aa06	-0.052896522
189	0x3ddf30bc	0.10897967
190	0x3dc0dfce	0.09417687
191	0xbd08248b	-0.033237975
192	0x3da77dfb	0.08178326
193	0x3d8a75b6	0.06760733
194	0x3c28e739	0.010309034
195	0x3de14545	0.1099954
196	0x3dc14460	0.094368696
197	0x3db2d1e2	0.08731438
198	0x3c632342	0.013863387
199	0xbd6bdbc3	-0.057582628

lstm.bias_hh_l0 f4 [200]
0	0x3bf8545e	0.0075784167
1	0x3c7dd0eb	0.015491704
2	0x3e1e6a61	0.15470268
3	0x3aae3913	0.0013292156
4	0xbd11a842	-0.035560854
5	0x3dba35df	0.09092306
6	0x3dec7163	0.11545064
7	0x3d50e282	0.050997265
8	0xbd9750ad	-0.073884346
9	0x3d347182	0.044053562
10	0x3d107f27	0.035277512
11	0x3dce6ddf	0.1007955
12	0xbcc250ea	-0.023720223
13	0x3e60a947	0.21939574
14	0x3df92039	0.12164349
15	0x3d0b7a71	0.034052316
16	0x3dbc1b39	0.0918488
17	0x3e09999e	0.13437507
18	0x3c2bd99c	0.010488894
19	0xbe0079ba	-0.12546435
20	0xbe084ab3	-0.13309745
21	0xbdfbb8e3	-0.12291124
22	0x3e0e51d1	0.13898398
23	0x3d66fd1c	0.056393728
24	0xbe344147	-0.17603026
25	0x3d102b90	0.035197794
26	0xbde1b17a	-0.11020179
27	0x3d3cfc7a	0.046139218
28	0xbd8a5f79	-0.06756491
29	0xbdb63b72	-0.08898057
30	0x3d4a6a30	0.049417675
31	0xbdfec4f2	-0.12439908
32	0x3e2cc00a	0.16870132
33	0x3da9aaeb	0.08284553
34	0x3e3cb3eb	0.18428008
35	0x3e5965b2	0.212302
36	0x3e154053	0.14575319
37	0x3e43e0d8	0.1912874
38	0x3d2c88b4	0.042122558
39	0x3d6c5433	0.057697486
40	0x3b74784b	0.0037303146
41	0x3de3e086	0.11126809
42	0xbd370f2d	-0.044692207
43	0x3d967832	0.07347144
44	0x3d3afdbf	0.045652147
45	0x3ddcc8da	0.10780497
46	0xbcaae38f	-0.020860462
47	0x3cd63e81	0.026152851
48	0xbdd8d89e	-0.105881914
49	0x3dfa6636	0.122265264
50	0xbdfd5656	-0.12369983
51	0xbe092a29	-0.13394989
52	0x3da96898	0.08271903
53	0xbd81fc5b	-0.06346961
54	0x3d33d8e1	0.043908004
55	0x3b63f143	0.0034781254
56	0xbce3ed40	-0.02782309
57	0xbd42e903	-0.0475855
58	0x3d19792c	0.037469074
59	0xbd604863	-0.054756533
60	0xbe146637	-0.14492117
61	0xbdf3ac7d	-0.11898134
62	0x3e57ab90	0.2106154
63	0x3de9e057	0.114197426
64	0x3c04ea16	0.008112451
65	0x3dc6bbaf	0.097037666
66	0xbdc5901c	-0.09646627
67	0xbe61bda0	-0.22044992
68	0x3dc4019b	0.09570619
69	0x3d79c30e	0.060977034
70	0xbd498656	-0.04920038
71	0x3d59e691	0.0531984
72	0xbe1b135c	-0.15144104
73	0xbc933a1f	-0.01797205
74	0x3d9beae4	0.07613161
75	0xbcb86502	-0.022509102
76	0xbd2daaab	-0.04239909
77	0xbdc56be2	-0.09639718
78	0x3d7da1b1	0.06192178
79	0xbde1797a	-0.11009498
80	0xbe4a13ca	-0.19734111
81	0x3cd2037e	0.02563643
82	0xbd9547c0	-0.07289076
83	0x3dbfb7d2	0.09361233
84	0xbe03992a	-0.12851396
85	0x3c78f085	0.015194063
86	0xbd62451b	-0.055241685
87	0x3e00dbcd	0.12583847
88	0x3d8c5494	0.068520695
89	0x3dcd904d	0.10037289
90	0x3d965ce4	0.07341936
91	0xbe14c9c5	-0.14530094
92	0xbe57c13c	-0.21069807
93	0xb9d2ca28	-0.0004020494
94	0xbe4476d1	-0.1918595
95	0xbe0ef5f9	-0.13961019
96	0xbe3b5816	-0.18295321
97	0xbe0ea112	-0.13928631
98	0xbdba31aa	-0.09091504
99	0xbd2cf7c9	-0.042228494
100	0xbc9a38d5	-0.018825928
101	0xbd1ffe51	-0.039060894
102	0x3bc0feee	0.005889765
103	0xbdbb1d73	-0.09136476
104	0x3dc64f7f	0.096831314
105	0x3ca0f165	0.019646356
106	0xbdf6923d	-0.120396115
107	0xbde32e7c	-0.110928506
108	0xbdcc0260	-0.099613905
109	0x3cba7eb4	0.022765495
110	0x3e18a2ae	0.14905807
111	0x3da3670b	0.07978638
112	0x3d043aa9	0.032282505
113	0xbc7a0f95	-0.015262504
114	0xbcf39bdd	-0.029737407
115	0x3e0b9ca8	0.13633978
116	0x3df41a63	0.11919095
117	0x3d5247d8	0.051338047
118	0x3c316925	0.010828291
119	0x3e2715a2	0.16316846
120	0x3db9dceb	0.0907534
121	0x3dc09fcf	0.09405481
122	0x3dcbb03d	0.09945724
123	0xbd02da20	-0.0319463
124	0x3c581017	0.01318743
125	0x3d15f2d8	0.036608547
126	0xbe1dfd45	-0.15428646
127	0xbdad027d	-0.0844774
128	0x3e1941f8	0.14966571
129	0xbc69fc35	-0.014281322
130	0xbd3abe35	-0.04559155
131	0x3e163fc7	0.14672767
132	0xbd8c1d7c	-0.06841561
133	0x3d5175fb	0.051137906
134	0x3df79d91	0.120906
135	0x3df6fe83	0.12060263
136	0x3d7bbfd6	0.061462246
137	0xbca3c2e4	-0.019990392
138	0x3c76f0d5	0.015072067
139	0x39b2a6f5	0.00034075198
140	0x3d8f727e	0.070042595
141	0xbaf500a4	-0.0018692208
142	0x3b1dd802	0.002408505
143	0xbde1abb8	-0.11019081
144	0xbe1bef3f	-0.15227984
145	0xbc02bc42	-0.0079794545
146	0xbd2e2244	-0.042513147
147	0xbde5e98a	-0.11226185
148	0xbe06c004	-0.13159186
149	0xbd9a6172	-0.075381175
150	0x3dc03f86	0.09387116
151	0x3cc98671	0.02460024
152	0x3da44301	0.080205925
153	0x3e5cf5df	0.21578167
154	0xbd11503a	-0.0354769
155	0x3e39eded	0.18157168
156	0x3dc6817c	0.09692666
157	0x3dcbff52	0.09960808
158	0xbdef32d2	-0.11679615
159	0x3e04d41a	0.12971535
160	0x3dcd11e0	0.10013175
161	0xbe19ce32	-0.15020064
162	0xbd4cd93b	-0.050011855
163	0x3e19f399	0.15034331
164	0xbdfcdbe9	-0.12346632
165	0x3e45d931	0.19321133
166	0x3caa29dc	0.020771913
167	0x3d7e9c49	0.062160764
168	0x3d912dc5	0.07088808
169	0xbd096525	-0.033543725
170	0x3d958403	0.0730057
171	0xbbd320a3	-0.0064430996
172	0x3dd522d4	0.104070336
173	0x3debdef1	0.11517132
174	0xbd808e6d	-0.062771656
175	0xbe11c27f	-0.1423435
176	0xbc5fa24e	-0.013649536
177	0x3df55b76	0.119803354
178	0x3ccbb28c	0.024865411
179	0xbdbde9e7	-0.09273129
180	0xbc0b33f4	-0.008496273
181	0xbdda16f1	-0.10648907
182	0x3c9f5a74	0.019452311
183	0x3d857bfb	0.06517788
184	0x3e49521f	0.19660233
185	0x3da67983	0.08128645
186	0x3e87da73	0.2653385
187	0x3e02b789	0.12765326
188	0xbd046c88	-0.032330066
189	0x3d7445d8	0.05963692
190	0xbd9664e5	-0.07343463
191	0xbe19742f	-0.14985727
192	0x3dc6f207	0.09714132
193	0xbdc7d640	-0.09757662
194	0x3d6f4768	0.058417708
195	0x3e408339	0.18800057
196	0xbdbe4678	-0.092907846
197	0x3e154754	0.14577991
198	0xbe362634	-0.17788011
199	0x3d4cf05a	0.050033905

lstm.weight_ih_l1 f4 [200, 50]
0	0xbd3de9c5	-0.046365518
1	0xbcc74400	-0.024324417
2	0xbe7ec019	-0.24877967
3	0x3e68cd4a	0.22734562
4	0xbdf2445b	-0.11829444
5	0x3e01c6f1	0.12673546
6	0x3e0e9859	0.13925304
7	0xbd464859	-0.04840884
8	0xbe2f5fb9	-0.17126359
9	0xbe50a37c	-0.20374864
10	0x3da7963b	0.08182951
11	0x3e0c365d	0.13692613
12	0x3dd47752	0.10374321
13	0x3e47525b	0.1946501
14	0x3d9924dd	0.07477734
15	0xbd8ce940	-0.068804264
16	0x3e018a7f	0.12650488
17	0xbe7ac54d	-0.24489327
18	0xbdae30b0	-0.0850538
19	0xbde156d9	-0.11002893
20	0xbe074ca8	-0.13212836
21	0x3cf2cf5f	0.029639898
22	0xbd1511b6	-0.036393844
23	0xbe150967	-0.14554368
24	0x3ddd4eb5	0.10806028
25	0x3e3e40b6	0.18579373
26	0xbd8abf89	-0.06774814
27	0xbd53e88c	-0.051735446
28	0x3dcb0852	0.09913696
29	0x3d8ea1b9	0.0696444
30	0xbe3ba76a	-0.18325582
31	0x3def392f	0.11680829
32	0x3cdcf833	0.02697382
33	0x3e0bd3a3	0.13654952
34	0xbdc94385	-0.098273315
35	0x3cd4a615	0.0259581
36	0x3e46a051	0.19397093
37	0xbe447e0e	-0.19188711
38	0xbd8b63c2	-0.06806137
39	0xbe1fb502	-0.15596393
40	0xbcad5a43	-0.021161204
41	0xbe036959	-0.12833156
42	0x3e196ddd	0.14983316
43	0xbe66c6b8	-0.22536743
44	0xbd8ada56	-0.067799255
45	0x3df6da07	0.12053304
46	0xbdc45022	-0.095855966
47	0xbcbc3d45	-0.022978434
48	0x3db3fd54	0.08788553
49	0x3db26a1b	0.08711644
50	0xbdf61b3f	-0.120169155
51	0x3dcd6b22	0.100301996
52	0x3dabdd5f	0.083918326
53	0xbe3780ee	-0.17920277
54	0x3dd14f50	0.10220206
55	0x3c1cd131	0.0095713595
56	0x3a92bf0f	0.0011195856
57	0x3d2dca6e	0.04242938
58	0x3dc5e86e	0.09663473
59	0x3d81386a	0.06309588
60	0xbe2a5778	-0.16634929
61	0x3df587eb	0.11988815
62	0xbcff050d	-0.031130338
63	0xbe01fcef	-0.12694143
64	0xbd114739	-0.035468314
65	0xbcb0d03c	-0.021583669
66	0x3d1ca654	0.03824456
67	0x3e3bd1c7	0.18341742
68	0x3d8e7ded	0.06957612
69	0x3db1b93e	0.0867791
70	0xbb58b88b	-0.003306898
71	0x3d10a4c7	0.035313394
72	0xbce1ad1a	-0.027548362
73	0x3ccfed84	0.025381811
74	0x3dee61c4	0.11639741
75	0x3da19c47	0.07891136
76	0x3e6754cc	0.22590941
77	0x3d1fb50e	0.038991027
78	0x3dc56cde	0.096399054
79	0x3d449e02	0.04800225
80	0x3dd5f314	0.10446754
81	0xbdfae75e	-0.12251161
82	0xbe627bd8	-0.22117555
83	0xbdcf8eee	-0.101346835
84	0x3d2c8b75	0.042125184
85	0x3cc3c9e1	0.023899974
86	0xbdd957ef	-0.10612475
87	0x3d68b306	0.056811355
88	0xbd8e60de	-0.0695207
89	0xbd94d8a0	-0.072678804
90	0x3dc37ddf	0.095454924
91	0xbd542897	-0.051796522
92	0xbd15544d	-0.03645735
93	0x3dd29bca	0.10283621
94	0xbe1ce8a9	-0.15323128
95	0xbd2d0473	-0.04224057
96	0x3da7168f	0.081585996
97	0x3dd234f0	0.10264003
98	0x3e071e89	0.13195242
99	0x3d6aeee9	0.05735675
100	0x3e1bd578	0.1521815
101	0xbd63c557	-0.05560812
102	0xbd54c008	-0.051940948
103	0x3de9ad72	0.11410035
104	0xbd6ca6be	-0.057776205
105	0x3d82baa0	0.06383252
106	0x3de0c4fd	0.109750725
107	0xbd9ed248	-0.07754952
108	0x3d18ee70	0.037336767
109	0x3e51edce	0.20500872
110	0x3c2cedc0	0.010554731
111	0xbcdd3da0	-0.027006924
112	0x3b50373b	0.0031771201
113	0xbdaeb790	-0.085311055
114	0x3e27e679	0.16396512
115	0x3c95f28e	0.018304136
116	0xbb2a4e54	-0.0025986629
117	0xbd9dbb97	-0.077017955
118	0x3da37cfc	0.07982823
119	0xbe3d6e3a	-0.1849908
120	0x3d0c4c46	0.034252428
121	0xbda4316f	-0.08017241
122	0xbdf8aac4	-0.12141946
123	0x3e120989	0.1426145
124	0x3c926e99	0.017875003
125	0xbd00c641	-0.03143907
126	0xbd80684b	-0.06269892
127	0x3d9042b5	0.07043973
128	0x3c0dfbc1	0.00866598
129	0x3de815e3	0.113322996
130	0xbe26308d	-0.16229458
131	0x3dc71b18	0.097219646
132	0x3d96d787	0.07365327
133	0xbd67823f	-0.056520697
134	0x3e1ea6d7	0.15493332
135	0x3c200873	0.009767639
136	0x3df7c8a5	0.12098817
137	0xbdfd12a9	-0.12357075
138	0xbcf4fee4	-0.029906698
139	0x3d46cddf	0.048536178
140	0xbd037a09	-0.032098804
141	0x3d194795	0.03742178
142	0xbda341a7	-0.079715066
143	0xbe14bb5d	-0.14524598
144	0xbdbc6c61	-0.09200359
145	0xbde7968e	-0.11308013
146	0x39574b93	0.00020532151
147	0xbdd551d2	-0.104159966
148	0x3e054f6e	0.13018581
149	0xbe28090a	-0.16409698
150	0x3d01e730	0.03171462
151	0xbc7015ea	-0.014653662
152	0xbde698ca	-0.11259611
153	0xbd9dbbe8	-0.07701856
154	0xbd6a52b4	-0.057207778
155	0xbddb1911	-0.106981404
156	0xbd471c4f	-0.04861098
157	0xbc62076b	-0.013795714
158	0xbd1e2247	-0.03860691
159	0x3d6b4b88	0.05744508
160	0x3b702d75	0.0036648188
161	0x3e177eea	0.14794508
162	0xbdc20f30	-0.09475553
163	0xbc7e1609	-0.015508183
164	0x3d1592b2	0.036516853
165	0xbd9a0887	-0.07521158
166	0xbcae7ddc	-0.021300249
167	0xbdca8589	-0.09888751
168	0x3e0062bd	0.12537666
169	0xbe47db0e	-0.19517156
170	0x3a083a31	0.00051966595
171	0xbc6475e6	-0.013944125
172	0x3dc5c920	0.09657502
173	0x3d1e2c56	0.0386165
174	0xbc97e23b	-0.018540492
175	0x3d277f96	0.04089316
176	0x3e6d5bcd	0.2317955
177	0xbce9173c	-0.028453462
178	0xbe1c2f69	-0.1525246
179	0xbdd76a33	-0.10518303
180	0x3d985bb8	0.07439369
181	0xbcd23307	-0.025659097
182	0x3e27cd02	0.16386798
183	0x3d57137d	0.05250882
184	0x3d835ed9	0.06414575
185	0x3cdc7250	0.026909977
186	0xbda6d379	-0.08145804
187	0xbd5140ed	-0.05108731
188	0xbe00c8eb	-0.12576644
189	0x3c746ef5	0.014919032
190	0x3d6a4f73	0.057204675
191	0xbcb2f852	-0.021846924
192	0x3d3864d6	0.04501804
193	0x3bf474f9	0.0074602333
194	0xbe1a52b0	-0.15070605
195	0x3c035afd	0.008017299
196	0xbdbed2ae	-0.09317528
197	0x3d5f3420	0.05449307
198	0x3dad147f	0.08451175
199	0xbde987b0	-0.114028335
200	0xbde917c5	-0.11381487
201	0xbc0cab2c	-0.008585732
202	0x3e3d7f08	0.1850549
203	0xbe09f72d	-0.13473196
204	0x3df597f4	0.119918734
205	0x3d0e60c8	0.034760267
206	0x3de694af	0.11258828
207	0xbd71e73f	-0.059058424
208	0x3dc31f1c	0.09527418
209	0xbbd74854	-0.0065699015
210	0x3d133570	0.035939634
211	0xbc81beca	-0.015838046
212	0xbdfdf9bb	-0.12401148
213	0x3c865cdd	0.016401703
214	0xbd9b2022	-0.07574488
215	0xbe0271e1	-0.12738754
216	0xbe2fc57a	-0.17165175
217	0x3e066e53	0.13128023
218	0x3d4ddbaf	0.050258335
219	0xbd648ed9	-0.055800293
220	0x3c4543df	0.0120401075
221	0x3bfa67de	0.0076417765
222	0xbb17be4c	-0.0023154197
223	0x3cbcddf4	0.023055054
224	0xbe069531	-0.1314285
225	0x3ce081ef	0.027405707
226	0xbd1e3a0d	-0.03862958
227	0xbb70f274	-0.0036765607
228	0x3cc1a4f3	0.023638224
229	0x3d18da19	0.03731737
230	0x3d92de3d	0.07171295
231	0x3da0ee16	0.07857911
232	0xbe3d5a2e	-0.18491432
233	0xbdddf570	-0.10837829
234	0xbe0cb9d0	-0.13742757
235	0x3e048762	0.1294227
236	0xbdcb854c	-0.09937534
237	0x3c2bb49d	0.010480073
238	0xbe08dad3	-0.13364725
239	0xbd77e3b6	-0.060519896
240	0x3df7ea67	0.121052556
241	0xbca564d8	-0.020189688
242	0xbd15868a	-0.03650526
243	0xbd2790f0	-0.040909708
244	0x3d6c330b	0.057665866
245	0x3dd9bc92	0.1063167
246	0x3d81cb2f	0.06337582
247	0x3d29a7d7	0.04141983
248	0x3cf3a0c5	0.029739747
249	0x3dfa90e4	0.12234667
250	0x3e2546a6	0.16140231
251	0xbd6c3cbb	-0.057675105
252	0x3d43562a	0.047689594
253	0xbc5b82ce	-0.0133978855
254	0xbd2fd9d7	-0.042932358
255	0x3d371d2d	0.04470556
