pol_models/aqi_last_14_model_state.pt (torch, 650572 bytes, 16 tensors)

conv1.weight f4 [64, 300, 3]
0	0x3ab51183	0.0013814423
1	0x3cf9d7cc	0.030498408
2	0x3d5dfe92	0.054197855
3	0xbc835e00	-0.016036034
4	0x3c86992a	0.016430456
5	0x3c48cb05	0.012255435
6	0xbbf970b6	-0.007612313
7	0xbd00c55a	-0.03143821
8	0xbc61f7dd	-0.013792005
9	0xbcbc8d2c	-0.023016535
10	0xbc091d1f	-0.008368759
11	0x3d57759d	0.0526024
12	0xbc3859a4	-0.011251841
13	0x3befb848	0.007315669
14	0xbc5266ed	-0.012841922
15	0xbb05407c	-0.0020332625
16	0x3b2dd8a3	0.002652683
17	0xbd2f33f7	-0.042774167
18	0xbd151fcc	-0.036407277
19	0xbd3f88ec	-0.04676144
20	0xbb625a15	-0.0034538556
21	0xbd01e8a5	-0.031716008
22	0x3c41edd0	0.011836484
23	0x3d80dac4	0.06291726
24	0xbc706466	-0.014672374
25	0xbca96696	-0.0206788
26	0x3cf8d237	0.030373676
27	0xbb29f04c	-0.0025930582
28	0x3c9550ec	0.018227063
29	0x3d942b1d	0.07234786
30	0xbc7164a0	-0.0147334635
31	0x3b717614	0.0036844062
32	0x3d278976	0.040902577
33	0xbc71af0a	-0.014751205
34	0x3d1aecd2	0.037823506
35	0x3d6c2423	0.05765165
36	0xbc356522	-0.011071475
37	0x3cf88b3f	0.030339835
38	0xbd00fb57	-0.031489696
39	0x3ccadcce	0.024763491
40	0xbc3e67aa	-0.011621395
41	0xbcce0ffa	-0.025154103
42	0x36a117f6	4.8009633e-06
43	0x3bfd358f	0.007727332
44	0xba85ddaf	-0.0010213162
45	0x3c873fc0	0.01650989
46	0xbc96ed6d	-0.01842376
47	0x3d443d50	0.047910035
48	0x3c928c8e	0.017889287
49	0xbc5f32c7	-0.013622946
50	0x3a8143f2	0.0009862168
51	0xbc7c411e	-0.0153963845
52	0xbd0eb20d	-0.03483777
53	0x3b6cc6d9	0.0036129265
54	0x3cbc6ec5	0.023002038
55	0x3cf0330f	0.029321222
56	0x3d73b2da	0.059496738
57	0x3bf8cb02	0.00759256
58	0xbc68fa68	-0.014219858
59	0xbd3dda07	-0.046350505
60	0xbbe4b5be	-0.006979673
61	0xb9ee3cab	-0.000454401
62	0x3d7bc866	0.06147041
63	0xbcd2acdc	-0.025717191
64	0x3c48daab	0.012259166
65	0xbaa3d174	-0.0012498335
66	0x3c25b49a	0.01011386
67	0xbd559b8c	-0.052150294
68	0xbc0672a6	-0.008206045
69	0x3d0ced40	0.034405947
70	0x3d0a6433	0.033786964
71	0x3d293ded	0.041318823
72	0xbbfd112f	-0.0077229957
73	0xbcc91142	-0.024544362
74	0x3cc3e68f	0.02391365
75	0x3b3416da	0.002747944
76	0x3c88a201	0.016678812
77	0x3d3f1d8c	0.046659037
78	0x3badb8a4	0.005301552
79	0xbba22cde	-0.0049491962
80	0x3cb6e8c1	0.022327783
81	0x3d481cc9	0.048855577
82	0xbc5cf80b	-0.013486872
83	0x3cd9b2e7	0.026574565
84	0xbc530f66	-0.012882089
85	0x3becc336	0.0072254194
86	0x3ccf358a	0.025294084
87	0x3cef3c8d	0.029203678
88	0xbc98878f	-0.018619327
89	0x3bb14804	0.0054101963
90	0xbbc12512	-0.0058943117
91	0x3c8dcc53	0.017309343
92	0xbd2d70df	-0.04234397
93	0xbcea091e	-0.0285688
94	0x3c6c9650	0.014440134
95	0xbc022503	-0.007943395
96	0xbcf47225	-0.029839585
97	0xbca4b151	-0.020104082
98	0x3b067801	0.0020518305
99	0x362352a3	2.4336994e-06
100	0x3ce01498	0.02735357
101	0x3d2f7bcb	0.042842668
102	0x3bd0643b	0.0063596047
103	0xbc975d03	-0.018476969
104	0xbc2a1e8f	-0.010383262
105	0xbbe443c5	-0.0069660866
106	0xbcf4b913	-0.029873407
107	0xbc499d86	-0.012305623
108	0xbba4852d	-0.0050207586
109	0xbcb093f8	-0.021554932
110	0x3d9b3cd5	0.07579962
111	0xbca5e980	-0.020252943
112	0xbd1272ce	-0.035754018
113	0xbc08d6da	-0.008352006
114	0x3d43bae4	0.047785655
115	0xbd2a7c97	-0.041622724
116	0xbd9e7802	-0.077377334
117	0x3c22eea5	0.009944593
118	0xbc3347cb	-0.01094241
119	0xbcc9b875	-0.024624089
120	0x3c3b5764	0.01143441
121	0x3cbd7dce	0.023131277
122	0x3da1441a	0.078743175
123	0xbbc5abeb	-0.006032457
124	0xba9dc2ab	-0.0012036165
125	0x3d80ffa1	0.06298757
126	0x3d16a502	0.036778457
127	0x3d0a21ba	0.03372357
128	0x3d27d698	0.040976137
129	0xbc47c7b2	-0.012193607
130	0xbc7655f5	-0.015035142
131	0xbc9e7d2b	-0.019346794
132	0xbb81b9e6	-0.0039589284
133	0xbd3d13af	-0.04616135
134	0xbd0a5743	-0.033774626
135	0xbd414a58	-0.04719004
136	0xbcf9f8b3	-0.030514097
137	0xbd8396b6	-0.0642523
138	0x3b51e914	0.0032029795
139	0x3d20c598	0.03925094
140	0x3c5264df	0.012841432
141	0xbc2d87e1	-0.010591478
142	0x3cd6b289	0.02620818
143	0x3d15dc84	0.036587253
144	0xbb75d5be	-0.0037511433
145	0x3c16228b	0.009163509
146	0xbd82a9fa	-0.06380077
147	0xbc4a7e17	-0.012359164
148	0xbd50ed90	-0.051007807
149	0xbc0dab2f	-0.00864677
150	0x3d04864c	0.032354638
151	0x3c63d4e9	0.013905742
152	0x3d1d4d24	0.038403645
153	0x3d0f51d6	0.034990154
154	0x3d576e96	0.052595697
155	0x3d8158ee	0.0631579
156	0xbc8d9c55	-0.017286459
157	0xbb57109f	-0.0032816303
158	0xbd44240f	-0.04788595
159	0xbd122011	-0.035675112
160	0xbd0ab948	-0.033868104
161	0x3c0a86c0	0.0084549785
162	0x3aa1e45c	0.0012351382
163	0x3c2b625d	0.010460463
164	0x3c5af29e	0.0133635085
165	0xbcd32296	-0.025773328
166	0xbca3d442	-0.019998673
167	0x3d115597	0.035482015
168	0x3c101d05	0.008795981
169	0xbc81f15d	-0.015862161
170	0x3c1d1145	0.009586637
171	0x3b35eab1	0.0027758295
172	0x3c96c8ad	0.018406237
173	0xbb627ff8	-0.0034561139
174	0xbce30242	-0.027711038
175	0x3c4914b1	0.012273
176	0x3ce5827b	0.02801632
177	0x3bbe7e84	0.0058134217
178	0x3a1cbdef	0.000597923
179	0x3d86580c	0.06559762
180	0xbb9c7f98	-0.0047759525
181	0x3c5f219d	0.013618854
182	0x3d10e245	0.035372037
183	0xbb9ee3cf	-0.0048489342
184	0x3b98349a	0.0046449425
185	0x3d552f39	0.05204699
186	0xbbe99020	-0.0071277767
187	0xbc8c75c3	-0.017145997
188	0x3cd5b349	0.026086466
189	0x3bfe5ef0	0.0077627823
190	0xbc3f957c	-0.011693355
191	0x3bd39148	0.006456528
192	0x3c452ff6	0.012035361
193	0xba6c5694	-0.00090155867
194	0xbc6514fb	-0.013982053
195	0xbd116020	-0.035492063
196	0x392bbaf8	0.00016377482
197	0x3cf1d209	0.029519098
198	0x3d3b6b0d	0.04575639
199	0x3d2cd02f	0.042190727
200	0x3d953871	0.07286156
201	0x3b6ee1af	0.0036450436
202	0x3d00dbc9	0.031459603
203	0x3d10d834	0.035362437
204	0x3c045967	0.008077956
205	0xbce427cd	-0.02785101
206	0xbcbd374b	-0.023097655
207	0x3cc4a993	0.02400664
208	0xbc34d999	-0.011038207
209	0xbc57eb6a	-0.013178686
210	0x3d128d57	0.035779323
211	0x3c818918	0.015812442
212	0x3d3e53c1	0.046466593
213	0x3c7afb7f	0.01531875
214	0x3c86ad0b	0.016439935
215	0xbc09d51c	-0.008412626
216	0x3c7f1ab0	0.015570328
217	0xbc198e0e	-0.009372247
218	0x3bb95fd4	0.0056571756
219	0x3cba302d	0.02272805
220	0xbd2a1256	-0.041521393
221	0x3c8773c2	0.01653469
222	0x3c1a6c0f	0.009425177
223	0xbc2a2687	-0.010385162
224	0xbb632cde	-0.0034664194
225	0x3c828b67	0.015935613
226	0xbc2e9ca1	-0.01065746
227	0x3c1d2fdb	0.009593929
228	0xbd00c705	-0.0314398
229	0x3bb3096d	0.00546377
230	0x3ce0ce10	0.027442008
231	0x3b4a8bdd	0.003090612
232	0x3adb93fd	0.0016752478
233	0xbc35141d	-0.011052159
234	0x3c4247c8	0.011857934
235	0xbc17e94e	-0.009271933
236	0x3ce0ec02	0.027456287
237	0xbbac4bc9	-0.0052580577
238	0xbd03dcfc	-0.03219317
239	0xb9f0b9eb	-0.00045914887
240	0xbb842130	-0.0040322766
241	0xbcbce8ef	-0.02306029
242	0x3cef72af	0.02922949
243	0x3c9ece15	0.019385377
244	0x3b9261da	0.004467231
245	0xbc83e5e8	-0.016100839
246	0xbd0f4c8b	-0.034985106
247	0xbcb27928	-0.021786287
248	0xbd88e2f7	-0.06683915
249	0xba2b7666	-0.0006540775
250	0xbbabc7a6	-0.005242306
251	0x3ca207ef	0.019779174
252	0x3bc45913	0.005992064
253	0x3aa4f5b4	0.0012585432
254	0x3b7e4128	0.003879616
255	0x3c78f9ae	0.015196247

conv1.bias f4 [64]
0	0xbdae13ff	-0.08499908
1	0x3cc015bf	0.02344787
2	0xbcd8b437	-0.02645312
3	0xbcc39d78	-0.023878798
4	0xbd047d6a	-0.032346167
5	0xbd79a21e	-0.060945623
6	0xbdeed7df	-0.11662268
7	0xbc0f2b2b	-0.008738319
8	0xbd51a880	-0.051186085
9	0x3cbecf45	0.023292193
10	0xbd9b96d8	-0.075971305
11	0xbe2abcd8	-0.166736
12	0xbb326717	-0.002722209
13	0x3c5b6533	0.013390827
14	0xbcc19b28	-0.023633555
15	0x3ccee4c3	0.025255566
16	0x3c27fb6c	0.010252815
17	0x3cb0f04e	0.021598961
18	0xbdf4cde4	-0.11953333
19	0xbd427e51	-0.047483746
20	0xbdd9d851	-0.10636962
21	0xbdf49bdb	-0.119437896
22	0xbc693567	-0.0142339235
23	0xbdf37864	-0.11888197
24	0xbe48c8d1	-0.19607855
25	0xbcd5a159	-0.026077913
26	0xbd37eb37	-0.044902053
27	0xbe026ada	-0.12736073
28	0xbc21417e	-0.009842275
29	0xbcd9649c	-0.026537232
30	0xbd0133b4	-0.03154345
31	0xbe336a25	-0.1752096
32	0xbdcf48bb	-0.10121294
33	0xbd19fb91	-0.037593428
34	0xbd9e02dd	-0.0771539
35	0xba1c523f	-0.00059631834
36	0xbcacc68c	-0.021090768
37	0xbca0bb2d	-0.019620502
38	0xbc740e1d	-0.014895943
39	0xbd008de8	-0.031385332
40	0xbcf9eade	-0.030507501
41	0xbd005ed7	-0.031340446
42	0xbe11106b	-0.14166419
43	0xbcfcf35e	-0.030877765
44	0xbb17e58b	-0.002317759
45	0xbcdaf5b8	-0.026728496
46	0xbcd017aa	-0.025401909
47	0xbc87319d	-0.01650315
48	0xbe4dd2c4	-0.20099932
49	0xbcc0602c	-0.023483358
50	0xbe878d6c	-0.26475084
51	0xbc2083b3	-0.009797025
52	0xbcbf50b3	-0.02335391
53	0xbc823468	-0.01589413
54	0xbce88e9a	-0.02838831
55	0xbbb8429c	-0.005623175
56	0xbc0f96b8	-0.0087639615
57	0x3cc35753	0.02384535
58	0xbd684c97	-0.056713667
59	0xbccea1af	-0.025223581
60	0xbdec45ad	-0.11536727
61	0xbc52f549	-0.012875863
62	0x3cd87342	0.026422147
63	0xbba2753e	-0.004957824

conv2.weight f4 [128, 64, 3]
0	0xbd0c9435	-0.03432103
1	0xbdcd3f4a	-0.10021837
2	0xbe1846d3	-0.14870767
3	0xbc566900	-0.013086557
4	0x3d0a6b97	0.033794012
5	0x3d0e672d	0.034766365
6	0x3c3affc4	0.011413518
7	0x3c69addb	0.014262642
8	0xbd692307	-0.05691817
9	0x3c9bf214	0.01903633
10	0xbd0bd8ce	-0.034142308
11	0x3d8046dc	0.06263515
12	0xbd1a3879	-0.037651513
13	0xbd13652b	-0.035985153
14	0x3c5e2060	0.0135575235
15	0x3d302a9a	0.043009378
16	0xbe1f466b	-0.15554206
17	0xbe804784	-0.25054562
18	0xbd3db6ed	-0.04631703
19	0x3cee5cca	0.02909698
20	0xbd4b2d58	-0.04960379
21	0xbd1a9fb2	-0.037749954
22	0xbd782773	-0.060584497
23	0xbc084f24	-0.00831965
24	0x3c7ee5f7	0.015557758
25	0x3d6b4482	0.05743838
26	0xbd90b099	-0.07064933
27	0xbd36060a	-0.044439353
28	0xbc82f934	-0.01598797
29	0xbb9f66a0	-0.004864529
30	0xbcfaecfb	-0.03063058
31	0x3ddb782b	0.107162796
32	0xbe02a95f	-0.12759922
33	0x3c4bbe5f	0.012435525
34	0xbd47c948	-0.04877594
35	0xbe34acd9	-0.17644061
36	0x3d24c520	0.040227056
37	0xbd7bef5c	-0.061507568
38	0x3ca5b3b0	0.020227283
39	0x3c94a90e	0.018147018
40	0xbd3ca205	-0.04605295
41	0xbc4072af	-0.011746093
42	0xbd708008	-0.05871585
43	0xbcf4c8e0	-0.02988094
44	0x3cb0f974	0.021603324
45	0x3d3941fd	0.045228947
46	0x3d6e3561	0.058156375
47	0x3bc0a151	0.0058786054
48	0xbd9b657b	-0.07587715
49	0xbd9d98cc	-0.07695159
50	0xbcf3ef52	-0.029777203
51	0x3d01a79f	0.031653997
52	0xbc194af2	-0.009356247
53	0x3d8477c5	0.06468157
54	0xbd38382c	-0.044975445
55	0xbe2dc108	-0.16968167
56	0xbd7bc0ec	-0.06146328
57	0xbd14bbb1	-0.03631181
58	0x3d781a7c	0.060572132
59	0xbc82653c	-0.015917413
60	0xbdd91cec	-0.106012195
61	0x3dafd214	0.08584991
62	0xbdbeaf94	-0.093108326
63	0xbd688e0a	-0.056776084
64	0xbb58daf3	-0.0033089488
65	0xbd253182	-0.040330417
66	0xbd2a12bc	-0.041521773
67	0x3ca4c46c	0.020113192
68	0x3caac92c	0.02084788
69	0x3de045d2	0.10950817
70	0xbde0d7a5	-0.10978631
71	0xbd67d485	-0.05659916
72	0x3c31cc56	0.01085194
73	0xbd41ed11	-0.047345225
74	0xbe0d7c91	-0.1381705
75	0xbd8491be	-0.064731106
76	0x3ca9513a	0.020668615
77	0xbc16983e	-0.009191571
78	0xbbef8b00	-0.0073102713
79	0x3d39ab31	0.045329276
80	0xbd27f150	-0.041001618
81	0x3d16d008	0.036819488
82	0x3bd2682c	0.0064211097
83	0xbdbabc34	-0.09117928
84	0xbd8235d8	-0.06357926
85	0x3d807c16	0.062736675
86	0x3d53a3cf	0.051669892
87	0x3d84bed0	0.06481707
88	0x3c95f4e4	0.01830525
89	0x3cdf6a2f	0.027272312
90	0x3d030321	0.031985406
91	0x3ba0175f	0.0048855986
92	0x3cd8a4e4	0.026445813
93	0x3cea03e5	0.02856631
94	0x3dcf88be	0.101335034
95	0xbd6893a0	-0.05678141
96	0x3a9e64e8	0.0012084516
97	0xbdc8fb17	-0.098135166
98	0xbdbcc2dd	-0.09216855
99	0xb733e000	-1.07213855e-05
100	0xbd8e951a	-0.069620326
101	0xbc9e4e2e	-0.019324388
102	0x3d8224fe	0.06354712
103	0xbe4dfcc2	-0.2011595
104	0xbda6bb80	-0.081412315
105	0xbd61a357	-0.055087414
106	0xbd5161e0	-0.05111873
107	0xbd53be5d	-0.051695216
108	0x3d8ebcc4	0.06969598
109	0xbc6c143c	-0.014409121
110	0x3cc22a88	0.023701921
111	0x3d1fe39a	0.039035417
112	0x3d2dbf08	0.04241851
113	0x3d2e9272	0.04262013
114	0x3d2a465e	0.041571014
115	0xbd72c45c	-0.059269294
116	0x3d7fff46	0.062499307
117	0xbbf322e0	-0.007419929
118	0xbb6aa900	-0.0035806298
119	0x3c0ef6e8	0.008725859
120	0x3c09e5a4	0.008416567
121	0xbd4d6ed8	-0.050154537
122	0xbd37a241	-0.04483247
123	0x3daee1ab	0.085391365
124	0xbdf7e115	-0.12103478
125	0xbd8107ce	-0.06300317
126	0xbcf3b855	-0.029750982
127	0xbcac17d5	-0.021007458
128	0xbe2ef974	-0.17087346
129	0x3cba7478	0.022760615
130	0xbd36b5f6	-0.044607125
131	0x3c5b4350	0.013382748
132	0x3d3f7ddd	0.046750892
133	0x3d39b3c9	0.045337472
134	0x3d2499ad	0.04018562
135	0xbcd078ee	-0.025448289
136	0x3d2e1de1	0.042508963
137	0x3d0f79c2	0.035028227
138	0xbd9ab226	-0.0755351
139	0x3d12a872	0.035805173
140	0xbd1deaf8	-0.03855416
141	0xbd5b336a	-0.05351583
142	0x3d893180	0.066988945
143	0xbc099f78	-0.008399837
144	0xbc9e6f90	-0.019340307
145	0xbdf86172	-0.12127961
146	0xbdb9e183	-0.09076216
147	0x3caa7c58	0.020811245
148	0xbc7dcc8c	-0.015490662
149	0xbd59be42	-0.05315996
150	0xbb007033	-0.0019598126
151	0x3e0557c2	0.13021758
152	0xbe5838d6	-0.21115431
153	0x3d0269a3	0.031839024
154	0xbbd3f26e	-0.006468109
155	0x3c363680	0.011121392
156	0xbd598140	-0.053101778
157	0xbc717110	-0.014736429
158	0x3c9ec5bc	0.019381396
159	0x3d2fbe4a	0.042906083
160	0x3cd929b8	0.02650915
161	0x3d4aa16c	0.04947035
162	0xbd2334d2	-0.039845295
163	0x3c7a2a37	0.015268854
164	0x3d4b1ae4	0.04958619
165	0xbbfec36f	-0.0077747623
166	0x3d36c5d5	0.04462226
167	0xbd0a039c	-0.03369485
168	0xbd8192be	-0.06326817
169	0x3c821f73	0.015884137
170	0xbca5f292	-0.020257268
171	0xbcb7b3f1	-0.02242467
172	0xbd990bbe	-0.07472943
173	0x3d86948e	0.06571303
174	0x3c921c84	0.017835863
175	0x3e269f13	0.1627162
176	0xbdf05207	-0.117343955
177	0xbbb9e091	-0.0056725224
178	0x3d83254d	0.06403599
179	0x3d28ac85	0.041180152
180	0x3d715650	0.058920205
181	0xbe371445	-0.17878826
182	0xbdad7617	-0.084697895
183	0x3ca845f7	0.020541174
184	0x3cbcf4f2	0.023066018
185	0x3ce60b1e	0.028081473
186	0xbd0453d5	-0.03230651
187	0x3d0d8fb9	0.034560893
188	0x3cc64b1e	0.02420574
189	0xbbda7aaf	-0.006667457
190	0xbd1f31b9	-0.03886578
191	0xbc20e85f	-0.009821027
192	0x3d0758e2	0.03304375
193	0xbcd3b856	-0.025844734
194	0x3d83912d	0.064241745
195	0x3b4a858a	0.003090235
196	0xbd550ac6	-0.052012227
197	0x3cc0883d	0.023502463
198	0xbd258952	-0.040414162
199	0xbd64cd26	-0.055859707
200	0xbd365e4b	-0.04452352
201	0x3d52607c	0.051361546
202	0xbcea0ef2	-0.02857158
203	0x3d4465ca	0.047948636
204	0xbc412eec	-0.011790972
205	0x3d5e96c0	0.054342985
206	0x3b4b0180	0.0030976236
207	0xbd364589	-0.044499908
208	0x3c1608cc	0.009157371
209	0x3ddce6e9	0.1078623
210	0xbd9cda5a	-0.07658835
211	0x3d421951	0.047387425
212	0x3d93b47e	0.072121605
213	0x3d1472e9	0.0362424
214	0x3d1a1abe	0.03762316
215	0x3d3e0f77	0.046401467
216	0xbbf50d2e	-0.007478378
217	0x3d32f87d	0.04369401
218	0xbd8ab938	-0.06773609
219	0x3d88a87a	0.06672759
220	0xbbe528b6	-0.0069933785
221	0xbd079ca3	-0.033108365
222	0xbcffe397	-0.031236453
223	0xbd9105e3	-0.07081201
224	0x3de35768	0.11100656
225	0x3bc7d4f4	0.006098384
226	0xbd1c8ba0	-0.038219094
227	0xbbad23c8	-0.0052838065
228	0x3d104592	0.035222597
229	0x3d16d6c2	0.036825903
230	0xbcf9e669	-0.030505376
231	0x3bfa2d0b	0.007634764
232	0x3b84803c	0.004043607
233	0x3cebe96f	0.028797833
234	0xbd80118a	-0.06253345
235	0x3ba748c8	0.0051051117
236	0x3a819c9e	0.0009888595
237	0xbd6ce3ea	-0.057834543
238	0xbb8f041f	-0.004364505
239	0x3d92a2a2	0.07159926
240	0x3d1f9cd9	0.03896794
241	0x3d8370c8	0.06417996
242	0x3d60bc62	0.054867156
243	0x3d9c7e9e	0.07641338
244	0xbcd85f49	-0.026412623
245	0x3d883b31	0.06651915
246	0x3c9c1a10	0.019055396
247	0x3d23085c	0.039802894
248	0x3ce6186a	0.028087813
249	0x3d9018d6	0.07035987
250	0x3cfe402a	0.031036455
251	0xbcd78aa6	-0.02631123
252	0x3c1a9d3f	0.009436904
253	0xbcf1679e	-0.029468354
254	0x3dd63581	0.10459424
255	0xbb4dbc1f	-0.0031392646

conv2.bias f4 [128]
0	0xbc2f4630	-0.010697886
1	0xbd5f4985	-0.054513473
2	0xbe1aa6c3	-0.15102677
3	0xbdd2e075	-0.10296718
4	0xbe0f6b14	-0.14005691
5	0xbdecf4e9	-0.115701504
6	0x3e0edc22	0.13951162
7	0xbe40bc1e	-0.18821761
8	0xbc4680db	-0.0121156825
9	0x3d30392a	0.043023266
10	0xbdb9af34	-0.090666205
11	0xbda384a2	-0.07984282
12	0xbe2387d7	-0.15969788
13	0xbe0a832c	-0.135266
14	0x3d2971c1	0.04136825
15	0xbdaa6d2d	-0.08321605
16	0xbdb455f3	-0.08805456
17	0xbe13ba8b	-0.14426629
18	0xbd70c333	-0.058779906
19	0xbd26b36f	-0.040698465
20	0xbe278c8b	-0.16362207
21	0xbdb49082	-0.08816625
22	0x3c9ab2f4	0.01888416
23	0xbd2cfd9b	-0.042234045
24	0xbcb38b5e	-0.021917041
25	0xbdc1dcd3	-0.09465947
26	0xbe23ab99	-0.15983428
27	0xbe115d04	-0.14195639
28	0xbddbc07b	-0.10730072
29	0xbd2e4ffa	-0.04255674
30	0xbd8abd97	-0.06774443
31	0xbe1f107c	-0.15533632
32	0x3e18acce	0.1490967
33	0x3e436193	0.1908019
34	0x3e2dbcc6	0.16966543
35	0xbe23c77e	-0.15994069
36	0xbe474c6d	-0.19462748
37	0xbdbe2550	-0.092844605
38	0xbde5162b	-0.11185869
39	0x3e402560	0.18764257
40	0xbbbe2130	-0.005802296
41	0x3e271c00	0.16319275
42	0xbda5ea2b	-0.081013046
43	0xbd936cb3	-0.07198467
44	0xbd9a2b40	-0.075277805
45	0xbe17a6e7	-0.14809762
46	0xbcd9b625	-0.026576111
47	0xbdfc6cb2	-0.123254195
48	0xbdf0125d	-0.117222525
49	0xbe411515	-0.18855698
50	0xbdd58380	-0.10425472
51	0xbe0d169c	-0.13778156
52	0xbd548a08	-0.05188945
53	0xbd03512f	-0.032059845
54	0xbda8c9bb	-0.08241602
55	0xbda0b355	-0.07846705
56	0xbd2c2d53	-0.042035412
57	0xbdeb1672	-0.114788905
58	0x3d33ca81	0.043894295
59	0x3e381665	0.17977293
60	0x3e2962e6	0.16541633
61	0xbcf3c93c	-0.029759042
62	0xbd8812eb	-0.06644233
63	0x3ccc389d	0.024929339
64	0xbe0d6268	-0.1380707
65	0xbdb6c702	-0.089246765
66	0xbe056b45	-0.13029201
67	0xbd3dec86	-0.046368144
68	0xbe04260c	-0.12905139
69	0xbd4e4207	-0.050355937
70	0xbd2ddf0a	-0.042449035
71	0x3cd290c6	0.025703799
72	0xbdbccb52	-0.09218468
73	0xbd3d5068	-0.04621926
74	0xbd781eb9	-0.060576174
75	0xbd9cd2bf	-0.07657384
76	0xbc4783b3	-0.012177396
77	0x3db97dbb	0.09057184
78	0xbda9ef93	-0.08297648
79	0xbdf2b48d	-0.118508436
80	0xbe2eab40	-0.17057514
81	0x3d50dfb4	0.05099459
82	0xbd1f5003	-0.038894664
83	0xbd80c25f	-0.06287073
84	0xbda1f004	-0.079071075
85	0xbc8a947a	-0.016916502
86	0xbdbd198b	-0.092333876
87	0x3beebb06	0.0072854785
88	0x3e63334a	0.22187534
89	0x3e29d1cc	0.16583937
90	0xbdde18fb	-0.108446084
91	0xbdbb991f	-0.09160065
92	0xbde0b290	-0.10971558
93	0xbe1104b1	-0.14161946
94	0xbe18442c	-0.14869756
95	0xbd7c69f9	-0.0616245
96	0xbdd219ad	-0.102588035
97	0xbddc6b56	-0.1076266
98	0x3d89dcf7	0.06731599
99	0xbdf7d6ea	-0.121015385
100	0xbdd123a3	-0.10211875
101	0xbd4538ff	-0.04815006
102	0xbe2af0f6	-0.16693482
103	0x3e3778c2	0.17917159
104	0xbdbf0123	-0.09326389
105	0xbdd0205a	-0.101624206
106	0xbd5b4a38	-0.053537577
107	0xbd38efc2	-0.045150526
108	0xbd3f7767	-0.04674473
109	0xbe6e1270	-0.23249221
110	0xbd591e00	-0.053007126
111	0xbd8a23b9	-0.06745095
112	0xbdeb1da4	-0.11480263
113	0xbde787a9	-0.11305172
114	0x3a2d536e	0.0006611858
115	0xbd871053	-0.065949105
116	0xbda7b487	-0.0818873
117	0x3e484011	0.1955569
118	0xbe4c9f98	-0.19982755
119	0xbda728ab	-0.08162054
120	0x3e80cee9	0.2515786
121	0xbd9f5e5b	-0.07781669
122	0xbd4bb6ff	-0.049735066
123	0xbd5352e9	-0.05159274
124	0xbd112673	-0.03543706
125	0xbd36d60f	-0.044637736
126	0xbc2a8360	-0.010407299
127	0xbde5ee3f	-0.112270825

lstm.weight_ih_l0 f4 [200, 128]
0	0x3da0d63b	0.07853361
1	0x3cf472b8	0.029839858
2	0x3d85c18c	0.06531057
3	0xbdf4cd28	-0.11953193
4	0xbdb45e30	-0.08807027
5	0x3e14ef9a	0.14544526
6	0x3b567e0f	0.0032728945
7	0x390d12a6	0.00013453755
8	0x3e7ffc19	0.24998511
9	0x3de51266	0.1118515
10	0xbb271c89	-0.0025499186
11	0x3d15d8bc	0.036583647
12	0xbdad05a9	-0.08448345
13	0x3db04edd	0.08608792
14	0xbb45ab1f	-0.003016181
15	0xb9e7a90c	-0.00044185703
16	0x3cf3c01c	0.02975469
17	0x3ce45c6a	0.027876098
18	0x3e59bb21	0.2126279
19	0xbd091abf	-0.033472773
20	0x3dd20516	0.10254876
21	0xbe240e57	-0.16021095
22	0x3dd891fa	0.10574718
23	0x3cdf10d2	0.0272297
24	0x3d9e4aca	0.07729109
25	0x3d64ccc3	0.05585934
26	0x3dd23511	0.10264028
27	0x3cd398ed	0.025829757
28	0xbd4db62f	-0.050222572
29	0x3dcf195c	0.10112259
30	0xbdd52f57	-0.1040942
31	0xbc5ae7ed	-0.0133609595
32	0xbd834987	-0.064105086
33	0x3ca0c1ee	0.019623723
34	0x3e6c0a8d	0.230509
35	0xbe0d93e0	-0.13825941
36	0xbd982660	-0.074291945
37	0x3c8615bf	0.016367791
38	0x3d2e85d5	0.0426081
39	0xbcb69dce	-0.022292044
40	0x3e100ce5	0.14067419
41	0xbda3f8d9	-0.08006448
42	0x3daaa44d	0.08332119
43	0x3df57c38	0.119865835
44	0xbd943d2e	-0.072382316
45	0x3dd027d6	0.10163848
46	0xbd98d69e	-0.0746281
47	0x3b28871c	0.0025715297
48	0x3ca2b9da	0.019864012
49	0x3de03150	0.109469056
50	0xbd00e63b	-0.031469565
51	0xbd8de776	-0.06928913
52	0xbca27633	-0.019831752
53	0x3ddc21fa	0.10748668
54	0xbdb1b45a	-0.086769775
55	0xbb06e51f	-0.0020583344
56	0x3e0f55b3	0.13997535
57	0xbd840503	-0.064462684
58	0x3b0fcbb2	0.002194148
59	0x3cc740a6	0.024322819
60	0x3dbdb29a	0.09262581
61	0x3c88def6	0.016707879
62	0x3d20e655	0.03928216
63	0xbc25828f	-0.010101928
64	0x3d76277b	0.060096245
65	0xbd20bb91	-0.039241377
66	0xbdbd146a	-0.09232409
67	0x3e140465	0.14454801
68	0xbd96c1dc	-0.073611945
69	0x3d06b47b	0.032886963
70	0xbd44d355	-0.048053104
71	0xbcd624ef	-0.026140658
72	0xbba9e955	-0.005185286
73	0x3beb98c1	0.0071898405
74	0xbe0251b2	-0.12726477
75	0xbd9c31c1	-0.07626677
76	0x3e0bcaaf	0.13651536
77	0x3c8da408	0.01729013
78	0xbb59a20d	-0.0033208162
79	0xbd1dbc6c	-0.03850977
80	0x3d1dafa6	0.03849759
81	0x3d95ee06	0.0732079
82	0xbe02a33b	-0.1275758
83	0xbdf51804	-0.11967471
84	0x3d3f45dc	0.046697482
85	0xbedd0f3e	-0.4317569
86	0xbb388ff8	-0.0028161984
87	0xbd58002e	-0.052734546
88	0x3e941185	0.28919616
89	0x3e532c93	0.20622472
90	0xbd20b2c1	-0.039232973
91	0xbdc5ebc9	-0.09664113
92	0x3e12eaef	0.14347433
93	0xbdaf6615	-0.085643925
94	0x3ca710cf	0.020393757
95	0x3d0b2a23	0.03397573
96	0x3e39ba68	0.18137515
97	0x3c1672ad	0.009182614
98	0xbda768ff	-0.08174323
99	0x3ca53892	0.020168576
100	0x3e2ee958	0.17081201
101	0x3de66f1c	0.11251661
102	0xbd84080a	-0.06446846
103	0x3e158a86	0.14603624
104	0xbd3b0d07	-0.04566672
105	0xbd62b5fb	-0.05534933
106	0xbd32cea1	-0.043654088
107	0xbd9f291d	-0.077715136
108	0xbd7bf0bf	-0.06150889
109	0xbd875a9d	-0.0660908
110	0xbbe789f9	-0.007066008
111	0x3e1d07e9	0.15335049
112	0x3ddcd9b8	0.10783714
113	0x3df9bbab	0.12193998
114	0xbd74176c	-0.05959265
115	0xbd9c466d	-0.0763062
116	0x3d479729	0.048728142
117	0x3dbd0442	0.09229328
118	0x3ca164d2	0.019701395
119	0x3e6bf37c	0.230421
120	0xbe21234b	-0.1573612
121	0x3dbacd10	0.09121144
122	0xbdecd60b	-0.11564263
123	0xbd9a0b5e	-0.07521699
124	0x3d6bc823	0.057563912
125	0xbd422d45	-0.047406454
126	0xbdaf5591	-0.08561242
127	0x3d578b76	0.052623235
128	0xbd28dec2	-0.041228063
129	0xbd962dea	-0.07332976
130	0x3d3624e8	0.04446879
131	0x3e0269bc	0.12735647
132	0xbd2ba5b5	-0.041906077
133	0xbdfb1823	-0.12260463
134	0x3d78189f	0.060570356
135	0xbda8b3f4	-0.08237448
136	0xbe57971d	-0.21053739
137	0xbcc74042	-0.024322633
138	0xbdb72b63	-0.08943822
139	0x3d8271c2	0.06369354
140	0x3e1242df	0.14283322
141	0xbdb5ecc4	-0.0888305
142	0x3d1648fb	0.036690693
143	0xbd989369	-0.07449991
144	0x3d7d1922	0.061791547
145	0xbc558068	-0.013031103
146	0xbec02c0b	-0.37533602
147	0x3deb4779	0.11488242
148	0x3c46353f	0.012097656
149	0xbd4dbfa0	-0.050231576
150	0xbcc987ca	-0.024600882
151	0xbde49893	-0.11161914
152	0x3d82bde9	0.06383879
153	0x3e196fc1	0.14984037
154	0x3da911c9	0.082553454
155	0x3d2954da	0.041340686
156	0x3d21769e	0.039419763
157	0x3de2a5f3	0.110668086
158	0xbccb37c0	-0.024806857
159	0xbb21b601	-0.0024675133
160	0xbeea19fd	-0.45722952
161	0xbeac5134	-0.33655703
162	0xbeecfc08	-0.46286035
163	0x3dee0499	0.11621971
164	0xbc60f641	-0.0137305865
165	0x3d22cc10	0.03974539
166	0x3cb9f840	0.022701383
167	0x3dbfdd65	0.093683995
168	0xbbb67340	-0.005567938
169	0xbd979b29	-0.07402641
170	0x3cce389a	0.025173474
171	0xbd99b2bd	-0.07504795
172	0xbdd992dd	-0.10623715
173	0x3dc9ed95	0.09859768
174	0xbdd565b5	-0.1041979
175	0x3d372a5b	0.044718128
176	0x3b06fd36	0.0020597703
177	0x3b8d88d9	0.004319292
178	0xbd5b1262	-0.053484328
179	0xbcd80155	-0.026367823
180	0x3e04e8f5	0.12979491
181	0xbe0418ae	-0.1290004
182	0x3db0764c	0.08616313
183	0xbda6a1ca	-0.081363276
184	0xbe000d2b	-0.12505023
185	0xbd8e86dd	-0.06959317
186	0xbd731bae	-0.05935257
187	0x3e2449a7	0.16043721
188	0xbed6882b	-0.41900763
189	0x3e801b21	0.25020698
190	0x3dccb18f	0.09994804
191	0xbd207b9b	-0.03918038
192	0xbcd861d4	-0.026413836
193	0xbd42303c	-0.04740928
194	0xbb8c21d1	-0.004276492
195	0xbc55018c	-0.013000857
196	0x3dc5fd2a	0.09667428
197	0xbe2fde85	-0.17174728
198	0x3dba3d5e	0.09093736
199	0xbe5b355e	-0.21407077
200	0x3d4eb9d8	0.050470203
201	0xbdfc5cfc	-0.12322423
202	0xbe1e6fb1	-0.15472294
203	0x3c4a7f50	0.012359455
204	0x3da2829d	0.07935069
205	0x3db62774	0.08894244
206	0x3df34515	0.11878411
207	0xbd5bf291	-0.053698126
208	0x3dd49434	0.1037983
209	0x3dafe127	0.08587866
210	0x3c86bc97	0.016447349
211	0xbd4beced	-0.049786497
212	0xbcbbf3d3	-0.022943413
213	0x3d8e47a7	0.0694726
214	0x3d8891e9	0.06668455
215	0xbd47ee32	-0.048811145
216	0xbe244052	-0.16040161
217	0xbd69f0ed	-0.05711453
218	0x3d36ae3d	0.04459976
219	0x3d3ec227	0.046571877
220	0xbc3fdab1	-0.011709855
221	0x3e02eda5	0.12785967
222	0x3dbf4d38	0.093409
223	0xbe126c8a	-0.14299217
224	0xbd0bcea4	-0.034132615
225	0xbd3dff89	-0.046386275
226	0xbbc0db34	-0.005885506
227	0xbca75057	-0.020424051
228	0x3df6cc41	0.12050677
229	0x3c7ff7d4	0.015623052
230	0x3b42b5ed	0.0029710487
231	0xbefe57bd	-0.49676314
232	0xbcac6feb	-0.02104946
233	0x3e10cc7e	0.14140508
234	0x3df63e34	0.12023583
235	0x3a2e0953	0.00066389627
236	0x3d6fdcc4	0.058560148
237	0x3e03ff61	0.12890388
238	0xbbcb77ca	-0.0062093483
239	0xbe0f656d	-0.14003535
240	0x3d2e3f6f	0.042540964
241	0x3e1a1e3c	0.15050596
242	0xbbb0778c	-0.005385345
243	0xbdd82b2e	-0.10555111
244	0xbaf9a0c8	-0.0019045109
245	0xbdf2d74c	-0.11857471
246	0xbd8c328c	-0.068455786
247	0xbe514f1b	-0.20440333
248	0xbd862070	-0.06549156
249	0x3db356d4	0.087567955
250	0x3e037d55	0.12840779
251	0x3d2093ca	0.039203443
252	0xbd1fd17e	-0.039018147
253	0xbd923729	-0.07139427
254	0xbde9cb9e	-0.1141579
255	0x3cbf390f	0.023342637

lstm.weight_hh_l0 f4 [200, 50]
0	0xbdb60b03	-0.08888819
1	0xbd9154c7	-0.07096248
2	0xbb676a88	-0.00353113
3	0x3e178451	0.14796568
4	0x3ea3a0ce	0.31958622
5	0xbd7c618c	-0.061616465
6	0x3d8975be	0.06711911
7	0xbe5c15f3	-0.21492748
8	0xbd742a39	-0.05961058
9	0x3d4ae627	0.049535897
10	0xbdd2a22d	-0.10284839
11	0x3d0481fe	0.032350533
12	0xbd624719	-0.055243585
13	0x3cf0af70	0.02938053
14	0x39173748	0.00014421076
15	0x3c07bca2	0.00828472
16	0xbd978051	-0.07397521
17	0xbd4ab2bd	-0.049486864
18	0x3d99bbe4	0.075065404
19	0x3d71b607	0.059011485
20	0xbdb9aff7	-0.09066766
21	0x3d80cad2	0.06288685
22	0x3caea566	0.021319102
23	0xbd644d7f	-0.05573797
24	0x3ba2bac1	0.0049661105
25	0xbdb7785b	-0.08958503
26	0xbdb6265c	-0.08894035
27	0x3e19886b	0.14993446
28	0xbd7cacab	-0.061688107
29	0x3d41b13d	0.04728817
30	0x3c95e43e	0.01829731
31	0x3dbb55fe	0.09147261
32	0x3dfbc89c	0.122941226
33	0xbde89301	-0.11356164
34	0xbc038fb8	-0.008029871
35	0x3db598c0	0.088670254
36	0xbd6d0855	-0.057869274
37	0x3e2b5911	0.16733195
38	0xbd9189ed	-0.071063854
39	0xbcec30fb	-0.02883195
40	0xbe476253	-0.19471101
41	0x3d6c689c	0.05771695
42	0xbd049f8e	-0.032378726
43	0xbde1802d	-0.11010776
44	0xbdfed2a8	-0.12442523
45	0xbdd1973d	-0.102339245
46	0x3da18603	0.07886889
47	0x3bd06054	0.0063591395
48	0xbbdcb0e2	-0.0067349533
49	0x3d111669	0.035421763
50	0x3d12d4d8	0.035847515
51	0x3d93ad2a	0.07210763
52	0xbdb8b773	-0.09019365
53	0x3e146bdf	0.14494275
54	0x3d1eac08	0.03873828
55	0xbe0132a8	-0.1261698
56	0xbdd2d98a	-0.102953985
57	0xba879768	-0.0010344805
58	0xbe1aa2a8	-0.15101111
59	0x3d496d58	0.049176544
60	0x3dd2fe85	0.10302452
61	0x3de08e75	0.109646715
62	0xbcd788f3	-0.02631042
63	0x3dabb2c3	0.083837055
64	0xbe03ebb5	-0.12882884
65	0x3d5fb755	0.0546182
66	0x3dc14c1d	0.094383456
67	0x3de79404	0.113075286
68	0x3d8d41b2	0.06897296
69	0x3e2db707	0.1696435
70	0x3da39c4d	0.079887964
71	0x3e0cdbd9	0.1375574
72	0xbdad9295	-0.08475224
73	0xbe4f8bf3	-0.2026823
74	0xbe8a6795	-0.27032152
75	0x3d55d477	0.052204575
76	0xbe514562	-0.20436624
77	0x3e7218cb	0.2364227
78	0xbd153b71	-0.03643364
79	0xbe636dd9	-0.22209872
80	0xbe4784e8	-0.19484293
81	0xbdb862c2	-0.090032116
82	0xbd2af6e8	-0.041739374
83	0xbe5e3652	-0.21700409
84	0xbe47bcef	-0.19505666
85	0xbdfa9817	-0.1223604
86	0x3c88a403	0.01667977
87	0xbdfc3ffe	-0.12316893
88	0x3d78f536	0.060780726
89	0x3e6762c2	0.22596267
90	0xbcd6244c	-0.026140355
91	0xbca0648d	-0.019579196
92	0x3d329125	0.04359545
93	0xbe0ddb01	-0.13853075
94	0x3dedc427	0.11609679
95	0xbd2ef781	-0.042716507
96	0x3db5c1d9	0.08874864
97	0xbcaaaf7c	-0.02083563
98	0x3d966cda	0.073449805
99	0xbac3bb52	-0.0014933145
100	0xbdb3be98	-0.08776587
101	0xbe298eb6	-0.16558346
102	0x3eb2a3dc	0.3489064
103	0xbd979429	-0.07401306
104	0x3e34f657	0.17672096
105	0xbd87e890	-0.06636155
106	0x3e6449ad	0.2229373
107	0xbdd878d7	-0.10569923
108	0x3d8eb8ca	0.069688395
109	0xbdbc7ab5	-0.09203092
110	0xbc240c2f	-0.01001267
111	0xbdaf6a85	-0.08565239
112	0xbdf03436	-0.117287084
113	0x3d9f9847	0.077927165
114	0xbcf9ab54	-0.030477203
115	0xbe4d03c2	-0.20020965
116	0xbb96144e	-0.004580057
117	0x3e262253	0.16224031
118	0x3e3a6fd3	0.1820672
119	0x3dd6eb9d	0.104941584
120	0x3db3e7a8	0.08784419
121	0x3df1dbcd	0.11809502
122	0x3d309558	0.043111175
123	0x3d92ca0b	0.07167443
124	0xbd7a91d3	-0.061174225
125	0xbd25a274	-0.04043813
126	0xbccff58d	-0.025385642
127	0xbdc22483	-0.0947962
128	0x3dd01cbe	0.10161732
129	0xbd6bf943	-0.05761076
130	0xbdf67f2d	-0.120359756
131	0xbdcfdeab	-0.101498924
132	0x3b8cf251	0.0043013473
133	0xbdbca6ed	-0.09211526
134	0xbdacf47d	-0.0844507
135	0xb98edfbe	-0.00027251052
136	0x3dc7d2da	0.097570136
137	0x3d0b8906	0.034066223
138	0xbd3b110b	-0.04567055
139	0x3dfcc08e	0.123414144
140	0xbdcffe02	-0.1015587
141	0x3db4c11b	0.088258944
142	0x3e123f4e	0.14281961
143	0xbc996dfe	-0.018729206
144	0x3e06a1de	0.13147685
145	0x3e21f0ef	0.15814565
146	0xbd61bef6	-0.055113755
147	0x3dc0e9d4	0.09419599
148	0x3de87afb	0.11351582
149	0x3e033c4c	0.1281597
150	0xbe0a879b	-0.13528292
151	0xbdaed996	-0.08537595
152	0x3d81f936	0.06346361
153	0xbe12fac6	-0.14353475
154	0x3d1b0087	0.0378423
155	0xbd75b0f6	-0.059983216
156	0x3dcaf8d6	0.09910743
157	0xbd745bde	-0.059657924
158	0x3e13d75b	0.1443762
159	0x3cd0eac4	0.02550257
160	0xbdcba793	-0.099440716
161	0xbdd6e87d	-0.10493562
162	0xbd8e144d	-0.06937466
163	0xbdca0e35	-0.09865991
164	0x3dcf6f81	0.101286896
165	0x3e21aee5	0.15789373
166	0x3d4c9aed	0.049952436
167	0x3e3bf6f7	0.18355928
168	0xbde929df	-0.113849394
169	0x3d5dac98	0.054119676
170	0xbdd8555f	-0.10563158
171	0xbce8e622	-0.028430048
172	0xbd86a524	-0.06574467
173	0xbdd9216f	-0.1060208
174	0xbde11fc4	-0.10992387
175	0x3d87cd7e	0.066309914
176	0x3bb94896	0.005654405
177	0xbd54ee32	-0.051984973
178	0x3deca7c6	0.11555438
179	0x3d68d9aa	0.056848206
180	0x3e5d8d02	0.21635821
181	0xbc449296	-0.011997839
182	0x3cb8e432	0.02256975
183	0x3e090db9	0.13384141
184	0x3e2e24c7	0.17006217
185	0xbe0bc383	-0.136488
186	0xba88171e	-0.0010382866
187	0x3d9142df	0.07092833
188	0xbd610d87	-0.05494454
189	0xbe00812d	-0.12549277
190	0xbded5352	-0.11588158
191	0xbda1d7ea	-0.079025105
192	0x3d0a4e06	0.033765815
193	0x3cd03fc0	0.025421023
194	0xbd67c226	-0.05658164
195	0x3e3b766e	0.18306896
196	0xbc9eee08	-0.019400612
197	0xbdbe9cba	-0.09307237
198	0xbd59e151	-0.053193394
199	0x3df326e6	0.11872654
200	0xbe23c21c	-0.15992016
201	0xbd2acc19	-0.04169855
202	0x3dbed2f3	0.09317579
203	0xbd968a9a	-0.07350655
204	0x3e629d08	0.22130215
205	0xbdde2c61	-0.10848308
206	0x3e110246	0.14161023
207	0xbe109369	-0.14118733
208	0xbda3c312	-0.07996191
209	0x3e72c799	0.23708953
210	0xbd6eb8d6	-0.058281742
211	0x3d8235c5	0.06357912
212	0xbdc45965	-0.09587363
213	0xbd45e4bf	-0.048313852
214	0x3ddb6718	0.10713023
215	0x3da630d7	0.08114784
216	0x3d8c0786	0.068373725
217	0xbe40cfc9	-0.18829264
218	0x3bf4b2e0	0.0074676126
219	0xb9858d57	-0.00025473043
220	0x3d6461fd	0.05575751
221	0xbe13d96f	-0.14438413
222	0xbc30fb92	-0.010802167
223	0xbd1351d6	-0.035966717
224	0xbe001b34	-0.12510377
225	0xbdc8ea1f	-0.0981028
226	0x3d09695c	0.033547744
227	0xbd673095	-0.056442816
228	0xbc8ad367	-0.016946508
229	0xbccfb400	-0.025354385
230	0xbe4dd645	-0.20101269
231	0xbdbdf34f	-0.09274923
232	0x3d653143	0.055955183
233	0xbdc54081	-0.09631444
234	0x3a346183	0.00068809855
235	0xbcd9bb34	-0.026578523
236	0xbd99d9a5	-0.075122155
237	0x3e0bbd19	0.13646354
238	0xbdca4d2f	-0.09878003
239	0x3de2025d	0.11035607
240	0x3eba13d1	0.36343244
241	0x3e74f033	0.23919754
242	0xbe037ba0	-0.12840128
243	0x3e3371ef	0.17523931
244	0x3c84c9e6	0.016209554
245	0x3e461fd3	0.19348077
246	0xbd36c529	-0.04462162
247	0x3e18169f	0.1485238
248	0x3dafdf77	0.085875444
249	0x3e24650f	0.16054176
250	0x3d7f47c7	0.06232431
251	0x3d375f5f	0.044768687
252	0x3e6bf36e	0.2304208
253	0x3dd04b94	0.101706654
254	0x3e134a5f	0.14383839
255	0xbe0a4fbe	-0.13506982

lstm.bias_ih_l0 f4 [200]
0	0xbe1818b7	-0.14853178
1	0xbceb2c09	-0.028707521
2	0x3d698fb3	0.057021808
3	0xbd5fa6b5	-0.054602344
4	0x3e9ee343	0.31032762
5	0x3e0297a7	0.12753163
6	0xbd8e4c3f	-0.069481365
7	0x3e802fce	0.25036472
8	0x3d740789	0.0595775
9	0x3c8d06c1	0.017215135
10	0x3ded634f	0.11591207
11	0xbd46f4e2	-0.048573382
12	0x3ca89067	0.020576669
13	0xbd94e116	-0.07269494
14	0xbd94c7b1	-0.072646506
15	0x3e175982	0.14780238
16	0xbdabf301	-0.08395959
17	0x3e4146ec	0.18874711
18	0xbcc5ac78	-0.024130091
19	0x3d974d76	0.073878214
20	0x3d8f1e44	0.069881946
21	0x3d9e6146	0.07733397
22	0x3df66212	0.12030424
23	0xbdd0a7bf	-0.10188245
24	0x3e50e195	0.20398553
25	0x3f0f915f	0.56081194
26	0x3e51ac53	0.20475893
27	0x3e0ac2ee	0.13550922
28	0x3d6c3401	0.057666782
29	0xbe3547c4	-0.17703158
30	0xbcfcb037	-0.030845745
31	0x3e01abac	0.12663144
32	0x3e2e14e0	0.1700015
33	0x3db25ba6	0.08708887
34	0x3e62dec0	0.22155285
35	0xbdac9170	-0.084261775
36	0x3dd2fe77	0.103024416
37	0xbe1f1266	-0.15534362
38	0x3bc7f335	0.0061019906
39	0x3ce3e9fd	0.027821535
40	0xbd5df349	-0.054187093
41	0x3d5d5730	0.054038227
42	0xbdfb3716	-0.12266366
43	0xbe16e9a9	-0.14737572
44	0xbbbba758	-0.005726736
45	0x3d16381f	0.036674615
46	0xbe2c847a	-0.16847411
47	0xbe1c3c37	-0.15257345
48	0xbc9f72df	-0.019463954
49	0x3e09b9eb	0.13449828
50	0xbca04ae9	-0.01956697
51	0xbd81ac20	-0.06331658
52	0xbe52ba52	-0.20578888
53	0x3cb18674	0.021670558
54	0xbc133b13	-0.008986252
55	0x3c70abaf	0.01468937
56	0x3d90d1ae	0.07071243
57	0xbe196b12	-0.1498225
58	0xbd8c7448	-0.068581164
59	0x3cebef2b	0.028800568
60	0x3dcd59eb	0.10026916
61	0xbe13f079	-0.14447202
62	0xbe15a3b5	-0.1461323
63	0x3e31e3cc	0.17372054
64	0xbe02ef3c	-0.12786573
65	0xbdc6429d	-0.09680674
66	0x3d35b58a	0.044362582
67	0x3b557bac	0.0032574935
68	0x3d674b86	0.05646851
69	0x3ca68b35	0.020330051
70	0x3bcf4cff	0.0063263173
71	0xbe4ad707	-0.19808589
72	0x3d9adea9	0.07562
73	0x3dfd325a	0.123631194
74	0xbdfafb92	-0.122550145
75	0xbdfffefd	-0.12499807
76	0xbe2bfb8a	-0.16795173
77	0xbdd91d13	-0.106012486
78	0xbd3432af	-0.04399365
79	0x3e57accd	0.21062012
80	0xbce204ef	-0.027590243
81	0x3ca7e50e	0.020494964
82	0xbdf9eabe	-0.12202977
83	0xbd43cb03	-0.04780103
84	0xbdb69986	-0.08916001
85	0xbdcff887	-0.10154825
86	0x3da9cda5	0.08291177
87	0xbce619e4	-0.028088517
88	0x3d955c08	0.07292944
89	0x3d99c1c8	0.07507664
90	0x3d93dbad	0.07219634
91	0xbde5c2f3	-0.11218824
92	0x3c78a57d	0.015176174
93	0x3d30876c	0.0430979
94	0xbd9ff5a0	-0.07810521
95	0x3dec458c	0.115367025
96	0x3d53ee36	0.051740848
97	0xbc980e6f	-0.01856157
98	0xbdbfce1b	-0.093654834
99	0xbe897808	-0.2684939
100	0x3d8a183c	0.067429036
101	0xbde61bf9	-0.11235804
102	0xbd8f0e22	-0.069851175
103	0xbe0a6079	-0.13513364
104	0x3d8080ab	0.062745415
105	0xbe04b1d7	-0.12958466
106	0x3dd7d4cb	0.10538634
107	0xbc2ee8f5	-0.0106756585
108	0xbc38c920	-0.011278421
109	0xbd257d37	-0.040402617
110	0x3be3db9c	0.0069536697
111	0x3d8bd1c3	0.06827118
112	0xbd9b0008	-0.07568365
113	0x3e12fccf	0.14354251
114	0x3d963a96	0.07335393
115	0xbc310c89	-0.010806211
116	0x3da96e20	0.08272958
117	0xbc0d0171	-0.008606301
118	0xbdac330f	-0.08408176
119	0x3b8afdf4	0.0042416994
120	0xbdc3a3ea	-0.095527485
121	0xbd4adf36	-0.049529277
122	0xbd739960	-0.05947244
123	0xbdb032eb	-0.08603462
124	0xbdd52c21	-0.104088075
125	0x3d3b3a67	0.045709994
126	0x3b0af774	0.0021204622
127	0x3d84d860	0.06486583
128	0xb9fb1719	-0.0004789166
129	0xbddf25ec	-0.10895905
130	0x3d6b5fcf	0.057464417
131	0xbe13de70	-0.14440322
132	0x3d8e4097	0.06945913
133	0xbdcd5b0f	-0.10027134
134	0xbd8aace5	-0.06771258
135	0xbdcdb209	-0.10043723
136	0xbd32c325	-0.043643136
137	0xbbd81734	-0.006594563
138	0xbd7603c9	-0.060062204
139	0x3ddf5105	0.10904125
140	0xbd6a8fcc	-0.05726604
141	0x3c944d8a	0.01810338
142	0xbde4f1bb	-0.11178919
143	0x3d8eead1	0.069783814
144	0x3da923fe	0.08258818
145	0x3e176aa7	0.14786778
146	0x3dae0a4a	0.08498056
147	0x3e0e3ca3	0.13890319
148	0x3bffacca	0.0078025805
149	0x3e0cb5ed	0.13741274
150	0x3d31b2af	0.043383297
151	0x3cd16953	0.025562918
152	0x3e09d0cc	0.13458556
153	0x3e1701e3	0.14746813
154	0x3e9b9428	0.30386472
155	0x3da34c29	0.07973511
156	0x3c7d18ff	0.015447854
157	0x3e9ac0cd	0.3022522
158	0xbd9e5427	-0.077308945
159	0x3dad3448	0.084572375
160	0xbe03b5cf	-0.12862323
161	0x3d92c53a	0.07166524
162	0x3d12ad3e	0.035809748
163	0xbda81d34	-0.08208695
164	0x3d48c442	0.04901529
165	0x3d7fb18d	0.062425185
166	0x3db590d5	0.08865515
167	0x3d831856	0.06401126
168	0xbde8f37a	-0.113745645
169	0x3e00e5cf	0.12587665
170	0xbd0aebfe	-0.033916466
171	0x3cf8cebf	0.030372022
172	0xbbdfeebc	-0.0068338793
173	0xbdcc5f8b	-0.09979161
174	0x3e34bb7d	0.17649646
175	0x3ed88a81	0.4229317
176	0x3e290ed8	0.16509569
177	0x3d38d002	0.045120247
178	0xbd14158f	-0.036153372
179	0xbd097478	-0.03355834
180	0x3e4e937f	0.20173453
181	0x3db6618a	0.08905323
182	0x3d6378c4	0.055535093
183	0xbad7c674	-0.0016462342
184	0x3d5535c9	0.052053247
185	0xbd802ed4	-0.06258932
186	0x3d937305	0.071996726
187	0xbdcbdf9f	-0.09954762
188	0xbca951bd	-0.020668859
189	0x3da42950	0.08015692
190	0x3d8cf7c8	0.06883198
191	0x3e6c871b	0.23098414
192	0x3de31c73	0.11089411
193	0xbcec83f9	-0.028871523
194	0x3dbf5ca9	0.093438454
195	0x3e089877	0.1333941
196	0xbdf05b6f	-0.117361896
197	0xbd742e04	-0.059614196
198	0xbd0a9546	-0.033833764
199	0x3e29df3a	0.1658906

lstm.bias_hh_l0 f4 [200]
0	0x3d9b4cc8	0.07583004
1	0x3e36e404	0.17860419
2	0x3df96610	0.1217767
3	0xbc0a9763	-0.008458945
4	0x3e41d9f9	0.18930806
5	0xbdb7c200	-0.089725494
6	0xbe0b574b	-0.13607518
7	0x3eab13ea	0.3341363
8	0xbcd7ad58	-0.026327774
9	0xbdd6e546	-0.10492949
10	0x3e4cce64	0.20000607
11	0x3d86687a	0.06562896
12	0x3da2a998	0.07942504
13	0x3e115dfa	0.14196005
14	0x3c1379d6	0.009001216
15	0xbcde274b	-0.027118346
16	0xbdcc3f14	-0.09972969
17	0x3e1dbdbf	0.15404414
18	0x3de4e19f	0.11175846
19	0x3dc65132	0.096834555
20	0xbcd7ff38	-0.026366815
21	0x3dfc58cf	0.123216264
22	0xbc9a8cc0	-0.018865943
23	0xbdb93116	-0.090425655
24	0x3e9ec5e0	0.31010342
25	0x3f1a56de	0.602888
26	0xbd5de196	-0.054170214
27	0x3dd727ae	0.10505615
28	0xbcf4d847	-0.029888285
29	0xbd187f0b	-0.037230533
30	0xbce51d86	-0.02796818
31	0xbd757f88	-0.059936076
32	0x3da904b9	0.08252854
33	0x3dc53b24	0.09630421
34	0x3e0b7d87	0.13622104
35	0xbd152520	-0.03641236
36	0xbe0b5e3b	-0.13610165
37	0x3d1a6a87	0.03769925
38	0x3dedd23b	0.11612364
39	0x3cb5413c	0.022125833
40	0xbc349770	-0.011022434
41	0x3e4fec32	0.20304945
42	0xbcae3ba1	-0.021268668
43	0x3df25983	0.11833479
44	0x3e3e2ea6	0.18572482
45	0x3c5439a8	0.012953199
46	0x3d8d81c9	0.0690952
47	0x3d397037	0.045273032
48	0x3d85417f	0.06506633
49	0x3e48dad3	0.19614725
50	0x3df3c996	0.11903684
51	0x3d91c8ff	0.07118415
52	0xbdfc8a00	-0.12331009
53	0xbd9b481d	-0.07582114
54	0xbda21fdf	-0.07916235
55	0x3dccd3fe	0.10001372
56	0x3da3c080	0.07995701
57	0xbd85e166	-0.06537132
58	0xbdb4f0c2	-0.088349834
59	0xbdace649	-0.08442361
60	0x3c805e89	0.015670078
61	0xbdaa5687	-0.08317285
62	0xbc6ac659	-0.014329516
63	0x3cd54269	0.026032643
64	0x3d6d66c6	0.05795934
65	0xbd344963	-0.0440153
66	0x3c5b0c5f	0.013369649
67	0xbe0cfb7b	-0.13767807
68	0xbdea1651	-0.11430038
69	0xba0400a1	-0.0005035494
70	0xbcd4c6a1	-0.02597362
71	0x3cc65f88	0.024215475
72	0xbdc75a0e	-0.097339734
73	0x3dcb7eb2	0.099362746
74	0xbde039a3	-0.10948493
75	0xbe6190a8	-0.22027838
76	0x3dc1bbd1	0.09459651
77	0xbd882bd2	-0.06648983
78	0xbda74a0e	-0.08168422
79	0xbcc6368a	-0.024195928
80	0x3cb05106	0.02152301
81	0x3dd7f277	0.105442934
82	0xbd80aa96	-0.06282537
83	0xbe05f579	-0.13081922
84	0x3d09c376	0.03363367
85	0xbd6f98ff	-0.058495518
86	0x3d3e6464	0.04648246
87	0x3d90a479	0.07062621
88	0x3ba30434	0.0049748663
89	0x3cc414d4	0.023935713
90	0x3e0d5acd	0.13804169
91	0xbdaf0f36	-0.08547823
92	0xbd3e99e3	-0.046533477
93	0xbdc2afd6	-0.09506194
94	0xbd860450	-0.06543791
95	0x3cca534d	0.024697924
96	0xbd1018d3	-0.035179924
97	0xbcf6016e	-0.030029979
98	0xbcded7c8	-0.027202502
99	0xbe6a2c6b	-0.22868507
100	0x3d808a0c	0.0627633
101	0x3dd87fb0	0.105712295
102	0xbd61053c	-0.054936633
103	0xbd71f93f	-0.05907559
104	0xbd6adf70	-0.057341993
105	0xbcac1df3	-0.021010375
106	0x3d8d7a29	0.06908066
107	0x3c13958c	0.009007823
108	0xbcd58e4d	-0.02606883
109	0xbd6c9403	-0.057758342
110	0x3e07cf59	0.1326269
111	0xbe1779e8	-0.14792597
112	0x3d75aef3	0.059981298
113	0x3e1d6cfb	0.15373604
114	0xbe135739	-0.14388742
115	0xbe1aedd6	-0.1512979
116	0xbd18d57d	-0.037312973
117	0x3dae7127	0.08517676
118	0x3dc57c6c	0.09642872
119	0x3b92da52	0.004481592
120	0x3d6be78f	0.05759388
121	0xbd4673b6	-0.048450194
122	0x3cf0d6b2	0.02939925
123	0xbb80ed23	-0.003934519
124	0xbd3885ee	-0.0450496
125	0x3d7ba314	0.06143482
126	0xbdd6f343	-0.10495617
127	0x3d4bd8f3	0.049767446
128	0x3e0581e3	0.13037829
129	0xbcaf66d7	-0.021411343
130	0xbd305c99	-0.043057058
131	0x3d824b98	0.063620746
132	0xbdadbe47	-0.08483558
133	0x3df3fc0c	0.119133085
134	0x3ccdd48a	0.02512576
135	0xbdea9d0a	-0.11455734
136	0xbca089ed	-0.019597018
137	0xbae44224	-0.0017414731
138	0xbde37183	-0.11105635
139	0x3da89381	0.08231259
140	0xbce42fe7	-0.027854873
141	0x3c9b3719	0.018947171
142	0x3da40f65	0.08010749
143	0x3d859ae4	0.06523684
144	0x3bed78f3	0.0072470843
145	0xbd94eeea	-0.07272132
146	0xbda41085	-0.08010963
147	0x3ddb2ea9	0.10702259
148	0x3d9eed81	0.07760144
149	0xbd29c7dd	-0.04145037
150	0x3d82ad28	0.06380683
151	0xbd5a3171	-0.053269807
152	0x3e0ddb23	0.13853125
153	0x3e32720c	0.17426318
154	0x3e3cc0f2	0.18432978
155	0xbe056100	-0.13025284
156	0xbcee1031	-0.029060455
157	0x3e3dcade	0.18534419
158	0x3dd2c5f9	0.102916665
159	0xbd90f664	-0.07078245
160	0xbe141237	-0.14460073
161	0x3db61d6a	0.08892329
162	0xbb55e339	-0.0032636656
163	0x3a671c22	0.0008816143
164	0xbd98fad6	-0.07469718
165	0x3dd092ba	0.10184236
166	0x3bced5c8	0.006312106
167	0x3dda0d6c	0.10647091
168	0xbc8af0c4	-0.01696051
169	0x3d2e3409	0.042530093
170	0xbca636e1	-0.02028984
171	0x3e1e42a6	0.15455112
172	0x3ca81508	0.020517841
173	0x3d43ddac	0.047818825
174	0x3df8d32c	0.12149653
175	0x3ec632d1	0.38710645
176	0x3e53a369	0.20667805
177	0x3d298532	0.04138679
178	0x3def7631	0.11692465
179	0x3d2113f2	0.039325662
180	0x3cc163fb	0.023607245
181	0x3d78e387	0.060763862
182	0x3decb585	0.115580596
183	0xbd9dbbbd	-0.07701824
184	0x3c9ad7dc	0.018901758
185	0x3d70b9ea	0.05877105
186	0x3da353fd	0.07975004
187	0x3d301664	0.042990103
188	0xbc96c0b5	-0.018402437
189	0x3df0de57	0.11761158
190	0x3c802585	0.01564289
191	0x3e80e41c	0.25174034
192	0x3df26f50	0.118376374
193	0xbdf6104b	-0.120148264
194	0x3d8da387	0.06915956
195	0xbe04e61a	-0.12978402
196	0xbe1c626f	-0.15271924
197	0xbc0ea190	-0.008705512
198	0x3d0cab36	0.034342967
199	0x3e581d0e	0.21104833

lstm.weight_ih_l1 f4 [200, 50]
0	0xbce744c0	-0.028231025
1	0x3dc16ef2	0.09444989
2	0xbd7d3d5a	-0.061826088
3	0x3e3ded97	0.18547665
4	0xbe4454d5	-0.19172986
5	0xbce0cfb4	-0.02744279
6	0x3d8571fd	0.06515882
7	0xbdfd86ff	-0.12379264
8	0x3ce04cc0	0.027380347
9	0x3d9e92ed	0.077428676
10	0xbd50487f	-0.050850388
11	0x3cd365b6	0.025805335
12	0xbdfba78e	-0.12287818
13	0xbdbb237a	-0.09137626
14	0xbd5823d6	-0.05276855
15	0x3dd1369d	0.10215495
16	0x3daed46e	0.085366115
17	0xbd477312	-0.048693724
18	0x3d7df85c	0.062004432
19	0xbd94a9c1	-0.072589405
20	0xbc972ac4	-0.01845301
21	0x3de7d65c	0.11320183
22	0xbdc5fed4	-0.09667745
23	0xbbb51b80	-0.00552696
24	0xbd964fa3	-0.07339408
25	0xbc4312d9	-0.011906349
26	0xbd4b2a21	-0.049600724
27	0xbd2a96c9	-0.041647706
28	0xbda3879e	-0.07984851
29	0x3ceedae9	0.029157119
30	0x3dc3c5a5	0.09559182
31	0xbd9ce0ac	-0.0766004
32	0xbb6f9995	-0.0036560048
33	0xbe02c144	-0.12769037
34	0xbe029792	-0.12753132
35	0x3c237db5	0.009978701
36	0x3d4fae44	0.050703302
37	0xbda9f7b2	-0.08299197
38	0x3e07cf60	0.13262701
39	0x3ce6d467	0.028177453
40	0xbddb66a8	-0.107129395
41	0xbdbc32ae	-0.09189354
42	0x3c0a1721	0.008428366
43	0xbe382b76	-0.17985329
44	0xbd9953c1	-0.07486678
45	0xbe20b77a	-0.15694991
46	0x3d13bcf9	0.03606889
47	0x3da4655b	0.080271445
48	0xbd2d4430	-0.042301357
49	0x3d8e51c5	0.0694919
50	0xbda01d24	-0.07818058
51	0x3d5b83bd	0.053592432
52	0x3dbf8568	0.09351617
53	0x3d9b3ffc	0.075805634
54	0x3d7d2335	0.061801154
55	0x3ca3c1ef	0.019989936
56	0x3dd8a9fe	0.105792984
57	0x3d0643a3	0.032779347
58	0xbdea6338	-0.11444706
59	0xbe0d02e5	-0.13770635
60	0x3b8b6f4b	0.0042552105
61	0x3db35b29	0.08757622
62	0xbc6ae51b	-0.01433685
63	0xbdf1d1d5	-0.118076004
64	0xbd33c7fa	-0.043891884
65	0xbd4a3798	-0.049369425
66	0xbbc4571f	-0.005991831
67	0x3defb0b1	0.11703623
68	0xbd875c56	-0.066094086
69	0x3ce8eca8	0.028433159
70	0xbde1786b	-0.11009296
71	0x3cd6ceae	0.0262216
72	0xbdf6f0e2	-0.120576635
73	0x3d1fc7ca	0.039008893
74	0xbd9f4a87	-0.07777887
75	0xbe1d79c6	-0.15378484
76	0xbd89b8be	-0.0672469
77	0x3dac742a	0.08420594
78	0xbe4f54d1	-0.20247199
79	0xbe075a4f	-0.13218044
80	0xbdf83b7b	-0.1212072
81	0xbde3c6ad	-0.11121879
82	0xbb68d483	-0.0035527057
83	0x3e26bb8a	0.16282478
84	0x3e1229a4	0.14273697
85	0xbe18b348	-0.1491214
86	0xbc9dfe29	-0.019286232
87	0xbd1839d2	-0.037164517
88	0xbe380090	-0.17968965
89	0xbbfb31f4	-0.007665867
90	0x3e2033dd	0.15644784
91	0x3dcbf976	0.0995969
92	0xbdeb0070	-0.11474693
93	0x3e2335ca	0.15938488
94	0x3bcaaa85	0.0061848783
95	0x3db34273	0.087529086
96	0xbde8e025	-0.11370877
97	0x3d357e75	0.044310052
98	0x3e1ce2f4	0.15320951
99	0xbcab51e2	-0.020913068
100	0x3ca50823	0.020145481
101	0xbe089b65	-0.13340528
102	0x3e1710ee	0.14752552
103	0xbc7f2983	-0.015573862
104	0x3c1433c3	0.009045544
105	0xbcdbf052	-0.026847992
106	0x3dbf198e	0.09331046
107	0x3d84ed40	0.06490564
108	0xbdeaa94c	-0.11458072
109	0xbdeab101	-0.11459542
110	0x3e1775e6	0.14791068
111	0x3cffec92	0.031240735
112	0x3da1e16e	0.079043254
113	0xbe04fb9f	-0.12986611
114	0x3e1314fb	0.14363472
115	0xbdbd1a0e	-0.09233485
116	0x3dd00701	0.10157586
117	0x3d9de0ea	0.077089146
118	0x3cc55911	0.024090322
119	0xbd87edd2	-0.066371575
120	0xbb0ac1e9	-0.0021172708
121	0x3e13b80c	0.14425677
122	0x3d839a67	0.06425934
123	0x3e1b1bb8	0.15147293
124	0x3d6464be	0.055760138
125	0x3e21614c	0.15759772
126	0xbd524c1b	-0.05134211
127	0xbda15891	-0.07878221
128	0x3d560cce	0.052258305
129	0x3e0e3c07	0.13890086
130	0x3dadad64	0.08480337
131	0x3d5ce1a2	0.053926118
132	0x3e0bebdc	0.13664192
133	0xbdc814de	-0.09769605
134	0x3d29230b	0.041293185
135	0x3dd3735b	0.10324737
136	0xbbe32389	-0.0069317264
137	0xbd94d7eb	-0.072677456
138	0xbdcaa9c7	-0.09895664
139	0xbd56e301	-0.05246258
140	0xb902c42f	-0.0001247085
141	0xbd7147eb	-0.058906477
142	0xbe05a657	-0.13051735
143	0x3d26ebfc	0.040752396
144	0xbd0f0c32	-0.03492374
145	0xbe10c96a	-0.14139333
146	0xbd1fded5	-0.03903087
147	0x3d11c9fa	0.03559301
148	0x3d797828	0.060905606
149	0x3d844a81	0.06459523
150	0xbd85e808	-0.06538397
151	0xbdd06aa6	-0.101765916
152	0xbd766f1e	-0.060164563
153	0x3e3ae8ac	0.1825282
154	0x3d57a275	0.052645165
155	0x3d826c1d	0.06368277
156	0xbdb5d2c6	-0.088780925
157	0x3d0f68ff	0.03501224
158	0xbcc3e0ec	-0.023910962
159	0x3ccd7f72	0.025085185
160	0x3d38298a	0.04496149
161	0x3dee5cf1	0.11638821
162	0xbd538188	-0.051637203
163	0x3c88ed4e	0.016714718
164	0xbd0d81fd	-0.034547795
165	0xbd4140ff	-0.047181126
166	0x3d9daf33	0.07699432
167	0xbd0a52c0	-0.033770323
168	0xbdfea87b	-0.12434479
169	0xbc9583a5	-0.01825125
170	0x3d86ec05	0.06587986
171	0x3d41aa55	0.047281582
172	0x3d5e1337	0.054217543
173	0x3c1fae62	0.009746166
174	0x3e4c8bf0	0.19975257
175	0xbcba25b7	-0.022723062
176	0xbca4b07d	-0.020103687
177	0x3d88c97e	0.066790566
178	0xbdbb0f8f	-0.09133827
179	0xbe247b2e	-0.16062614
180	0x3d074689	0.033026252
181	0x3e0f603f	0.14001559
182	0x3dd40f65	0.10354499
183	0x3bcd9ad9	0.006274563
184	0xbcb3045a	-0.02185266
185	0xbde0e1a6	-0.10980539
186	0x3d3dd9d9	0.046350334
187	0x3da45b6b	0.08025249
188	0xbd17d65f	-0.037069675
189	0x3d861882	0.06547643
190	0xbdd54326	-0.10413198
191	0x3d9a8fc3	0.075469516
192	0x3ddda378	0.10822195
193	0x3c930298	0.017945573
194	0xbe134b06	-0.14384088
195	0xbd99b636	-0.07505457
196	0x3df4e2f7	0.119573526
197	0x3dfafec8	0.12255627
198	0x3d6a8712	0.05725772
199	0xbc669d0d	-0.01407553
200	0x3cf4da26	0.029889178
201	0xbdb5a172	-0.08868684
202	0xbcee32c6	-0.029076945
203	0xbdcccb0d	-0.09999666
204	0x3e36d81e	0.1785588
205	0x3d6a8d3d	0.0572636
206	0xbe0a0cc6	-0.13481435
207	0xbbc20184	-0.005920591
208	0xbd57805d	-0.05261265
209	0x3d18248a	0.03714422
210	0xbd0e4b4f	-0.03473979
211	0x3d8835f9	0.066509195
212	0x3c02d779	0.007985943
213	0x3db99c44	0.090630084
214	0xbcd71bda	-0.026258398
215	0x3dbdeec1	0.09274054
216	0x3d4b01a7	0.049562123
217	0x3e0b5369	0.13606037
218	0xbdea6ec8	-0.11446911
219	0xbdc8d5a2	-0.09806372
220	0xbe42e3c7	-0.19032203
221	0x3d2083ce	0.0391882
222	0x3c114131	0.0088656405
223	0x3cba18f3	0.022716975
224	0xbc2be835	-0.010492374
225	0xbd86f331	-0.06589354
226	0xbdceaf7b	-0.10092064
227	0x3de2833b	0.110601865
228	0xbcf78237	-0.030213458
229	0x3d7ede14	0.06222351
230	0xbddcc65a	-0.1078002
231	0xbe258504	-0.16164023
232	0xbd8b53d8	-0.06803101
233	0x3db98078	0.090577066
234	0x3e0da799	0.13833465
235	0xbcaf94a3	-0.02143318
236	0x3cee5c4f	0.02909675
237	0x3ce488b3	0.027897215
238	0xbd922990	-0.07136834
239	0xbd33b302	-0.043871887
240	0xbdab0ebf	-0.08352422
241	0x3d500de0	0.050794482
242	0xbe428c34	-0.18998796
243	0x3e228a83	0.1587315
244	0xbdc4aebe	-0.09603642
245	0x3d56d7f8	0.052452058
246	0xbe2730ba	-0.16327181
247	0xbd3991de	-0.045305125
248	0xbd8777bf	-0.06614637
249	0x3d769e06	0.060209297
250	0x3d89bd7c	0.067255944
251	0x3dc89457	0.097939186
252	0x3df22952	0.118242875
253	0x3e2fbfae	0.17162964
254	0xbdc25327	-0.09488516
255	0xbdc4ade7	-0.09603482
