pol_models/aqi_model_state.pt (torch, 650340 bytes, 16 tensors)

conv1.weight f4 [64, 300, 3]
0	0x3c9caf5a	0.019126583
1	0xbcbc003c	-0.02294933
2	0xbcfa2ed4	-0.030539908
3	0x3bad0f07	0.0052813324
4	0xbd074941	-0.033028845
5	0xbbb8c61d	-0.0056388513
6	0x3cca1e96	0.024672788
7	0x3c95369d	0.018214518
8	0xbcf16961	-0.029469194
9	0x3b0c384a	0.0021395856
10	0x3b04d75a	0.002026996
11	0xbd0e64fe	-0.034764282
12	0xbcba9bb6	-0.022779327
13	0xbb638120	-0.0034714416
14	0xbc643cb6	-0.01393049
15	0x3cbb1637	0.022837741
16	0x3af263c1	0.0018492864
17	0xb8d281c0	-0.00010037748
18	0x3cb3ecf4	0.021963574
19	0x3ca6b93e	0.020352002
20	0xbc497249	-0.012295314
21	0x3cc93bfa	0.024564732
22	0x3cba1a68	0.02271767
23	0x3c93b2c8	0.018029585
24	0x3bf4e7b3	0.0074739098
25	0xbd02e883	-0.03196002
26	0xbc0c55a9	-0.008565345
27	0xbd208eb4	-0.039198592
28	0xbd11d6de	-0.035605304
29	0xbc629ffa	-0.013832087
30	0xbcd03d10	-0.025419742
31	0x3afa3b73	0.0019091204
32	0x3c849aa1	0.016187014
33	0xbc53b69c	-0.012921955
34	0xbcd2fb98	-0.025754735
35	0x3c369253	0.011143285
36	0xbb26d32b	-0.0025455456
37	0x3c0686e2	0.0082108695
38	0x3cb7f566	0.022455882
39	0x3c13ae78	0.009013765
40	0xbd088b1b	-0.033335786
41	0xbcb34964	-0.021885581
42	0xbd0e609b	-0.0347601
43	0xbcb972c0	-0.022637725
44	0x3cc17751	0.023616465
45	0x3cca4d7f	0.024695156
46	0xbc8deedf	-0.017325817
47	0xbd1cc566	-0.03827419
48	0x3b95deab	0.004573663
49	0x3aed9b62	0.0018127973
50	0xbd010248	-0.031496316
51	0x3cd1cb32	0.025609586
52	0xbd09d680	-0.03365183
53	0xbc9ae275	-0.018906811
54	0x3b479694	0.0030454742
55	0x3ccaa2d7	0.024735851
56	0xba16da82	-0.0005754606
57	0xbc42e4f1	-0.011895404
58	0x3ccb9c73	0.024854874
59	0x3cd0a29b	0.025468161
60	0xbcbc21a3	-0.022965258
61	0xbca1b9c6	-0.019741904
62	0xba09612a	-0.0005240614
63	0xbba9bab5	-0.005179728
64	0x3c5d9c6a	0.013526062
65	0xbbc60ea2	-0.006044225
66	0x3c2db03b	0.010601099
67	0x3bdf373e	0.0068120053
68	0x3c7d1f51	0.015449361
69	0xbc18ba21	-0.00932172
70	0xbc1ccc7c	-0.009570237
71	0xbc1adfd7	-0.009452782
72	0xbcb03c14	-0.021513022
73	0xbd182b73	-0.03715081
74	0x3cd09f3b	0.025466552
75	0x3c41d870	0.011831388
76	0x3c2f763d	0.010709343
77	0x3cc401eb	0.023926696
78	0xbd0fa7cd	-0.035072137
79	0xbd0d6056	-0.0345157
80	0x3cb2777e	0.021785494
81	0xbc520aae	-0.012819929
82	0xbc95443a	-0.01822101
83	0xbd247860	-0.04015386
84	0xbd270093	-0.040772032
85	0xbba0e1c9	-0.004909728
86	0xbcbdf4fa	-0.023188103
87	0x3c65a0fa	0.014015431
88	0x3b298f21	0.0025872665
89	0x3cab817c	0.020935766
90	0xbd179c54	-0.03701432
91	0xbc6169ec	-0.013758164
92	0x3a9cd438	0.0011965102
93	0xbc2b69f8	-0.010462277
94	0xbcfdcf60	-0.030982673
95	0x3bb3c97e	0.005486666
96	0xbce9d6dc	-0.028544836
97	0xbd0e91cb	-0.034807008
98	0xbc1c3c50	-0.009535864
99	0x3c5c3976	0.013441434
100	0x3c8be09b	0.017074874
101	0xbd1153dd	-0.03548037
102	0x3c9317fc	0.017955773
103	0xbd27fb35	-0.041011054
104	0xbd22ee0b	-0.039777797
105	0xbc87d25c	-0.0165798
106	0x3c74e006	0.0149459895
107	0xbbb3909d	-0.0054798857
108	0xbbb1326f	-0.0054076235
109	0xbcbde9dd	-0.023182804
110	0xbb854cc2	-0.004067988
111	0xbb98969e	-0.004656627
112	0xbc87878f	-0.016544132
113	0xbc156222	-0.009117635
114	0x3c68d9d5	0.014212091
115	0xbcb5a75a	-0.022174526
116	0x3c8b873a	0.017032254
117	0x3c26cc32	0.01018052
118	0x3ca713e1	0.020395221
119	0xbd1ef0a3	-0.038803708
120	0x3ca16a33	0.01970396
121	0x3c858fd9	0.016303943
122	0xbd1ce55d	-0.038304675
123	0x3cbf412e	0.02334651
124	0x3bacd917	0.0052749026
125	0x39a54825	0.00031525004
126	0xbcb0b2da	-0.021569658
127	0xbabdaf8c	-0.0014471873
128	0xbce0f58a	-0.027460832
129	0xbbd5851f	-0.0065161134
130	0x3aa65060	0.0012688749
131	0xbd10d9a1	-0.035363797
132	0xbcf2d623	-0.029643124
133	0xbc45071e	-0.012025623
134	0xbca8aa2f	-0.020588962
135	0x3aa51d9c	0.0012597325
136	0xbc5c8f03	-0.013461831
137	0x3c999b86	0.018750917
138	0xbc5bc4c6	-0.013413614
139	0xbc9e1a7a	-0.019299734
140	0xbc92eb43	-0.017934447
141	0x3c467423	0.01211265
142	0xbbdca7ae	-0.006733856
143	0xbd18b56c	-0.037282392
144	0xbc80d23c	-0.015725248
145	0xbd089cdf	-0.03335273
146	0xbcc2727f	-0.023736237
147	0xbd03f88c	-0.032219455
148	0xbc2c8141	-0.010528863
149	0xbd218624	-0.039434567
150	0xbd0c40c0	-0.034241438
151	0xbc20ad9c	-0.009807017
152	0xbcc0192e	-0.023449507
153	0x3c841c27	0.016126705
154	0x3b97a785	0.004628124
155	0xbcd025c6	-0.025408637
156	0x3cc0d1c4	0.023537524
157	0xbce33843	-0.027736789
158	0x3c27a5b2	0.010232376
159	0xbbf3f993	-0.007445523
160	0x3c26be43	0.010177198
161	0xbca9069e	-0.020633038
162	0xbd0af2e1	-0.033923034
163	0xbd201481	-0.039082054
164	0xbcfd7bdc	-0.03094285
165	0xba250c7f	-0.00062961126
166	0x3c84a6ed	0.016192878
167	0x3bd94a66	0.0066311834
168	0x3c963025	0.018333504
169	0xbcabbc0a	-0.020963687
170	0x3c5d6ef7	0.013515226
171	0xbb693379	-0.0035583659
172	0x3bc368a0	0.0059634
173	0x3c5a8476	0.013337245
174	0xbcd91ccc	-0.02650299
175	0xbc40089e	-0.0117208045
176	0x3c3f3bf1	0.011672006
177	0xbd199955	-0.037499744
178	0xba8115c9	-0.0009848411
179	0xbd1000c1	-0.03515697
180	0xbcda13a3	-0.026620692
181	0xba8702d8	-0.001030053
182	0xbca96642	-0.020678643
183	0x3aec162a	0.0018011976
184	0xbcfff0c5	-0.031242738
185	0xbce99f26	-0.02851827
186	0xbc9e3090	-0.019310266
187	0xbbc6178a	-0.0060452865
188	0xbb05f5f2	-0.0020440784
189	0xbd04214e	-0.032258324
190	0xbc51fef4	-0.012817133
191	0xbd26d7d5	-0.040733177
192	0x3a81824d	0.0009880752
193	0xbd17343c	-0.03691505
194	0x3c46186e	0.012090785
195	0xbcf018a6	-0.029308628
196	0xbc95dd44	-0.018293984
197	0xbcf144ce	-0.029451754
198	0xbb8d593f	-0.0043136175
199	0xbb0198cb	-0.001977491
200	0x3c2c07a2	0.010499867
201	0x3cb8ad80	0.022543669
202	0x3c9979a1	0.018734755
203	0x3cba746f	0.022760598
204	0xbcc50233	-0.0240489
205	0xbcc3180e	-0.023815181
206	0xbc43b395	-0.011944671
207	0x3b15a5d1	0.002283443
208	0xbc86af3f	-0.016440986
209	0x3ca72068	0.020401195
210	0x3bf6dddb	0.0075337715
211	0xbb87feff	-0.004150271
212	0xbc9d740b	-0.019220373
213	0x3b940ed3	0.0045183687
214	0x3cb506f9	0.022098051
215	0xbcf5d1a4	-0.030007191
216	0xbccf0a40	-0.025273442
217	0x3cb5b0f1	0.022179099
218	0x3c735876	0.014852634
219	0x3c4a0d32	0.012332248
220	0xbcb0d616	-0.02158646
221	0xbbbc6793	-0.0057496517
222	0x3c32e462	0.0109187085
223	0xbc6f875c	-0.0146196745
224	0x3b30ae69	0.0026959425
225	0xbc50cd8a	-0.012744317
226	0xbc1f7f5d	-0.009734956
227	0x3c897fee	0.016784634
228	0x3b54ac1f	0.0032451225
229	0xbd273475	-0.04082151
230	0xbad8b99d	-0.0016534809
231	0x3a324ec9	0.0006801901
232	0xbd09a913	-0.033608507
233	0xbc8c0aea	-0.017095048
234	0xbcd6a446	-0.026201379
235	0x3cd107f3	0.025516486
236	0xbbb66ea7	-0.00556739
237	0xbd0688ad	-0.032845188
238	0x3c26768c	0.0101601
239	0x3c63ed51	0.013911561
240	0xbd1e1bba	-0.03860066
241	0xbcf74309	-0.030183332
242	0x3c2082a7	0.009796775
243	0xb9a62be1	-0.0003169468
244	0xbd267358	-0.040637344
245	0x3ca7c656	0.020480316
246	0x3c9ac57b	0.018892994
247	0x3c9d921a	0.019234706
248	0x3ccc7e00	0.024962425
249	0x3cd07ec7	0.025451077
250	0xbcab06de	-0.020877298
251	0x3cc67aec	0.024228536
252	0xbc4958ef	-0.01228927
253	0xbc382fce	-0.011241866
254	0x3c303163	0.010753962
255	0xbcae81f1	-0.021302195

conv1.bias f4 [64]
0	0xbd081654	-0.03322442
1	0x3cda8747	0.026675833
2	0xbcdb9f85	-0.026809463
3	0x38567dd5	5.1138766e-05
4	0x3c3184c9	0.010834881
5	0xbe68c796	-0.22732386
6	0x3a8dfe10	0.0010833163
7	0xbc8e67ed	-0.01738354
8	0xbb39a7df	-0.0028328819
9	0xbdf1a6a5	-0.11799363
10	0x3ce68b81	0.028142693
11	0x3a929498	0.00111832
12	0xbcb37dcd	-0.021910572
13	0x3d991f72	0.07476701
14	0xbca0fe8b	-0.019652626
15	0x3cc9aa36	0.024617296
16	0xbc00e0f7	-0.007866136
17	0xbe1882ab	-0.14893596
18	0x3a507905	0.00079526036
19	0x3cb9a54c	0.022661828
20	0xbdbf0d07	-0.09328657
21	0xbcdd0360	-0.026979148
22	0xbe188641	-0.14894964
23	0xbe1a63d8	-0.1507715
24	0xbcafe2a6	-0.02147038
25	0xbd90288d	-0.070389844
26	0xbcca82e1	-0.024720611
27	0xbca93ef2	-0.020659897
28	0xbc9f3d77	-0.019438488
29	0xbe244817	-0.16043125
30	0xbcfe57f7	-0.031047804
31	0xbcc1a6c9	-0.0236391
32	0xbd1c1861	-0.038109187
33	0xbd01c800	-0.031684875
34	0xbc05a366	-0.008156633
35	0xbe6e95e2	-0.23299363
36	0x3ca8c2e7	0.02060075
37	0x3a2d44f9	0.0006609704
38	0x3c5cf0c9	0.013485142
39	0xbc8ea18d	-0.017411018
40	0x3d02e9af	0.03196114
41	0x3cce150d	0.025156522
42	0x3cba90dc	0.022774152
43	0xbc954c3c	-0.018224828
44	0x3c9b5aff	0.018964289
45	0x3c491230	0.012272403
46	0xbb1eae30	-0.002421271
47	0x3c951466	0.018198203
48	0xbbe95612	-0.007120856
49	0xbe332a78	-0.1749667
50	0xbcbadfb2	-0.022811744
51	0xbe4ecd00	-0.20195389
52	0x3cc68c9c	0.02423697
53	0xbc726f3a	-0.014797026
54	0x3c7cca75	0.015429129
55	0xbcca8c05	-0.02472497
56	0x3c6900da	0.014221394
57	0xbcf270f4	-0.029594876
58	0xbd15d953	-0.03658421
59	0xbd17309c	-0.036911592
60	0x3baed2e3	0.0053351982
61	0xbc91d15a	-0.017800022
62	0xbd18cafc	-0.037302956
63	0xbd1af081	-0.03782702

conv2.weight f4 [128, 64, 3]
0	0x3d91d0a3	0.071198724
1	0x3d8dfa11	0.06932462
2	0x3d40ca26	0.047067784
3	0x3d2f9cb1	0.042874042
4	0x3d58da95	0.05294283
5	0x3d8b6094	0.0680553
6	0x3d22a9fa	0.039712884
7	0x3cdeaa01	0.027180674
8	0xba94a5b1	-0.0011340884
9	0xbd1ab061	-0.037765864
10	0xbd652093	-0.05593927
11	0x3d8e091e	0.06935333
12	0x3b3c22ed	0.002870734
13	0x3cdaea89	0.026723163
14	0x37aaecc2	2.0375828e-05
15	0xbb55db74	-0.0032632025
16	0xbc9dbe9c	-0.019255929
17	0xbcbf26ab	-0.023333868
18	0x3d884310	0.06653416
19	0x3c5e619f	0.013573079
20	0x3d45f648	0.048330575
21	0xbd76b55d	-0.060231555
22	0x3d0f6a02	0.035013206
23	0x3d78928c	0.060686633
24	0xbcb6a30f	-0.02229455
25	0xbd0cc486	-0.034367107
26	0xbd9ff2af	-0.0780996
27	0x3d0b1e83	0.033964645
28	0xbcc6eeea	-0.024283845
29	0x3d1119bc	0.035424933
30	0xbbac2f75	-0.0052546808
31	0xbb67885e	-0.0035329084
32	0x3cdc16bd	0.026866311
33	0x3d51096a	0.05103437
34	0xbaac75e2	-0.001315769
35	0x3d8865b3	0.066600226
36	0x3ce43077	0.027855141
37	0x3cc63499	0.024195002
38	0x3d65105d	0.05592381
39	0xbcae8f39	-0.021308528
40	0x3cbb912b	0.02289637
41	0xbcd1b854	-0.02560059
42	0xbd126fcb	-0.035751145
43	0x3d286468	0.04111138
44	0x3c42e238	0.011894755
45	0x3d97928a	0.07400997
46	0x3d282c1c	0.04105769
47	0x3c83a634	0.016070463
48	0x3d5ec618	0.054388136
49	0x3b963290	0.0045836642
50	0xbd118c1f	-0.03553402
51	0x3cc3bfc4	0.023895152
52	0xbdb92de4	-0.09041956
53	0xbd5ab46c	-0.05339472
54	0xbd6f5684	-0.058432117
55	0xbd738314	-0.059451178
56	0x3bf10a4b	0.0073559633
57	0xbd497034	-0.04917927
58	0x3d859758	0.06523007
59	0xbd60dcef	-0.0548982
60	0xbd2c3fa2	-0.042052872
61	0xbc872a03	-0.016499525
62	0xbd3e68ce	-0.04648667
63	0x3d233020	0.039840817
64	0x3d53db8a	0.05172304
65	0xbd4cbec6	-0.049986623
66	0xbbb2bf31	-0.0054549207
67	0xbd8fd7b1	-0.07023562
68	0xbcbc929b	-0.023019126
69	0xbd64d16b	-0.05586378
70	0xbcc58c78	-0.024114832
71	0x3d77eaaa	0.060526527
72	0xbbd59c66	-0.0065188883
73	0x3c030fb2	0.0079993475
74	0x3d1f9243	0.038957845
75	0x3c467745	0.012113397
76	0xbcd88626	-0.026431154
77	0xbc1c1113	-0.009525555
78	0xbd349079	-0.044083092
79	0x3d170047	0.0368655
80	0x3d1a34f5	0.03764816
81	0xbd8bda3f	-0.068287365
82	0x3d749feb	0.059722822
83	0x3d827ed7	0.06371849
84	0xbd3235ec	-0.043508455
85	0x3a3acb8e	0.0007125669
86	0xbd1457e3	-0.036216628
87	0xbd902a32	-0.07039298
88	0xbdec4556	-0.11536662
89	0x3bc00b56	0.0058607263
90	0x3d4d695e	0.050149314
91	0xbd150fe0	-0.036392093
92	0x3c0b91f0	0.008518681
93	0xbcce9ff2	-0.025222752
94	0xbb88b86a	-0.0041723745
95	0xbd592ca4	-0.05302109
96	0x3d054799	0.032538984
97	0xbc5ae162	-0.0133593995
98	0xbd8dd2fe	-0.06925009
99	0xbd99ae4c	-0.075039476
100	0xbd9b818c	-0.075930685
101	0x3d7c0e64	0.06153716
102	0xbda11ebc	-0.0786719
103	0x3d824168	0.063601315
104	0xbd44525a	-0.0479301
105	0xbd55ac7f	-0.05216646
106	0xbde3e917	-0.11128443
107	0xbd1c815b	-0.0382093
108	0xbcf0063e	-0.029299852
109	0xbc7b6cd7	-0.015345774
110	0xbd831b3b	-0.06401678
111	0x3c18d8a4	0.009328995
112	0x3cc98917	0.024601502
113	0x3cb7766b	0.022395333
114	0x3d98ff18	0.0747053
115	0x3d685bda	0.05672822
116	0xbd5ddb30	-0.05416411
117	0xbd108514	-0.035283163
118	0x3c88a37a	0.016679514
119	0xbc44fa55	-0.012022574
120	0x3d73c773	0.05951638
121	0x3c418c0a	0.011813173
122	0xbd3e70ec	-0.04649441
123	0x3974e579	0.00023355139
124	0x3c64290a	0.0139258
125	0xbd3f5a37	-0.046716895
126	0x3b54f4e5	0.0032494601
127	0xbd819f74	-0.063292414
128	0xbd5b1da6	-0.05349507
129	0x3c256808	0.010095604
130	0x3d88bf9e	0.06677173
131	0x3d71c7bc	0.059028372
132	0xbd59f775	-0.05321451
133	0x3c41ff46	0.011840647
134	0xbcd621f9	-0.026139246
135	0x3cddac98	0.027059838
136	0xbd8fd1e6	-0.07022457
137	0xbcb69bac	-0.022291027
138	0xbd928fa6	-0.07156305
139	0xbd6b545f	-0.05745351
140	0xbcece7c6	-0.028919112
141	0x3d2f1048	0.042740136
142	0x3c3a0d67	0.011355734
143	0x3d44accf	0.048016366
144	0x3d8234c8	0.063577235
145	0xbd3f86a6	-0.04675927
146	0xbd4861dd	-0.048921455
147	0xbd8a8890	-0.067643285
148	0xbd951cdf	-0.07280897
149	0xbcd49947	-0.025951995
150	0x3d43c7d6	0.047798
151	0xbc9ae92f	-0.018910019
152	0x3d7dae06	0.06193354
153	0x3cd96771	0.026538583
154	0xbd97862d	-0.07398639
155	0xbc9af78b	-0.018916866
156	0xbcea6166	-0.028610896
157	0x3c9bed94	0.019034185
158	0xbd8bca7b	-0.068257295
159	0x3d7562ca	0.059908666
160	0x3cf99c7d	0.030470127
161	0x3c9ebaee	0.019376244
162	0xbd0faaf6	-0.03507515
163	0x3d8b426c	0.06799778
164	0x3d893250	0.066990495
165	0x3c77f9b8	0.015135221
166	0xbb8395b0	-0.004015647
167	0xbd8ffff9	-0.07031245
168	0xbc99970c	-0.018748783
169	0x3c439688	0.011937745
170	0xbc5fab94	-0.013651747
171	0x3beb0510	0.0071722344
172	0x3d15c864	0.03656806
173	0xbd7ab22c	-0.061205074
174	0xbcc2990c	-0.023754619
175	0xbd4169d2	-0.04722006
176	0x3c82408c	0.015899919
177	0xbbfd8960	-0.0077373236
178	0x3d57ee38	0.052717417
179	0x3d0a53ce	0.03377133
180	0x3c83bcea	0.016081292
181	0xbc9579df	-0.01824659
182	0xbc235036	-0.009967854
183	0x3d062008	0.03274539
184	0x3c33d8d5	0.01097699
185	0xbb03f849	-0.0020137003
186	0xbbe58683	-0.0070045604
187	0x3cd04bcb	0.025426766
188	0xbc5cd8ca	-0.013479421
189	0x3d8ded34	0.069300085
190	0x3c39bf0c	0.011337053
191	0x3d3f5bf6	0.04671856
192	0xbbc9a73c	-0.006153969
193	0x3c56ecad	0.013117951
194	0xbb43309e	-0.0029783617
195	0x3d1357e8	0.035972506
196	0x3d37c131	0.044861976
197	0x3ce904a3	0.028444594
198	0xbd04722a	-0.032335438
199	0xbd83f065	-0.06442336
200	0xbc89f65f	-0.016841112
201	0x3b033b8b	0.0020024504
202	0xbd721c8e	-0.059109263
203	0x3ccac1f6	0.02475069
204	0xbcffe4d2	-0.03123704
205	0xbb8b676e	-0.004254273
206	0xbc39a6c2	-0.011331262
207	0xbd8e6a47	-0.069538645
208	0xbe061b63	-0.13096385
209	0xbe492b41	-0.19645406
210	0xbd93c547	-0.07215362
211	0x3cc8bfec	0.024505578
212	0x3ce06ba6	0.02739508
213	0x3cfb1fb4	0.030654766
214	0x3d65ba50	0.056085885
215	0x3d143be6	0.036189936
216	0xbd825ab0	-0.063649535
217	0x3d945437	0.07242625
218	0xbd745357	-0.05964979
219	0x3dc262c4	0.09491494
220	0xbb20478a	-0.0024456703
221	0x3c53bd9e	0.012923626
222	0x3ced4170	0.028961867
223	0xbcbfb053	-0.023399508
224	0xbd0ee010	-0.03488165
225	0xbceb4108	-0.028717533
226	0x3d7218a4	0.05910553
227	0xbcca185e	-0.024669822
228	0xbda6cc46	-0.08144431
229	0x3c9b3063	0.018943971
230	0xbcc8efde	-0.02452844
231	0x3d59ad1a	0.0531436
232	0xbc9cf7af	-0.019161073
233	0x3d81cbee	0.063377246
234	0xbd799ed7	-0.060942497
235	0xbbc7c780	-0.0060967803
236	0xbd08db59	-0.03341231
237	0xbd1c44e4	-0.038151637
238	0xbc886e96	-0.016654294
239	0xbd994adf	-0.07484984
240	0x3d8474df	0.06467604
241	0x3bd7f9d0	0.0065910593
242	0xbbc0689c	-0.0058718454
243	0x3d94ca3a	0.07265134
244	0xbddc4a85	-0.10756401
245	0xbd9eb693	-0.07749667
246	0xbca8b33a	-0.020593274
247	0x3d4d0363	0.050052058
248	0x3c2d8f82	0.010593297
249	0x3d3a748c	0.045521304
250	0x3d5661cc	0.05233936
251	0x3cddd2d8	0.027078077
252	0xbc7f4dfd	-0.015582559
253	0x3b6629d9	0.0035120158
254	0x3cd69e34	0.026198484
255	0x3d5a3e54	0.053282097

conv2.bias f4 [128]
0	0xbda007e3	-0.07814004
1	0x3e645ce1	0.22301055
2	0xbe007304	-0.12543875
3	0xbe15e63f	-0.14638613
4	0xbd6643ae	-0.056216888
5	0xbdb19ac1	-0.08672095
6	0xbd8fd3ce	-0.070228204
7	0xbdc7bd47	-0.09752899
8	0x3e3c2cce	0.18376467
9	0x3e556431	0.20839001
10	0x3a542f50	0.00080942083
11	0xbdaf27bd	-0.08552501
12	0xbd5e1b4f	-0.054225262
13	0xbdf1fade	-0.11815427
14	0xbe408060	-0.18798971
15	0xbe07384f	-0.13205074
16	0xbd9de1ce	-0.077090845
17	0xbe4159db	-0.18881933
18	0x3d1dedf2	0.038557
19	0xbdb29bd2	-0.087211266
20	0xbda975f9	-0.082744546
21	0x3e4dc88f	0.20096038
22	0x3b741d26	0.003724882
23	0xbda39d77	-0.079890184
24	0xbca42c3e	-0.020040628
25	0xbe3ba02e	-0.18322822
26	0x3e26bebd	0.16283698
27	0xbde04bd4	-0.10951963
28	0xbcd39e70	-0.025832385
29	0x3e0415c3	0.12898926
30	0x3dae7541	0.08518458
31	0x3b248d52	0.0025108648
32	0xbb9fda1b	-0.004878295
33	0xbe27b9e0	-0.163795
34	0xbe34e091	-0.1766379
35	0xbd4d5d6c	-0.050137922
36	0xbc1274e1	-0.008938999
37	0xbe018c18	-0.12651098
38	0xbd5cf12b	-0.053940933
39	0x3c1b0c23	0.009463343
40	0xbe1dff32	-0.1542938
41	0xbd92c703	-0.07166865
42	0xbd9a2861	-0.07527233
43	0xbde6252b	-0.11237558
44	0xbdc48a22	-0.09596659
45	0xbd8efdda	-0.06982012
46	0x3e2c90e1	0.16852142
47	0xbda05775	-0.07829181
48	0xbd4aee93	-0.04954393
49	0xbdb1b941	-0.086779125
50	0xbb80264e	-0.0039108163
51	0xbd27a3b4	-0.040927604
52	0xbd9fadb4	-0.07796803
53	0x3c10b6b4	0.008832622
54	0xbd975133	-0.073885344
55	0xbe4bb384	-0.19892699
56	0xbda042bb	-0.07825228
57	0x3e476c19	0.1947483
58	0xbda593e1	-0.08084846
59	0xbe5f77a8	-0.21822989
60	0xbe2e56ec	-0.17025346
61	0xbd692a2d	-0.056924988
62	0x3e4e0cfc	0.2012214
63	0xbdc7190b	-0.097215734
64	0xbe24375d	-0.16036744
65	0x3dc386b6	0.095471784
66	0xbdb756e9	-0.08952124
67	0xbe13b0af	-0.14422868
68	0x3c8c5df0	0.017134637
69	0xbc897168	-0.01677771
70	0x3e35735a	0.17719784
71	0xbe110ff8	-0.14166248
72	0x3e5301f8	0.2060622
73	0xbd5df8e3	-0.054192435
74	0xbd0e087e	-0.034676068
75	0xbe1bd4b8	-0.15217865
76	0xbdb2428d	-0.087041
77	0xbc9361d9	-0.017990993
78	0xbe319f3a	-0.17345896
79	0xbd18e77f	-0.037330147
80	0xbde0a5d6	-0.10969131
81	0xbd9b58d1	-0.075853
82	0x3e836c99	0.2566879
83	0xbda528b0	-0.08064401
84	0xbe224ac8	-0.1584884
85	0x3e465a8f	0.19370483
86	0x3dfb920d	0.12283716
87	0x3e75e9a6	0.24014911
88	0xbd96f08a	-0.07370098
89	0xbde49096	-0.1116039
90	0xbe236338	-0.15955818
91	0x3ca2c395	0.019868651
92	0xbc9cc119	-0.019135045
93	0xbcd2d8f4	-0.025738217
94	0xbce7f9ed	-0.028317416
95	0xbe08e8b0	-0.13370013
96	0x3e3f8ccb	0.18706052
97	0x3e63a1de	0.22229716
98	0x3e6a8de7	0.22905694
99	0xbd1c2ecd	-0.03813057
100	0xbdebc047	-0.11511283
101	0x3e708c3b	0.23490994
102	0xbd8986ad	-0.067151405
103	0xbd522eeb	-0.051314276
104	0xbe4ce0a2	-0.20007566
105	0xbdb1a701	-0.086744316
106	0xbe236dbe	-0.15959832
107	0xbccfec6c	-0.02538129
108	0xbdd01a47	-0.10161262
109	0xbe24b0be	-0.16083047
110	0xbd89825d	-0.06714318
111	0xbdbfa1e4	-0.0935705
112	0xbdf1ffc5	-0.11816362
113	0xbe51b71a	-0.20480004
114	0x3d57e9b9	0.05271313
115	0xbd4de120	-0.050263524
116	0xbded5d6b	-0.11590084
117	0x3d46dd35	0.048550803
118	0xbdf24e8b	-0.11831387
119	0xbe107db1	-0.14110447
120	0x3e62958d	0.22127362
121	0xbd306c08	-0.043071777
122	0xbdbdf7a9	-0.09275753
123	0xbe3890c6	-0.18023977
124	0xbdd9d028	-0.10635406
125	0xbe44cc57	-0.19218574
126	0xbd39ced7	-0.045363273
127	0xbda60361	-0.08106113

lstm.weight_ih_l0 f4 [200, 128]
0	0x3e0e4471	0.13893296
1	0xbea77a5f	-0.3271055
2	0x3ddfc4de	0.10926221
3	0x3e16520a	0.14679733
4	0xbdd57f96	-0.10424726
5	0xbdd37319	-0.103246875
6	0x3b4c3da4	0.003116467
7	0x3cf3c381	0.02975631
8	0x3ea81339	0.32827166
9	0x3e7fe996	0.2499145
10	0xbe36ce63	-0.17852168
11	0xbd769e8e	-0.060209803
12	0xbde7ef4e	-0.113249406
13	0x3e9e983e	0.30975527
14	0xbd803b3e	-0.062612996
15	0xbe0a4591	-0.135031
16	0xbd2574eb	-0.040394705
17	0xbd31e6dc	-0.043433055
18	0xbd903805	-0.07041935
19	0x3e191cd8	0.1495241
20	0x3d722124	0.059113637
21	0x3e6bcf94	0.23028404
22	0xbd3f9645	-0.046774168
23	0xbdc33a03	-0.09532549
24	0x3dcde93d	0.10054252
25	0x3e4b0bd5	0.19828732
26	0xbe87c0d1	-0.26514295
27	0x3d3995c4	0.045308843
28	0xbdbe749a	-0.09299584
29	0xbd83aada	-0.06429072
30	0x3cf02bcc	0.029317759
31	0x3dfc3f14	0.12316719
32	0xbd3f2d6d	-0.04667418
33	0x3c89b311	0.016809018
34	0xbdef6709	-0.11689574
35	0xbcfec978	-0.031101927
36	0xbdb0a81c	-0.08625814
37	0x3ddfe3fa	0.10932155
38	0xbe5474ca	-0.20747676
39	0x3e2a4a73	0.16629963
40	0xbdb41cde	-0.087945685
41	0x3e0d4e5c	0.13799423
42	0xbd68d58e	-0.056844287
43	0x3d324329	0.04352108
44	0xbde86a59	-0.11348409
45	0x3cacccfc	0.021093838
46	0x3e3a2928	0.18179762
47	0x3e1570d9	0.14593829
48	0xbda02253	-0.07819047
49	0xbe03f369	-0.12885822
50	0xbe1bd667	-0.15218507
51	0xbd2b67f9	-0.041847203
52	0x3c78978f	0.015172853
53	0x3d938d7c	0.072047204
54	0xbdd7883e	-0.10524033
55	0x3e30348c	0.17207545
56	0xbc913a5b	-0.017728021
57	0x3e34e8c1	0.17666914
58	0x3c69ddb9	0.014274054
59	0xbdc593ea	-0.09647353
60	0xbe073d3b	-0.13206951
61	0xbdd6328b	-0.10458859
62	0xbd81b0ec	-0.06332573
63	0xbe04e6c1	-0.1297865
64	0x3d88f108	0.06686598
65	0x3dee6cad	0.11641822
66	0xbdb8f36b	-0.09030803
67	0x3ca45741	0.020061137
68	0x3d86b765	0.065779485
69	0xbd9a6a70	-0.075398326
70	0x3e55ed60	0.20891333
71	0x3e48b6c3	0.19600968
72	0xbc67c018	-0.01414492
73	0x3d8d3d19	0.06896419
74	0xbdee5ee6	-0.11639194
75	0x3e0168de	0.1263766
76	0xbe0da8e7	-0.13833962
77	0xbe837599	-0.25675657
78	0xbd2f2f91	-0.042769972
79	0xbcc24513	-0.023714578
80	0xbda174a4	-0.078835756
81	0x3de9f71a	0.11424084
82	0x3e34ebe2	0.17668107
83	0xbbde348a	-0.0067811655
84	0x3df22684	0.118237525
85	0xbde1ed79	-0.110316224
86	0x3e124bee	0.14286777
87	0x3d8cd7aa	0.06877072
88	0x3db13206	0.08652119
89	0xbd84bc27	-0.064812
90	0xbc0b8518	-0.008515619
91	0x3dcaaa28	0.09895736
92	0xbd84271e	-0.064527735
93	0xbdb6a241	-0.08917666
94	0x3c261139	0.010135942
95	0xbe81bdb7	-0.25340053
96	0xbb2fc0fd	-0.002681791
97	0x3def2e9b	0.11678811
98	0xbddfe583	-0.10932448
99	0xbcf4fae7	-0.029904796
100	0xbdd91bed	-0.106010295
101	0x3eb8ba32	0.36079556
102	0x3c7d9468	0.015477277
103	0x3ca35daf	0.019942133
104	0x3d6a9de0	0.057279468
105	0xbe0c43ca	-0.13697734
106	0xbd13f4ce	-0.036122136
107	0xbd87e611	-0.066356786
108	0xbe1a2e23	-0.15056662
109	0x3d9ec55d	0.07752488
110	0xbad35834	-0.0016124309
111	0xbd3d62cc	-0.0462368
112	0x3e158616	0.14601931
113	0xbd02d34e	-0.031939797
114	0x3df5d9ce	0.120044336
115	0x3d86a155	0.065737404
116	0x3e0b85e5	0.13625295
117	0xbd8eccd5	-0.06972662
118	0x3e53cad9	0.20682849
119	0x3e13fd0f	0.14452003
120	0x3d8cd1cf	0.06875955
121	0xbd7f2362	-0.062289603
122	0xbe004db8	-0.12529647
123	0xbe05da08	-0.13071454
124	0x3d2f2169	0.04275647
125	0xbcf94e19	-0.030432748
126	0x3da0c072	0.07849206
127	0x3e1eb6f8	0.15499485
128	0x3d169c73	0.036770295
129	0xbc33790a	-0.010954151
130	0xbd0dc093	-0.03460748
131	0xbd10c2bd	-0.035341967
132	0x3d2b0423	0.041751992
133	0xbd6e0904	-0.058114067
134	0xbe264836	-0.16238484
135	0x3d8efdb4	0.06981984
136	0xbd75bcce	-0.05999451
137	0xbdfb1002	-0.122589126
138	0x3e50e558	0.20399988
139	0xbe1218dd	-0.14267297
140	0xbcc2a9df	-0.023762641
141	0x3ddb6163	0.107119344
142	0x3da4c115	0.0804464
143	0x3dbce04c	0.09222469
144	0xbd1de9dd	-0.038553108
145	0x3ca9900e	0.020698573
146	0xbd1ad6ab	-0.03780238
147	0x3dd79c3f	0.105278485
148	0x3da7d768	0.08195382
149	0xbe900657	-0.28129837
150	0xbce72686	-0.028216612
151	0x3e0025ca	0.12514415
152	0xb7a73c08	-1.9935906e-05
153	0xba20b5d6	-0.00061306113
154	0x3d77ba5a	0.060480453
155	0x3db8667c	0.09003922
156	0x3d8e629f	0.06952404
157	0x3e1ae537	0.15126501
158	0x3da066c9	0.07832105
159	0x3dfaed0c	0.12252244
160	0x3cc3b7c7	0.023891343
161	0x3df5c927	0.120012574
162	0x3dfc3007	0.12313848
163	0xbdbe4af8	-0.09291643
164	0xbdab147a	-0.08353515
165	0x3e34f217	0.17670475
166	0xbc8743e6	-0.016511869
167	0x3d9cc484	0.0765467
168	0xbd9b3a90	-0.07579529
169	0xbbdc87a7	-0.006730038
170	0xbcdac2e0	-0.026704252
171	0xbc8d1321	-0.017221035
172	0xbe11c498	-0.14235151
173	0x3d7449e6	0.059640788
174	0x3e7bc728	0.24587691
175	0xbd1c0dfe	-0.03809928
176	0xbe0623b5	-0.13099559
177	0xbdf2a766	-0.11848335
178	0xbdfdb0b4	-0.12387219
179	0x3d09e4aa	0.033665337
180	0x3d540b9c	0.051768884
181	0x3e33cfe3	0.17559771
182	0xbe0447ad	-0.12917967
183	0x3db8e404	0.090278655
184	0xbd5243b0	-0.051334083
185	0xbcbcd89b	-0.023052504
186	0xbdf3d701	-0.11906243
187	0x3d4c9c58	0.04995379
188	0x3d919b80	0.071097374
189	0xbd88a8d5	-0.06672827
190	0x3dbfdd58	0.0936839
191	0x3dd47575	0.10373966
192	0xbca2a899	-0.019855784
193	0x3e792699	0.2433113
194	0xbd865605	-0.06559376
195	0xbcf2901e	-0.029609736
196	0x3d1432c3	0.036181223
197	0xbd2fbb5a	-0.04290328
198	0xbb63caea	-0.0034758397
199	0x3dea5048	0.11441094
200	0x3e1a85c5	0.15090092
201	0x3e0d109c	0.13775867
202	0x3c0c4729	0.008561888
203	0xbd40d3b9	-0.047076914
204	0x3d42b3d5	0.047534782
205	0x3de54380	0.11194515
206	0xbdf7b57b	-0.120951615
207	0x3e238adc	0.1597094
208	0x3cd0086f	0.025394646
209	0xbde40536	-0.111338064
210	0x3ce80e2f	0.028327076
211	0xbcd83abd	-0.026395196
212	0x3d896711	0.067091115
213	0xbdc82a73	-0.097737215
214	0xbc636205	-0.01387835
215	0x3ad2ef6d	0.0016093083
216	0x3cddcd57	0.027075453
217	0x3d3a7132	0.045518108
218	0xbd8cc00a	-0.06872566
219	0xbd5e6196	-0.054292284
220	0x3d6fec63	0.058575045
221	0x3e56e907	0.2098733
222	0xbdb1864c	-0.08668193
223	0x3c26a390	0.010170832
224	0xbe1902c9	-0.14942469
225	0xbc127c05	-0.008940701
226	0x3d1d7488	0.03844121
227	0x3ce9f315	0.028558293
228	0x3dd0ddea	0.10198577
229	0xbe59e1a9	-0.21277489
230	0x3da4d72d	0.08048854
231	0xbdd603a5	-0.10449914
232	0x3d2dc841	0.042427305
233	0xbd25f315	-0.040515024
234	0x3e00e8df	0.12588833
235	0x3dcc5a7e	0.099781975
236	0x3e327e40	0.17430973
237	0x3daaada7	0.08333903
238	0x3dcf9c8c	0.10137281
239	0xbc9b551f	-0.018961487
240	0x3d38d0d0	0.045121014
241	0xbde0e2ab	-0.109807335
242	0xbd5b4487	-0.05353215
243	0xbdce6d0c	-0.10079393
244	0x3de7432a	0.112921074
245	0xbd014eb6	-0.031569205
246	0x3d44cfd8	0.048049778
247	0xbbdb1ea3	-0.006687002
248	0xbe0e13f6	-0.13874802
249	0x3ceed82c	0.029155813
250	0x3d96fe91	0.073727734
251	0x3dcad42b	0.09903749
252	0xbd543f54	-0.051818207
253	0xbd15fe2e	-0.036619358
254	0xbd027880	-0.0318532
255	0x3db3b444	0.08774617

lstm.weight_hh_l0 f4 [200, 50]
0	0x3e0fc8a7	0.14041387
1	0xbc0425fe	-0.008065699
2	0xbe2c0840	-0.16800022
3	0xbe12607e	-0.14294621
4	0x3e05a7b6	0.13052258
5	0x3db5db6a	0.088797405
6	0xbe001f6f	-0.12511991
7	0x3d9c0b57	0.076193504
8	0x3d54f12a	0.051987804
9	0x3d1ee45b	0.038791995
10	0xbd6ea0f3	-0.058258962
11	0x3c9ac950	0.018894821
12	0xbe09090d	-0.13382359
13	0x3dd8e415	0.10590378
14	0xbddb4573	-0.10706606
15	0xbc343f67	-0.011001444
16	0xbd7bbaff	-0.06145763
17	0xbb5c2c52	-0.0033595753
18	0x3d59a26a	0.053133406
19	0xbbba9aab	-0.0056947074
20	0xbde372fe	-0.111059174
21	0x3e096cfe	0.13420483
22	0x3ca348bd	0.019932145
23	0x3e4371d3	0.19086389
24	0x3ddc00e6	0.10742359
25	0xbd030ece	-0.03199654
26	0xbe4779a4	-0.19479996
27	0x3dba333c	0.090918034
28	0x3d308bce	0.04310208
29	0xbdc0e5d9	-0.0941884
30	0xbe370014	-0.17871124
31	0xbc256022	-0.010093721
32	0x3c539bf3	0.012915599
33	0x3e541342	0.20710471
34	0xbe0706d1	-0.13186194
35	0x3da9c63f	0.082897656
36	0xbaf1d8b7	-0.0018451427
37	0x3e0878c7	0.13327323
38	0xbc866fc9	-0.016410725
39	0x3d2753ca	0.04085139
40	0x3d864d5f	0.06557726
41	0x3da61278	0.081089914
42	0x3d90ad2e	0.070642814
43	0xbdeefc8d	-0.11669264
44	0x3d10de3e	0.035368197
45	0x3d9a32dc	0.07529232
46	0x3deb36ba	0.11485048
47	0x3d3e7bd6	0.046504818
48	0x3e0a95d8	0.13533723
49	0x3b0aa2b8	0.0021154117
50	0x3c06fb85	0.008238678
51	0xbe2498c5	-0.16073902
52	0xbcde50e7	-0.027138187
53	0xbd6d5eb1	-0.057951633
54	0x3ce5774d	0.028010989
55	0xbd220a4e	-0.03956061
56	0xbba18a93	-0.0049298494
57	0xbc4155c5	-0.011800234
58	0xbd6d84f8	-0.057988137
59	0xbd2613bb	-0.04054616
60	0xbd93832d	-0.07202754
61	0x3d58d184	0.052934185
62	0xbe298f2f	-0.16558526
63	0xbc531e70	-0.012885675
64	0xbdb51695	-0.08842198
65	0x3e17515a	0.14777127
66	0x3e4bf20a	0.1991655
67	0x3d925720	0.07145524
68	0x3dbab4b7	0.091165
69	0x3e2fbd3d	0.17162032
70	0x3d3b8f3e	0.045790903
71	0xbdb4fb80	-0.08837032
72	0x3d71a877	0.05899855
73	0xbdc94ac2	-0.09828712
74	0xbd8bc065	-0.06823806
75	0x3dc43100	0.095796585
76	0xbb85f7e9	-0.004088391
77	0x3d340296	0.04394778
78	0x3dab713a	0.08371206
79	0xbdf6fc06	-0.120597884
80	0xbe6b0a8c	-0.22953242
81	0xbd13c6d1	-0.036078278
82	0xbd216d4e	-0.03941088
83	0x3e289716	0.16463885
84	0x3db71e62	0.08941342
85	0xbdea8b9e	-0.11452411
86	0xbd726faa	-0.059188522
87	0xbda3035c	-0.07959625
88	0x3dca7212	0.098850384
89	0x3d8ecad7	0.069722824
90	0x3de0b509	0.1097203
91	0xbe22057f	-0.15822409
92	0xbd4ccc7c	-0.0499997
93	0xbdc6ffad	-0.09716735
94	0x3da1d80a	0.07902534
95	0x3e2c1b53	0.16807298
96	0x3dcd8155	0.10034434
97	0x3c6f4224	0.0146031715
98	0x3db332e2	0.087499395
99	0xbd1f432e	-0.038882427
100	0x3dbaa981	0.091143616
101	0x3d89df67	0.06732064
102	0x3d8618b5	0.06547681
103	0xbe425044	-0.18975931
104	0xbcc8fb09	-0.024533765
105	0x3dee6137	0.11639636
106	0x3d9a6cea	0.07540305
107	0xbe23d148	-0.15997803
108	0xbd912bdc	-0.07088444
109	0x3e98cfe7	0.29846117
110	0xbda4401c	-0.080200404
111	0xbc1acb43	-0.009447875
112	0xbc72f547	-0.0148289865
113	0xbe2b1ad6	-0.16709456
114	0xbdb75852	-0.08952393
115	0x3d19fd7a	0.03759525
116	0x3d1edd20	0.0387851
117	0xbe6bea38	-0.23038566
118	0xbe328eb3	-0.17437248
119	0xbe2a63b3	-0.16639595
120	0x3d370768	0.044684798
121	0x3db0bc30	0.08629644
122	0xbdf2826d	-0.11841283
123	0x3d9cdbcc	0.076591104
124	0x3cc2872e	0.0237461
125	0x3c80ca48	0.015721455
126	0xbd17cece	-0.03706246
127	0x3de39aa0	0.11113477
128	0xbe0d091e	-0.13773009
129	0x3c79be13	0.015243071
130	0x3dd3337e	0.10312556
131	0x3c3af1f6	0.011410227
132	0xbc9cd066	-0.01914234
133	0x3d746c41	0.05967355
134	0x3d869155	0.06570689
135	0x3bad0960	0.0052806586
136	0x3e4ecefc	0.20196146
137	0x3e2b1310	0.1670649
138	0x3e8e2e9e	0.2776994
139	0x3c44beac	0.01200835
140	0xbdca6d83	-0.09884169
141	0x3def9c91	0.116997845
142	0x3e2ad47c	0.16682619
143	0x3c3a1d70	0.0113595575
144	0x3e15ac54	0.14616519
145	0xbe3bd589	-0.18343176
146	0x3ed08870	0.40729094
147	0x3da50350	0.080572724
148	0xbde31715	-0.11088387
149	0x3e02b307	0.12763606
150	0xbdf991c2	-0.12186004
151	0xbd22b633	-0.03972454
152	0xbdcc8c62	-0.099877134
153	0x3ce7c3e1	0.028291645
154	0x3bbbf488	0.0057359375
155	0x3e2ae9bb	0.16690724
156	0x3cd27f52	0.025695477
157	0xbe0bff21	-0.13671543
158	0x3e2aa200	0.1666336
159	0xbe84e8fa	-0.25958997
160	0x3c3f034e	0.011658503
161	0x3e7713a2	0.24128583
162	0x3dc41855	0.095749535
163	0x3e33aa2b	0.17545383
164	0xbcfba33a	-0.03071748
165	0x3ab429d9	0.0013745382
166	0x3d9a9c7f	0.075493805
167	0xbe2949c9	-0.16532053
168	0x3bfb4ff5	0.0076694437
169	0x3def2c3f	0.11678361
170	0xbdaf026c	-0.08545384
171	0x3e56fd65	0.209951
172	0xbe8a8d33	-0.2706085
173	0x3cec857e	0.028872248
174	0x3c7250dc	0.014789786
175	0x3cf47fdf	0.02984613
176	0xbe14a372	-0.14515474
177	0x3cd28321	0.025697293
178	0x3c42ea40	0.01189667
179	0xbe3f18f5	-0.18661864
180	0x3e2b5c41	0.16734411
181	0x3dd110bc	0.1020827
182	0x3d4ee0ff	0.05050754
183	0xbd52eb26	-0.051493786
184	0x3eb980b7	0.36231014
185	0x3c3ed0ab	0.01164643
186	0x3e72b88e	0.23703215
187	0xbbe5d460	-0.0070138425
188	0x3d10c0af	0.035340007
189	0xbe5dc387	-0.21656619
190	0xbd6b8dd6	-0.057508312
191	0x3d829075	0.06375209
192	0x3e99e488	0.30057168
193	0xbdb0ecea	-0.08638938
194	0x3d990baa	0.07472928
195	0xbc00e8dc	-0.007868018
196	0xbd2a4c88	-0.041576892
197	0xbdf6bf01	-0.1204815
198	0xbe069310	-0.13142037
199	0xbd851a1f	-0.06499123
200	0xbdb063c0	-0.08612776
201	0x3d4b71e6	0.04966917
202	0x3d05c293	0.032656264
203	0x3da2bb08	0.0794583
204	0xbc9d9301	-0.019235136
205	0xbd89215e	-0.066958174
206	0xbd7aef38	-0.061263293
207	0x3d8fccd5	0.070214905
208	0x3def8d3b	0.116968594
209	0x3da0a209	0.07843406
210	0x3e5e534a	0.2171146
211	0xbd9612ce	-0.073278055
212	0xbd7a28ea	-0.061074175
213	0x3d9b0ae0	0.075704336
214	0x3d0c38c4	0.034233823
215	0x3e13edd9	0.144462
216	0xbd79733b	-0.060900908
217	0x3c67333b	0.014111335
218	0x3dc3c3e1	0.09558845
219	0xbb4b27a5	-0.0030998972
220	0x3e39686d	0.18106242
221	0xbd4f4b0e	-0.050608687
222	0x3cc3fdf9	0.023924815
223	0xbdc02aba	-0.093831494
224	0x3b57a6b7	0.0032905766
225	0x3dabb476	0.083840296
226	0x3c7843f4	0.01515292
227	0xbd4c9561	-0.049947146
228	0xbcbe442f	-0.023225872
229	0x3d4362fa	0.047701813
230	0x3d36b38f	0.044604834
231	0x3d19f47b	0.03758667
232	0xbe2798ba	-0.16366854
233	0x3da4a9aa	0.08040173
234	0x3d555dc1	0.052091364
235	0x3e4b1d3b	0.1983537
236	0x3c2568ac	0.0100957565
237	0x3d2cb994	0.04216917
238	0xbd6377fe	-0.055534355
239	0x3d49c61f	0.04926121
240	0x3d6029f9	0.05472753
241	0x3da3b067	0.079926305
242	0xbc669880	-0.014074445
243	0xbdf8c9ad	-0.121478416
244	0xbe19cb86	-0.15019044
245	0x3e11ce01	0.1423874
246	0xbcbc130c	-0.022958301
247	0xbd8bf508	-0.068338454
248	0xbd9c1071	-0.076203234
249	0x3e4355d7	0.19075714
250	0x3d9ca17b	0.076479875
251	0xbd1763a7	-0.03696027
252	0xbe256ba1	-0.16154338
253	0xbdd3753e	-0.103250965
254	0x3dece692	0.11567415
255	0xbc695d0f	-0.014243378

lstm.bias_ih_l0 f4 [200]
0	0x3d98f953	0.0746943
1	0xbb810b75	-0.0039381334
2	0x3e559605	0.20858009
3	0x3d7ad98f	0.061242636
4	0x3d3e060f	0.046392497
5	0xbcddee8d	-0.027091289
6	0x3d0e3b34	0.03472443
7	0xbe08fa89	-0.13376822
8	0xbcb66e9d	-0.022269541
9	0xbd18a3b7	-0.037265506
10	0x3e5b548f	0.21418975
11	0xbdfb9ffd	-0.12286375
12	0x3e7c542f	0.24641488
13	0x3dcb536e	0.09928022
14	0x3c9d4285	0.019196758
15	0xbdf25cfc	-0.118341416
16	0xbdcca5d6	-0.09992568
17	0xbc5f8a65	-0.013643836
18	0xbde77944	-0.113024265
19	0xbd7eac0b	-0.06217579
20	0x3e2a35c4	0.16622072
21	0x3ae53b85	0.0017489052
22	0xbdd4e6fb	-0.103956185
23	0x3d2985ab	0.04138724
24	0x3e0daf61	0.13836433
25	0x3d47d37a	0.048785664
26	0xbe16aeb7	-0.14715086
27	0x3dd8ea43	0.10591557
28	0xbd48d4a9	-0.049030934
29	0xbdb1a70f	-0.08674442
30	0x3d9f169b	0.077679835
31	0x3d9b7195	0.075900234
32	0xbe0ca91b	-0.13736384
33	0x3dcc01b6	0.09961264
34	0x3c2965ba	0.010339195
35	0x3e01343e	0.12617585
36	0x3d80c493	0.062874936
37	0xbda8f85a	-0.08250494
38	0x3d54372c	0.05181043
39	0x3e882050	0.26587152
40	0x3de9dfe8	0.1141966
41	0x3e2e52e0	0.17023802
42	0x3dc2066a	0.0947388
43	0xbd23e299	-0.040011022
44	0x3c482f71	0.012218342
45	0x3dcdb392	0.10044016
46	0x3bc1095d	0.005891009
47	0xbcd9179a	-0.026500512
48	0x3e1d1c28	0.15342772
49	0x3d8bd596	0.06827848
50	0x3db07c35	0.086174406
51	0xbd4b2f60	-0.049605727
52	0xbdeab561	-0.114603765
53	0xbd9f41f6	-0.07776253
54	0xbd9d9170	-0.076937556
55	0xbdf5a921	-0.119951494
56	0xbd68a054	-0.056793526
57	0xbd455194	-0.048173502
58	0xbdb6a6ad	-0.0891851
59	0x3d98fdc2	0.074702755
60	0xbe01df68	-0.12682879
61	0x3d8f3ecb	0.06994399
62	0xbe98f212	-0.29872185
63	0xbd8d1b8d	-0.068900205
64	0xbdf6c8c3	-0.12050011
65	0x3d135a78	0.03597495
66	0x3d2e318b	0.042527717
67	0xbe113052	-0.14178589
68	0x3e1b7ab0	0.1518352
69	0x3dd41c57	0.10356968
70	0xbc372b10	-0.0111797005
71	0x3d233f6e	0.039855413
72	0x3d2526d8	0.040320247
73	0x3d883cc9	0.06652219
74	0xbe075a7b	-0.1321811
75	0x3dfb010c	0.12256059
76	0xbc720333	-0.014771271
77	0xbdebf583	-0.11521437
78	0xbc3f11e0	-0.011661977
79	0xbd353e9c	-0.044249162
80	0x3b6de8d6	0.003630211
81	0xbe281f75	-0.1641825
82	0xbd9e4caf	-0.0772947
83	0xbdb91562	-0.090372816
84	0xbbab7fce	-0.0052337414
85	0xbe5de7ef	-0.21670507
86	0xbd204c4e	-0.03913527
87	0xbdfb4eb3	-0.1227087
88	0xbe6ebca8	-0.23314154
89	0xbe1a193b	-0.15048687
90	0x3d1dd4fe	0.038533203
91	0xbe1d0c8a	-0.15336815
92	0x3de37d52	0.11107887
93	0x3e1f1a54	0.15537387
94	0xbb93c777	-0.004509862
95	0xbd205a7f	-0.039148804
96	0xbdc80066	-0.09765701
97	0xbc96daea	-0.018414933
98	0xbe142c05	-0.14469917
99	0xbdf7e0ce	-0.12103425
100	0x3d5eb56a	0.05437223
101	0x3dd06d89	0.10177142
102	0xbc485955	-0.01222833
103	0xbd8e9df9	-0.06963725
104	0x3d73103e	0.05934166
105	0xbe1f8f47	-0.15582
106	0x3d83e637	0.06440394
107	0x3dea4d39	0.1144051
108	0xbd0398ce	-0.032128148
109	0xbd18f0c4	-0.037338987
110	0xbd4db0c1	-0.050217394
111	0xbd040572	-0.032231756
112	0xbcbd5b1b	-0.023114732
113	0x3d1c2903	0.03812505
114	0xbb0075a7	-0.0019601376
115	0xbdc5a366	-0.096503064
116	0x3e1b1781	0.15145685
117	0xbdd2e5ad	-0.102977134
118	0x3d757cee	0.059933595
119	0x3c95c665	0.018283078
120	0x3c0742e0	0.00825569
121	0x3d59114e	0.05299502
122	0x3ca9126f	0.020638673
123	0x3bf22a4a	0.007390295
124	0xbdf63997	-0.12022703
125	0xbd88fbdb	-0.066886626
126	0xbd4e6bc1	-0.05039573
127	0xbc24ad2c	-0.010051053
128	0xbd870b9e	-0.06594013
129	0xbe0369b5	-0.12833293
130	0xbd938e6e	-0.07204901
131	0x3c90adb4	0.017660953
132	0x3c85ede3	0.016348785
133	0x3e0d4216	0.13794741
134	0x3d3f6f73	0.046737146
135	0x3e28777d	0.16451831
136	0x3e1391cb	0.14411084
137	0x3d1f3ea3	0.038878094
138	0x3dd4c591	0.10389245
139	0xbd9ffbf8	-0.07811731
140	0x3dbcf684	0.092267066
141	0xbd4d921c	-0.05018817
142	0x3d93d93c	0.072191685
143	0xbc77cec8	-0.015124984
144	0x3dbc918a	0.09207447
145	0xbdbc5227	-0.09195357
146	0x3dbfd44e	0.09366666
147	0x3d197325	0.037463326
148	0xbda8c7a3	-0.08241203
149	0xbd0c1ff8	-0.034210175
150	0xbbc82462	-0.006107853
151	0xbddc060c	-0.10743341
152	0x3e0fa78a	0.14028755
153	0x3e56bad7	0.20969711
154	0x3de5b33f	0.11215829
155	0xbe0def0a	-0.13860717
156	0xbcc04a9e	-0.02347308
157	0x3c4595d3	0.012059647
158	0x3d7c5f3d	0.061614264
159	0x3df8491c	0.121233195
160	0x3d9b7a22	0.07591654
161	0xbdc71750	-0.097212434
162	0x3e563013	0.20916776
163	0xbda90310	-0.08252537
164	0x3c5bdb46	0.013418978
165	0xbe1a00d7	-0.15039383
166	0xbdbcbb43	-0.09215405
167	0x3e194f90	0.14971757
168	0x3df03b50	0.11730063
169	0x3e0d6ca2	0.13810971
170	0xbd1b734a	-0.037951745
171	0xbd73c408	-0.05951312
172	0x3cf35bbb	0.029706826
173	0xbdd45163	-0.10367086
174	0x3d2f77c4	0.042838827
175	0x3c46ff0b	0.012145768
176	0x3cfb1cc5	0.030653367
177	0xbd9f6969	-0.07783777
178	0x3d55249f	0.052036878
179	0xbdc34898	-0.095353305
180	0x3df4bcea	0.11950095
181	0xbda98d16	-0.08278863
182	0x3dd9a184	0.1062651
183	0x3e3854e5	0.18001135
184	0xbb0fd34f	-0.0021946018
185	0x3e25d53b	0.16194622
186	0xbc908bfe	-0.017644878
187	0x3df4f290	0.119603276
188	0x3e36d6ec	0.17855424
189	0x3d963374	0.07334033
190	0x3e0da521	0.13832523
191	0xbd678ef6	-0.056532823
192	0x3e0ad6fa	0.1355857
193	0xbd622d30	-0.055218875
194	0xbdd2c9fa	-0.1029243
195	0xbd60bcf2	-0.054867692
196	0xbca2d04d	-0.019874716
197	0x3d191861	0.037376765
198	0x3d499a30	0.04921931
199	0x3dfe1a29	0.124073334

lstm.bias_hh_l0 f4 [200]
0	0xbcb343c2	-0.021882895
1	0xbd9e2dd4	-0.07723585
2	0x3eaa4f79	0.33263758
3	0x3e33a79b	0.17544405
4	0x3c5f43b1	0.013626979
5	0xbcde5095	-0.027138034
6	0xbda1077b	-0.07862755
7	0xbce0964f	-0.027415423
8	0xbd26a18f	-0.040681418
9	0xbdcaf070	-0.09909141
10	0x3e66e832	0.22549513
11	0xbdd72fb9	-0.10507149
12	0x3e45113a	0.19244853
13	0x3e0a1388	0.13484013
14	0xbe0d38a2	-0.13791135
15	0xbd84cd9b	-0.06484529
16	0x3c7ccef4	0.015430201
17	0x3d0c8581	0.034307007
18	0x3d4e542f	0.050373252
19	0xbcadbd43	-0.021208411
20	0xbd5da3a8	-0.054111153
21	0x3c96e72a	0.018420774
22	0x3dcba315	0.09943215
23	0x3dc5b5e0	0.096538305
24	0x3d52877e	0.051398747
25	0xbe193829	-0.1496283
26	0xbdb837da	-0.08995028
27	0xbd81d840	-0.063400745
28	0xbd03d8b8	-0.0321891
29	0x3dffd58d	0.124919035
30	0xbcf57c65	-0.029966542
31	0x3ce5b842	0.028041963
32	0x3d2cd2dd	0.042193282
33	0x3e0ee7e5	0.13955648
34	0x3db2886e	0.08717428
35	0x3de0884b	0.10963496
36	0x3e0fe586	0.140524
37	0x3c68010f	0.014160409
38	0x3e5bf273	0.21479206
39	0x3e9fd6c5	0.31218544
40	0x3e2a5e75	0.16637595
41	0xbd89cf73	-0.06729021
42	0x3cb939be	0.022610541
43	0x3d50d86f	0.050987657
44	0xbcc602f1	-0.024171324
45	0x3db7b0c6	0.08969264
46	0x3e3b6438	0.18299949
47	0xbe027bfb	-0.12742607
48	0x3e23714f	0.15961193
49	0xbd0e344f	-0.034717854
50	0xbd82994b	-0.063768946
51	0x3e0385b7	0.12843977
52	0xbc01c090	-0.007919446
53	0xbe45a199	-0.19299926
54	0xbd2b41eb	-0.04181091
55	0xbc76611e	-0.015037803
56	0x3cf312c5	0.029672036
57	0x3cb81754	0.022472061
58	0xbe11e7e5	-0.14248617
59	0x3d79dbd9	0.06100068
60	0xbe095578	-0.1341151
61	0xbdd241f8	-0.10266489
62	0xbeb70f2a	-0.35753757
63	0x3cbb22f4	0.022843815
64	0x3d5e76d3	0.05431254
65	0xbddf4af9	-0.10902972
66	0x3d75f259	0.060045574
67	0x39ab5c47	0.00032684414
68	0x3daab197	0.08334654
69	0xbc330a74	-0.010927785
70	0xbe1d3a0f	-0.15354179
71	0xbdca12fa	-0.09866901
72	0x3da19e39	0.07891507
73	0x3b694a03	0.0035597093
74	0xbe1500cc	-0.14551085
75	0x3e070a94	0.13187629
76	0xbcc74f36	-0.024329763
77	0x3d160c19	0.03663263
78	0x3d9476c1	0.07249213
79	0xbcbe1bef	-0.02320668
80	0x3d75c4de	0.0600022
81	0xbe51a8f1	-0.20474602
82	0x3da6d0b5	0.081452765
83	0x3dccfa2e	0.100086555
84	0xbd04c940	-0.03241849
85	0xbe816089	-0.25268963
86	0xbc8a4cc3	-0.016882306
87	0x3db9f078	0.09079069
88	0xbe0aa511	-0.1353953
89	0xbe29a5e4	-0.16567189
90	0xbb6c0cc8	-0.003601836
91	0x3d8feae1	0.070272215
92	0xbdd26069	-0.10272295
93	0xbd4f7cfd	-0.050656307
94	0xbd6d1881	-0.057884697
95	0x3e0c8915	0.13724168
96	0xbd64bdff	-0.055845257
97	0x3c87d6ed	0.016581977
98	0xbded7a25	-0.11595563
99	0xbdbef8cf	-0.093248
100	0xbda6ad04	-0.08138469
101	0xbe1214ab	-0.14265697
102	0xbd89d162	-0.0672939
103	0x3db2ce1a	0.08730717
104	0xbdb6ae32	-0.08919944
105	0xbdc59323	-0.09647205
106	0xbe016383	-0.12635617
107	0x3d286ab5	0.04111739
108	0xbdb3c66c	-0.0877808
109	0x3d5933ea	0.053028025
110	0xbb612e88	-0.003436001
111	0x3dd2182a	0.10258515
112	0xbd8e9dbc	-0.06963679
113	0xbd541244	-0.051775232
114	0x3dac6677	0.08417981
115	0x3e116a8f	0.14200805
116	0x3d0bde9a	0.034147836
117	0xbc67b71c	-0.014142778
118	0xbdc2d796	-0.09513776
119	0xbdd7d578	-0.10538763
120	0x3d943732	0.0723709
121	0x3e06e2ed	0.13172503
122	0xbdc678a3	-0.096909784
123	0x3dda8699	0.10670204
124	0x3ca0a3d3	0.019609367
125	0xbda3d27c	-0.07999131
126	0xbd97d508	-0.07413679
127	0x3dbe05f3	0.092784785
128	0xbca81af5	-0.020520667
129	0x3d14269a	0.036169626
130	0xbd8a6e97	-0.067593746
131	0xbdbfa15c	-0.09356949
132	0xbdc4c416	-0.09607713
133	0xbd7a9d3f	-0.061185118
134	0x3d54979b	0.051902395
135	0xbd41729f	-0.04722845
136	0x3c827414	0.015924491
137	0x3d983b69	0.074332066
138	0xbb8c449d	-0.0042806403
139	0xbd524ce7	-0.05134287
140	0xbd5a5770	-0.053306043
141	0x3de37763	0.111067556
142	0x3caa7e6b	0.020812234
143	0xbd109b60	-0.035304427
144	0x3dff3e4a	0.124630526
145	0xbdcf46d3	-0.101209305
146	0x3de9c0b3	0.114137076
147	0x3dfdf854	0.124008805
148	0xbd38e8c9	-0.045143876
149	0xbd69e353	-0.05710156
150	0x3dd2365f	0.10264277
151	0xbdd0a3a4	-0.10187462
152	0x3df00cfb	0.11721226
153	0x3e31f57a	0.17378798
154	0x3dbeccb6	0.09316389
155	0xbe1db198	-0.15399778
156	0xbd4cfb6b	-0.05004446
157	0xbd96cefa	-0.073636964
158	0xbdc2e7da	-0.095168784
159	0xbd2312d2	-0.03981287
160	0x3e8a8862	0.27057177
161	0x3b91a7e5	0.0044450634
162	0x3ebd4062	0.36963183
163	0x3da20be8	0.07912427
164	0x3d8adf19	0.06780834
165	0xbd5a7607	-0.053335216
166	0xbc83b0e9	-0.016075568
167	0x3d7a1b63	0.061061274
168	0xbc90a682	-0.017657522
169	0xbdc064b7	-0.0939421
170	0x3e082d90	0.1329863
171	0x3d3676da	0.04454694
172	0x3d3a560b	0.045492213
173	0xbca04a90	-0.019566804
174	0x3e6e1d09	0.23253264
175	0xbd741f28	-0.059600025
176	0xbdccf204	-0.10007098
177	0x3c8d1769	0.017223077
178	0x3df08134	0.117433935
179	0xbd1fa672	-0.038977094
180	0x3e4fed50	0.20305371
181	0xbd012588	-0.031529933
182	0x3c0f0a3d	0.008730468
183	0x3e445614	0.19173461
184	0x3d799d0b	0.060940783
185	0x3e364a90	0.17801881
186	0xbc466cab	-0.012110869
187	0x3c560346	0.013062304
188	0x3e0d4c9f	0.1379876
189	0x3d2e8411	0.042606417
190	0x3e17429a	0.147715
191	0x3cad14a4	0.021128006
192	0xbdf5b685	-0.119977035
193	0xbd6b84c4	-0.057499662
194	0x3dfe9c19	0.12432117
195	0x3d5755e9	0.052572165
196	0x3e0bf253	0.13666658
197	0xbd0671bd	-0.032823313
198	0x3d618c1c	0.05506526
199	0xbda8888e	-0.08229171

lstm.weight_ih_l1 f4 [200, 50]
0	0x3d4c3d08	0.04986289
1	0xbddeac38	-0.10872692
2	0x3d3b8320	0.045779347
3	0xbde1b415	-0.11020676
4	0xbc9b44db	-0.018953731
5	0x3e03eba1	0.12882854
6	0x3dfc1f1a	0.1231062
7	0xbd5dd345	-0.05415656
8	0xbe04b876	-0.12960991
9	0xbd1cd5bf	-0.03828978
10	0x3e024083	0.12719922
11	0x3cf97c25	0.030454705
12	0x3e09bc9c	0.13450855
13	0x3da91400	0.08255768
14	0x3df8a4ab	0.12140783
15	0x3df7a2f9	0.120916314
16	0xba59d031	-0.0008308916
17	0xbe13210d	-0.14368077
18	0x3c960a6f	0.018315522
19	0x3ceeba4d	0.02914157
20	0x3d8e9e6c	0.0696381
21	0xbcb75d48	-0.022383347
22	0x3d620b51	0.055186573
23	0xbe1572de	-0.145946
24	0x3d7521bc	0.059846625
25	0xbc9a107c	-0.018806688
26	0x3df6ed1d	0.120569445
27	0x3a8a0241	0.0010529236
28	0x3e05f190	0.1308043
29	0xbe3f44b3	-0.1867855
30	0xbc26bfb0	-0.010177538
31	0xbde204be	-0.11036061
32	0xbdeec085	-0.11657814
33	0x3d1be5ee	0.038061075
34	0xbd458966	-0.048226736
35	0x3dd87385	0.105689086
36	0xbdd2e6ff	-0.10297965
37	0xbde3adb6	-0.11117117
38	0xbc531694	-0.012883801
39	0xbd8a5a26	-0.06755476
40	0x3c959bb4	0.018262722
41	0x3e054a12	0.13016537
42	0xbd4c705d	-0.049911845
43	0x3c363f4e	0.011123491
44	0xbb9a60e0	-0.0047112554
45	0xbd080a0a	-0.0332127
46	0x3e2cdc90	0.16881013
47	0x3e06792a	0.13132158
48	0x3c3a3f1c	0.0113675855
49	0x3da197a6	0.07890253
50	0x3c1ea8f2	0.009683834
51	0x3d1f68ec	0.03891842
52	0x3d3d5863	0.04622687
53	0xbe08a889	-0.13345541
54	0xbe131ea4	-0.14367157
55	0x3e0c6ece	0.13714144
56	0xbdec4ea3	-0.11538436
57	0xbd895a13	-0.067066334
58	0xbe977a47	-0.29585478
59	0x3de881e4	0.113529
60	0xbe3a8455	-0.18214543
61	0xbe0ef374	-0.13960057
62	0xbe2bf72e	-0.1679351
63	0xbe03e411	-0.12879969
64	0xbda11d6d	-0.07866941
65	0xbe32393a	-0.17404643
66	0xbd0745e5	-0.03302564
67	0xbe00fd5a	-0.12596646
68	0xbdd4388d	-0.10362349
69	0x3cf73f84	0.030181654
70	0x3e17433b	0.1477174
71	0x3e179fec	0.14807099
72	0xbe320513	-0.17384748
73	0x3c3a7d61	0.011382432
74	0x3dd9f0c7	0.10641628
75	0xbe3f4d17	-0.18681751
76	0xbdbb76c9	-0.09153516
77	0xbe4472f1	-0.19184472
78	0xbe7195ab	-0.2359225
79	0x3cb2fc8c	0.02184894
80	0x3dc7ee10	0.09762204
81	0x3e8e5190	0.27796602
82	0x3e0996d9	0.1343645
83	0xbe864fff	-0.26232907
84	0xbd886110	-0.06659138
85	0x3dce1af7	0.10063737
86	0x3e8584d6	0.26077908
87	0x3e8b8951	0.27253202
88	0x3e63b7b0	0.2223804
89	0xbbdd8646	-0.0067603914
90	0xbd437edf	-0.047728416
91	0xbdb40e27	-0.08791762
92	0x3d1368dc	0.035988674
93	0x3d0348ee	0.032051973
94	0xbe660742	-0.22463706
95	0xbe1fc1ec	-0.15601319
96	0x3e0cfb40	0.1376772
97	0x3e2bc013	0.16772489
98	0xbb0b4078	-0.0021248143
99	0xbe018631	-0.12648846
100	0xbb9dac21	-0.004811779
101	0x3d6eff9a	0.05834923
102	0x3d897109	0.06711013
103	0x3d7b4b4f	0.061351117
104	0x3d1d5d29	0.038418923
105	0xbc9bb7a3	-0.019008463
106	0x3c70cb70	0.014696941
107	0x3d081aa0	0.033228517
108	0x3d282235	0.041048247
109	0x3e1b045d	0.15138383
110	0x3dbcce45	0.0921903
111	0x3da80e55	0.082058586
112	0x3dff566c	0.124676555
113	0xbc90efbd	-0.017692441
114	0x3c673ed5	0.014114101
115	0xbd47128e	-0.04860168
116	0x3d1cd6c5	0.038290758
117	0xbdbb6901	-0.09150887
118	0x3d63a048	0.055572778
119	0x3d566498	0.052342027
120	0x3dadcece	0.084867105
121	0x3d93e776	0.07221882
122	0xbe121324	-0.14265114
123	0xbe0c1fa6	-0.13683948
124	0x3dc1afc9	0.094573565
125	0xbda1fdbe	-0.079097256
126	0x3ca3fa51	0.020016821
127	0x3cadb3aa	0.021203835
128	0xbc92b61e	-0.017909106
129	0xbe05be92	-0.13060978
130	0x3ceb9d18	0.028761432
131	0xbde18b3d	-0.11012886
132	0x3b188e81	0.0023278298
133	0x3d9ead47	0.07747894
134	0x3d78ac3c	0.06071113
135	0xbdd5fab1	-0.10448206
136	0xbc1e0ae0	-0.0096461475
137	0xb9e9303b	-0.00044477158
138	0xbd9373f1	-0.071998484
139	0x3e161dd2	0.14659813
140	0xbe0a12be	-0.13483712
141	0x3e3ebbf3	0.18626384
142	0x3e0620fa	0.13098517
143	0x3c9f8925	0.019474575
144	0x3d97d0bb	0.07412859
145	0x3dc86da2	0.09786536
146	0x3e46b98e	0.19406721
147	0xbdb13013	-0.086517476
148	0x3dc0c865	0.09413222
149	0xbbc7eed9	-0.006101471
150	0x3db26ee4	0.08712557
151	0xbdd24dd1	-0.102687486
152	0x3b93a611	0.0045058806
153	0x3d67f94a	0.056634225
154	0x3c8a0aa8	0.016850784
155	0x3b37b3b3	0.0028030693
156	0xbe511719	-0.20418967
157	0x3e2f3674	0.17110616
158	0xbc7a8df1	-0.0152926305
159	0x3cb48e5d	0.02204054
160	0x3db1ea3c	0.08687255
161	0xbca5e525	-0.020250866
162	0xbe8bdffa	-0.27319318
163	0x3befe7d6	0.007321338
164	0xbe0b2865	-0.13589628
165	0xbe4496eb	-0.19198196
166	0xbd228460	-0.039677024
167	0xbe942b41	-0.2893925
168	0xbda0b967	-0.07847863
169	0xbe0a8246	-0.13526258
170	0x3e84142a	0.25796634
171	0x3caf853c	0.021425836
172	0x3ddce703	0.107862495
173	0xbe087609	-0.13326277
174	0x3cf4c7b2	0.029880378
175	0xbe123451	-0.1427777
176	0xbe474a30	-0.19461894
177	0x3d81bed6	0.06335227
178	0xbe0ffa79	-0.14060391
179	0xbc79ac25	-0.015238796
180	0xbe2ca7fb	-0.16860954
181	0x3dc96cf9	0.09835238
182	0x3d9c9e4d	0.07647381
183	0xbe4297ff	-0.19003294
184	0x3d7044aa	0.058659233
185	0xbdb82ccd	-0.0899292
186	0x3e8c68f1	0.27423814
187	0x3c4408ce	0.01196499
188	0xbd25e73b	-0.04050372
189	0xbd4c9a1c	-0.049951658
190	0xbba75b6d	-0.0051073343
191	0xbd679ea7	-0.056547787
192	0x3b4d8e93	0.0031365498
193	0xbca4e171	-0.02012703
194	0xbd1b8087	-0.03796437
195	0x3ca3351d	0.019922787
196	0x3ddf9710	0.10917485
197	0x3d6bf94b	0.05761079
198	0xbdb89f57	-0.09014767
199	0xbe0eeab6	-0.13956723
200	0x3de3d7f7	0.111251764
201	0x3e0216c4	0.12703997
202	0x3e2ad208	0.16681683
203	0xbcc5cd20	-0.024145663
204	0x3d5a2ad2	0.053263493
205	0xbd1f411d	-0.038880456
206	0xba399d24	-0.0007080606
207	0x3de3bbe3	0.11119821
208	0xbdb33d6d	-0.087519504
209	0x3d47892b	0.048714798
210	0x3db83566	0.0899456
211	0x3db7a9cb	0.08967932
212	0x3d2866f7	0.04111382
213	0x3dc63fb1	0.09680117
214	0x3c9489fb	0.0181322
215	0xbdbe67ec	-0.09297165
216	0x3d00bfff	0.0314331
217	0xbe1c50d4	-0.15265208
218	0xbc0fb9ed	-0.0087723555
219	0xbc06b5a2	-0.008222016
220	0x3d364f39	0.044509146
221	0xbda98945	-0.08278135
222	0x3d429e67	0.047514345
223	0xbda45186	-0.08023362
224	0xbdde4b8c	-0.10854253
225	0xbd2b59f0	-0.041833818
226	0xbc57d499	-0.013173246
227	0xbcf271ab	-0.029595217
228	0x3cdbcfc9	0.026832478
229	0xbd13379d	-0.03594171
230	0x3dd77c82	0.10521795
231	0x3cc7e9d3	0.024403488
232	0x3d938cec	0.07204613
233	0xbdf21222	-0.11819865
234	0x3e02c8dd	0.12771936
235	0x3e2a39aa	0.1662356
236	0xbd4b9857	-0.04970583
237	0x3e17b8c9	0.14816584
238	0x3d7fb930	0.062432468
239	0xbe19d275	-0.15021689
240	0xbdba5463	-0.09098127
241	0x3df61b65	0.12016944
242	0x3e2347f6	0.1594542
243	0xbc274402	-0.010209085
244	0xbba9f218	-0.0051863305
245	0x3d68a43f	0.056797262
246	0x3db9dc2e	0.09075199
247	0xbb89c39f	-0.004204228
248	0xbcb80e29	-0.02246769
249	0xbb46f1a1	-0.0030356424
250	0x3d7136c3	0.058890115
251	0xbd690fdf	-0.0568999
252	0xbe6746f6	-0.22585663
253	0x3d8cd790	0.06877053
254	0xbdb81913	-0.089891575
255	0x3e197439	0.14985742
