pol_models/carbon_monoxide_model_state.pt (torch, 650624 bytes, 16 tensors)

conv1.weight f4 [64, 300, 3]
0	0xbc084ab8	-0.008318596
1	0x3c2130b4	0.009838272
2	0xbd11e456	-0.03561815
3	0xbd0413f9	-0.03224561
4	0xbca8ec5a	-0.020620514
5	0x3a73f046	0.0009305518
6	0xbbf86231	-0.0075800647
7	0x3c9e92bf	0.019357083
8	0xbc265847	-0.010152883
9	0x3ae38553	0.0017358459
10	0xbc8d0ebb	-0.017218938
11	0xbc67fc47	-0.014159269
12	0xbd217eb3	-0.03942747
13	0xbcf125c5	-0.029436955
14	0xbcac397a	-0.0210235
15	0xbb973e16	-0.0046155555
16	0x3bed9139	0.007249978
17	0x3c66fe72	0.01409875
18	0xbcf24bef	-0.029577224
19	0xbcb27224	-0.021782942
20	0x3b948a2f	0.0045330743
21	0x3ca54b97	0.020177646
22	0xbc6a590b	-0.014303456
23	0x3c8d2b13	0.017232453
24	0xbc54eea0	-0.012996346
25	0xbb896ec7	-0.004194114
26	0x3cb35328	0.021890238
27	0xbd1dc2c1	-0.03851581
28	0xbcea5999	-0.028607177
29	0xbc8675e8	-0.016413644
30	0xbca28b08	-0.019841686
31	0x3cb1b38e	0.021692064
32	0xbceea145	-0.029129634
33	0xbcbdd65c	-0.023173504
34	0xbcfef530	-0.031122774
35	0xbd2056ff	-0.039145466
36	0xbccb0de0	-0.02478689
37	0x3cbeea1b	0.02330499
38	0x3c1d903d	0.009616909
39	0x3c2794b6	0.010228327
40	0xbb8da913	-0.0043231337
41	0xbcbee68d	-0.023303295
42	0xbabda5a0	-0.0014468916
43	0xbd1c39cd	-0.03814106
44	0xbcfe46ab	-0.031039556
45	0xbcc815da	-0.024424482
46	0x3c5e6fe6	0.013576483
47	0x3c407c9f	0.011748462
48	0xbcb5f1d6	-0.022210043
49	0xbc0f7ca3	-0.008757743
50	0x3c5c4942	0.0134452
51	0x3cdf29d6	0.027241629
52	0x3bef935a	0.007311267
53	0xbaad956f	-0.0013243387
54	0x3c6f6e7e	0.014613746
55	0xbce0bd98	-0.027434155
56	0xbaebc382	-0.0017987343
57	0xbd049280	-0.032366276
58	0xbcf41c64	-0.029798694
59	0xbcc5907b	-0.024116745
60	0x3bf7f24d	0.0075667263
61	0x3bbfea82	0.005856813
62	0xbce11d58	-0.027479813
63	0x3b43f66f	0.0029901525
64	0x3c3468a9	0.011011281
65	0xbc406ea5	-0.01174513
66	0xbbb22e9c	-0.005437685
67	0x3a65c7fa	0.00087654556
68	0x3c611430	0.013737723
69	0x3cc7d360	0.024392784
70	0xbd085526	-0.03328433
71	0xbca51c3f	-0.02015507
72	0x3bd20209	0.006408934
73	0x3cac6734	0.021045305
74	0x3cb8c1b4	0.022553302
75	0x3caf2beb	0.021383246
76	0xbabcfc01	-0.0014418365
77	0xbd191704	-0.037375465
78	0xbbb7d9f7	-0.0056107
79	0xbcf12894	-0.029438294
80	0xbd23561c	-0.039877042
81	0x3cb41fd1	0.021987827
82	0x3c90d1dd	0.017678196
83	0xbd29037c	-0.04126309
84	0xbac15dbe	-0.0014752669
85	0xbc5b8097	-0.013397357
86	0xbc5d1371	-0.013493405
87	0xbca9c0e7	-0.020721866
88	0x3bf13f92	0.0073623145
89	0xbccd5a8d	-0.025067592
90	0x3be12b7c	0.006871639
91	0x3c3c0990	0.011476889
92	0x3c9712ff	0.018441675
93	0x3b701e36	0.00366391
94	0xbd2b536c	-0.041827604
95	0xbcfa8889	-0.030582683
96	0x3c1702ba	0.009216959
97	0xba179825	-0.0005782864
98	0xbd0ac1de	-0.033876292
99	0xbcd88122	-0.026428763
100	0x3cc4e544	0.024035104
101	0x3c75d0cf	0.015003397
102	0xbcb0bcc9	-0.021574395
103	0xbc80d37f	-0.01572585
104	0xbd21e3cf	-0.039523896
105	0xbbe6d989	-0.007044975
106	0xbd01ca56	-0.031687103
107	0xbd051c1b	-0.032497507
108	0xbc1b3005	-0.009471898
109	0xbb28830a	-0.002571287
110	0xbcaf7ba4	-0.021421261
111	0x3c5c98d4	0.013464171
112	0xbcdbbd46	-0.026823651
113	0x3cbf17b3	0.02332673
114	0x3c8efdb7	0.017454965
115	0xbd095373	-0.03352685
116	0xbc5e3170	-0.0135615915
117	0xbb91ea16	-0.004452954
118	0xbaa4a603	-0.0012561682
119	0x3ad06c43	0.0015901405
120	0x3bac4a54	0.005257884
121	0xbbc0d597	-0.005884837
122	0xbcc803ac	-0.024415813
123	0x3c022719	0.007943892
124	0xbd230f85	-0.039809722
125	0xbce2c8d4	-0.027683653
126	0xbc84717b	-0.016167393
127	0xbcc5946d	-0.024118626
128	0xbca24e1a	-0.019812632
129	0xbd0937f3	-0.033500623
130	0xbc5b0184	-0.013367061
131	0x3a36df5f	0.0006976034
132	0xbce8dd79	-0.028425919
133	0xbc0c3521	-0.008557589
134	0x3c8a9c33	0.016920185
135	0xbc386133	-0.011253643
136	0xbbe29092	-0.006914207
137	0xbc2ef868	-0.010679342
138	0x396a045a	0.000223176
139	0x3c715e80	0.014732003
140	0x3cce503e	0.025184747
141	0x3c6354f6	0.013875237
142	0x3cc72a35	0.024312118
143	0xbc22ee0b	-0.009944449
144	0xbd14f69c	-0.036367998
145	0xbcb6bafd	-0.02230596
146	0x3c84b5bb	0.016199937
147	0xbbf675d9	-0.0075213728
148	0xbcc55c42	-0.024091844
149	0xbd094460	-0.033512473
150	0xbd1af4f4	-0.03783126
151	0xbd0eb16e	-0.03483718
152	0xbc5ef1c0	-0.013607442
153	0x3c27f623	0.010251555
154	0x3c22f35b	0.009945716
155	0xbd260a3c	-0.040537104
156	0x3c64463d	0.013932762
157	0xbd0740ad	-0.033020664
158	0xbc6643a8	-0.014054216
159	0xbca8b898	-0.020595834
160	0xbc6098c7	-0.0137083
161	0xbc66bae1	-0.014082641
162	0xbd1799c4	-0.037011877
163	0xbd1371b5	-0.03599711
164	0xbc4fe53f	-0.012688934
165	0xbbe3c8aa	-0.0069514113
166	0xbcba4418	-0.022737548
167	0x3b93607a	0.004497585
168	0xbd16ad08	-0.03678611
169	0xbc16fcea	-0.009215573
170	0x3cb42174	0.021988608
171	0xbcaaa624	-0.020831175
172	0x3cba969c	0.022776894
173	0x3b9735ee	0.004614583
174	0xbd192372	-0.03738732
175	0x3c5e451b	0.013566281
176	0xbc4194a5	-0.011815225
177	0xbcb96b90	-0.022634298
178	0x3c9a68bf	0.018848775
179	0xbd0ef8da	-0.034905292
180	0xbb7941de	-0.0038033645
181	0xbc6b3c8a	-0.014357695
182	0x3c8240fe	0.015900131
183	0x3ad9c99c	0.001661587
184	0x3c071feb	0.008247356
185	0x3b6f196e	0.0036483663
186	0xbc71b8d2	-0.014753537
187	0xbc643904	-0.013929609
188	0xbd0d7a50	-0.034540474
189	0x3c302b90	0.010752574
190	0x3c9b9a33	0.018994426
191	0x3c703794	0.014661688
192	0xbcf8eb28	-0.030385569
193	0xbbb45f9b	-0.005504561
194	0xbcfa9a74	-0.030591227
195	0xbcd3a061	-0.02583331
196	0xbcdd547c	-0.027017824
197	0x3b573e9f	0.0032843722
198	0xbce11866	-0.027477454
199	0xbc0861f7	-0.008324138
200	0xbbd6358f	-0.0065371464
201	0x3c665e1e	0.014060525
202	0xbd0597f6	-0.032615624
203	0xbcf94e1c	-0.030432753
204	0xbcd7bb67	-0.026334478
205	0x3c8433b7	0.01613794
206	0xbc9e8153	-0.019348776
207	0x3cb110c0	0.021614432
208	0x3bb889e6	0.005631673
209	0xbb0da70a	-0.0021614456
210	0xbbfb7f12	-0.00767506
211	0xbc658079	-0.014007681
212	0xbb5ca5a3	-0.0033668063
213	0xbc856fa8	-0.016288593
214	0xbc107d8f	-0.008818998
215	0xbb95622e	-0.004558823
216	0xbd090927	-0.033455994
217	0xbccd576c	-0.0250661
218	0x3c9a7ac7	0.018857373
219	0xbd0ba124	-0.034089223
220	0xbc1ef1b0	-0.0097011775
221	0x3cd03eb7	0.02542053
222	0x3bacbdc4	0.0052716453
223	0xbbbf1c5b	-0.0058322377
224	0xbd11c783	-0.03559066
225	0x3c1b9256	0.009495338
226	0xbcfc3ee0	-0.0307917
227	0xbc88fe15	-0.016722718
228	0xbc9ad06d	-0.018898213
229	0xbc50604b	-0.0127182705
230	0xbbfa75a8	-0.0076434202
231	0x3cb592c5	0.022164712
232	0xba9b9543	-0.0011870045
233	0x3cc984a4	0.02459938
234	0x3c5ba05c	0.013404932
235	0xbce7a1e9	-0.028275447
236	0x3bf67463	0.0075211986
237	0xbcfa3db1	-0.030546995
238	0xbcaf34b4	-0.021387435
239	0x3b137667	0.0022500993
240	0x3b83d5a3	0.00402327
241	0x3c92e8aa	0.017933208
242	0xbc948b03	-0.018132692
243	0xbbe4f213	-0.0069868653
244	0x3c20f6b2	0.009824442
245	0xbd23de69	-0.04000703
246	0x3c95e605	0.018298158
247	0xbd08a790	-0.033362925
248	0xbba85cb8	-0.005138006
249	0xbc445175	-0.0119823115
250	0xbcc5626a	-0.024094779
251	0xbb24b591	-0.0025132636
252	0x3cb2b25d	0.021813566
253	0xbc7d5a80	-0.015463471
254	0xbccfbf24	-0.025359698
255	0xbca6c2e8	-0.02035661

conv1.bias f4 [64]
0	0x3b884a37	0.0041592377
1	0x392462b4	0.00015677029
2	0xbc7184f8	-0.014741175
3	0xbbb67963	-0.0055686696
4	0xbd198385	-0.037478942
5	0x3c00a712	0.007852333
6	0xbc603efe	-0.0136868935
7	0x3c051dc1	0.00812477
8	0xbd771860	-0.06032598
9	0xbd345357	-0.04402479
10	0x3cc9ce41	0.024634482
11	0xbd7a4bbd	-0.061107386
12	0xbe8be0dc	-0.27319992
13	0xbe0e968e	-0.1392462
14	0xbd1def35	-0.038558204
15	0x3c3a223d	0.011360702
16	0xbb14e8d6	-0.002272179
17	0xbcb5feb7	-0.022216184
18	0xbdce6eb5	-0.100797094
19	0xbba8f563	-0.0051562055
20	0xbb1574bb	-0.0022805172
21	0xbd431586	-0.04762795
22	0xbcfb1a47	-0.030652178
23	0xbdc6329f	-0.09677624
24	0xba85f115	-0.0010218943
25	0xbcbbcb74	-0.022924162
26	0xbe0bb9a4	-0.13645035
27	0xbc4db665	-0.012555693
28	0xbd0b6bad	-0.034038235
29	0x3c52e94a	0.012873003
30	0xbe162a9a	-0.14664689
31	0xbe856083	-0.26050195
32	0x3c42a9ea	0.011881331
33	0xbd226008	-0.039642364
34	0x3a39dc49	0.0007090015
35	0xbcc06630	-0.023486227
36	0x3e7bcc44	0.2458964
37	0x3c8b57f8	0.01700972
38	0x3ec015a0	0.375165
39	0xbc9291bd	-0.017891759
40	0x3c0879fe	0.008329866
41	0xbe3dc066	-0.18530425
42	0x3ca3ed10	0.020010501
43	0xbd4e0e9a	-0.050306894
44	0x3d103896	0.035210215
45	0xbcba6891	-0.02275494
46	0xbe3decbb	-0.18547337
47	0xbcd83542	-0.026392583
48	0xbd0fbb54	-0.03509076
49	0xbe972301	-0.29518893
50	0xbd4f0723	-0.050543915
51	0xbce89d0f	-0.028395204
52	0x3c726b30	0.014796063
53	0xbcd0ae15	-0.025473634
54	0xbd25da51	-0.040491406
55	0xbd0871ec	-0.03331177
56	0xbbc9ec79	-0.006162223
57	0x3cc1c365	0.023652742
58	0x3c3d465d	0.01155242
59	0xbc59cc53	-0.013293344
60	0x3c9dd98b	0.019268772
61	0xbe690ad1	-0.22758032
62	0xbcd6bf58	-0.026214287
63	0xbc76d996	-0.015066525

conv2.weight f4 [128, 64, 3]
0	0xbd8664f2	-0.065622225
1	0x3c475824	0.01216701
2	0xbcd90209	-0.026490228
3	0x3c4d32c1	0.012524308
4	0x3ca8439f	0.020540057
5	0xbd7cd8d2	-0.061730213
6	0x3d5e793f	0.054314848
7	0xbd932938	-0.07185596
8	0xbd43e06a	-0.04782144
9	0xbd49fd85	-0.04931404
10	0xbc7b8850	-0.015352324
11	0x3c7d5dd0	0.015464261
12	0xbd6e6bb1	-0.05820817
13	0xbd36ad32	-0.044598766
14	0xbd37c74c	-0.0448678
15	0x3c54d388	0.012989886
16	0xbcb2731a	-0.0217834
17	0xbd028898	-0.031868547
18	0xbd433e7d	-0.047667015
19	0x3d0470a9	0.032334004
20	0xbb474c81	-0.003041059
21	0xbcc5ac90	-0.024130136
22	0xbc9b3263	-0.018944925
23	0x3c75c6b0	0.015000984
24	0x3c1999a9	0.009375014
25	0x3d26c798	0.04071769
26	0x3d03e7e2	0.032203563
27	0x3de649c4	0.112445384
28	0xbd05e075	-0.032684762
29	0xbdce4003	-0.10070803
30	0xbcb6fdb1	-0.022337766
31	0x3d480fe9	0.048843298
32	0x3cc771b1	0.024346204
33	0x3d96cdd3	0.073634766
34	0x3d1b65fd	0.03793906
35	0x3e7b0f5f	0.24517582
36	0xbd7bbd16	-0.061459623
37	0xbe40b72b	-0.18819873
38	0xbde6c521	-0.11268068
39	0xbd4f25bc	-0.050573096
40	0xbd36a91f	-0.04459488
41	0xbd92ba9c	-0.07164499
42	0xbc09c382	-0.008408429
43	0xbd9e6c5d	-0.077355124
44	0xbd06b19b	-0.03288422
45	0x3d869d4b	0.0657297
46	0xbd8b698b	-0.0680724
47	0x3c984a0f	0.018590001
48	0xbd3c0830	-0.045906246
49	0x3cd10ac1	0.025517823
50	0x3d844ef9	0.06460375
51	0xbd3535a5	-0.044240613
52	0xbd93e778	-0.072218835
53	0x3b5dc13b	0.0033837098
54	0x3d352e83	0.04423381
55	0x3d330c1c	0.04371272
56	0xbbe93049	-0.0071163517
57	0xbc563f19	-0.013076567
58	0xbda4651b	-0.08027097
59	0xbd7e60a5	-0.062103886
60	0x3d183035	0.03715535
61	0x3d7a29dd	0.06107508
62	0xbd6532ee	-0.055956773
63	0x3d3023e8	0.043002993
64	0x3c841bc7	0.016126527
65	0xbd7eb200	-0.062181473
66	0x3ceb7945	0.02874435
67	0x3c9cb875	0.019130925
68	0x3d081603	0.033224117
69	0x3b832328	0.0040019937
70	0x3e44f4ef	0.1923406
71	0x3e46dd24	0.19420296
72	0xbc92379c	-0.017848782
73	0xbda32156	-0.07965343
74	0xbd5d9a0b	-0.054101985
75	0x3b8c1691	0.004275151
76	0xbd2a0a82	-0.041513927
77	0xbd81e15d	-0.06341813
78	0x3cad47bc	0.02115237
79	0xbca6c1f0	-0.020356148
80	0xbd30307a	-0.04301498
81	0x3c19d5e0	0.009389371
82	0xbd449dbd	-0.048001993
83	0xbcabb2f1	-0.02095935
84	0xbd1b0902	-0.037850387
85	0x3d7cac2c	0.061687633
86	0x3d648db1	0.05579919
87	0xbd7efe8f	-0.062254485
88	0xbd8b31c3	-0.06796601
89	0xbd69ae51	-0.057051007
90	0x3cebac85	0.028768787
91	0x3d8bc9a7	0.068255715
92	0x3dcd2db7	0.10018485
93	0xbd6b4a04	-0.057443634
94	0xbdeea2eb	-0.11652168
95	0xbdade30f	-0.084905736
96	0x3bb69fcd	0.005573249
97	0xbd821315	-0.06351296
98	0xbd00ed69	-0.031476412
99	0xbda9b3ac	-0.08286223
100	0xbd49ce1d	-0.04926883
101	0xbd21e52c	-0.039525196
102	0x3ce8691e	0.028370436
103	0x3cbcdc8b	0.023054382
104	0xbc2522ec	-0.010079127
105	0xbd6b4651	-0.057440106
106	0x3bc3397b	0.00595778
107	0x3d5303c2	0.051517256
108	0xbcd7363f	-0.026270984
109	0xbd4b4d95	-0.049634535
110	0xbc97ce75	-0.018531064
111	0xbd865cea	-0.06560691
112	0x3d39b3df	0.045337554
113	0xbd9777c5	-0.07395891
114	0x3e104bba	0.14091387
115	0xbdd94f1c	-0.10610792
116	0xbe4b7dba	-0.1987218
117	0x3d3c9432	0.046039768
118	0x3d3f59a5	0.04671635
119	0xbd8a9972	-0.067675486
120	0xbc31c488	-0.010850079
121	0x3cbbb982	0.022915605
122	0xbd113714	-0.035452917
123	0xbd3a0852	-0.04541809
124	0xbd3ea5f0	-0.04654497
125	0xbd9d34d2	-0.0767609
126	0x3d810b27	0.06300955
127	0xbd841938	-0.064501226
128	0xbd17da6e	-0.037073545
129	0xbaf61e0c	-0.0018777265
130	0xba842c9c	-0.0010084095
131	0xbd4e4926	-0.05036273
132	0x3d289eef	0.041167196
133	0x3d1295df	0.03578746
134	0xbd75597a	-0.059899785
135	0x3bd2dc60	0.006434962
136	0xbd89ca38	-0.06728023
137	0x3d79f968	0.061028868
138	0x3c8bdd16	0.017073195
139	0xbd4ca12f	-0.049958404
140	0xbe7f7dc0	-0.24950314
141	0xbd63579c	-0.055503473
142	0x3c5c5a7c	0.0134493075
143	0x3d232ef7	0.03983971
144	0xbd8a5f2f	-0.06756436
145	0xbd49170c	-0.049094245
146	0xbd34ddeb	-0.04415695
147	0xbdd39a72	-0.103321925
148	0xbdcd7967	-0.10032921
149	0xbc073516	-0.008252403
150	0xbd139ed2	-0.036040135
151	0xbce42f04	-0.02785445
152	0xbd33be11	-0.043882433
153	0x3c8a3309	0.016870039
154	0xbd92248b	-0.07135876
155	0x3c80140d	0.015634561
156	0xbc6e880b	-0.014558802
157	0x3c117cd3	0.008879858
158	0x3d457926	0.04821124
159	0xbcd9382c	-0.026516043
160	0xbd89549e	-0.067055926
161	0xbd117fab	-0.035522144
162	0x3c9058bc	0.017620437
163	0x3cadc335	0.021211246
164	0x3d19f6d3	0.037588906
165	0xbcacae17	-0.021079106
166	0xbc6696f3	-0.014074075
167	0x3d2249e0	0.039621234
168	0x3d605148	0.054765016
169	0xbb0bbbe2	-0.0021321704
170	0x3c2198ba	0.009863073
171	0xbd97bd93	-0.07409205
172	0xb833110c	-4.26928e-05
173	0xbbfb45a3	-0.0076682135
174	0xbc1346c0	-0.008989036
175	0x3d4a6eb1	0.04942197
176	0x398fb897	0.00027412616
177	0xbd1c0926	-0.038094662
178	0xbcc21942	-0.023693684
179	0x3d45a7d9	0.048255775
180	0x3a96180b	0.0011451257
181	0xbd8d7289	-0.069066115
182	0x3d2560a7	0.040375378
183	0xbd3e2793	-0.04642446
184	0x3d72eac9	0.05930594
185	0x3d76ca1f	0.06025135
186	0xbd987d8d	-0.07445822
187	0xbcf06163	-0.029343313
188	0x3d1ad943	0.037804853
189	0xbcbac784	-0.022800215
190	0xbd8745ed	-0.06605134
191	0xbd66e574	-0.056371167
192	0x3d5c0a3e	0.053720705
193	0x3d3471c1	0.044053797
194	0xbcdc8979	-0.02692102
195	0x3d3998ad	0.04531162
196	0xbcec577f	-0.028850315
197	0x3b280969	0.0025640375
198	0xbc97a3c0	-0.0185107
199	0x3c81f4d3	0.015863812
200	0xbd5c8d05	-0.053845424
201	0xbbf1eab0	-0.0073827133
202	0xbd05d365	-0.032672305
203	0xbd18ff2e	-0.037352733
204	0xbcfc523e	-0.030800935
205	0xbab981e2	-0.0014153088
206	0x3cf41767	0.029796315
207	0xbca8f4a0	-0.020624459
208	0xbc531f04	-0.012885813
209	0x3cda7646	0.026667725
210	0x3c005d8b	0.007834802
211	0x3c23726f	0.009976014
212	0xbc9d4f2f	-0.019202797
213	0x3c81a783	0.015826946
214	0xbd8ce3a6	-0.06879358
215	0x3d5da496	0.05411204
216	0xbcd6dfcb	-0.02622976
217	0x3c0fa157	0.008766494
218	0xbd7a0a2e	-0.061044864
219	0xbd1e524f	-0.038652714
220	0xbd42c5ba	-0.047551848
221	0xbdb1daed	-0.08684335
222	0x3cdaaa48	0.026692525
223	0xbd7618e3	-0.060082328
224	0x3bec63ca	0.007214044
225	0xbc27b16b	-0.010235171
226	0x3d4e509c	0.050369844
227	0xbc920fe5	-0.017829845
228	0xbd5c3ad6	-0.053767048
229	0xbdeddbaa	-0.11614163
230	0x3c1d269d	0.009591726
231	0x3ba64b4b	0.0050748936
232	0x3d35a56c	0.04434721
233	0x3d8f9a6f	0.07011878
234	0xbc02803f	-0.007965147
235	0xbd4aef50	-0.049544632
236	0x3cca45ab	0.024691423
237	0x3d8d498b	0.06898793
238	0x3d13a990	0.03605038
239	0x3d1484d0	0.036259472
240	0x3d2d79e4	0.042352572
241	0xbcade7e2	-0.021228734
242	0x3c85a996	0.016316216
243	0xbcc7b3c6	-0.024377715
244	0x3d52f513	0.051503252
245	0xbd4059a6	-0.046960495
246	0x3be622f1	0.0070232083
247	0xbb4fd0d5	-0.0031710167
248	0xbc2f9589	-0.010716804
249	0x3d8986b9	0.067151494
250	0xbd26e23c	-0.040743098
251	0x3d118f9c	0.035537347
252	0x3ab810f0	0.0014043134
253	0xbcb0fed2	-0.021605883
254	0xbd5bc222	-0.053651936
255	0x3d2bbd76	0.04192873

conv2.bias f4 [128]
0	0xbc53d361	-0.012928815
1	0x3e2ea8b0	0.17056537
2	0xbe4e2bb7	-0.20133863
3	0x3e01ac8c	0.12663478
4	0xbdd9f627	-0.10642653
5	0xbdd8fb8b	-0.10594853
6	0xbe64a13c	-0.22327131
7	0xbd8107a0	-0.063002825
8	0xbea11ad3	-0.31465778
9	0xbe9c8047	-0.30566618
10	0xbdccdca5	-0.10003022
11	0x3ccee165	0.02525396
12	0xbe78e582	-0.243063
13	0x3e390441	0.18068029
14	0xbd4ff4b1	-0.050770465
15	0xbe095352	-0.1341069
16	0x3e3bc7d0	0.18337941
17	0xbdb5db1c	-0.088796824
18	0xbe813428	-0.25235105
19	0xbe09476a	-0.13406149
20	0xbd41e7ca	-0.047340192
21	0xbd3a034c	-0.0454133
22	0xbd860fa0	-0.06545949
23	0xbe2cfe78	-0.16893947
24	0xbe954d48	-0.29160523
25	0xbe62307b	-0.22088806
26	0x3df7d8dc	0.121019095
27	0xbe89deb1	-0.26927713
28	0xbdfa879c	-0.12232897
29	0xbe01eb1c	-0.12687343
30	0xbd6e952b	-0.058247726
31	0xbb81b355	-0.0039581456
32	0x3e3ee5b7	0.18642317
33	0xbd103e13	-0.03521545
34	0xbd343b91	-0.04400212
35	0xbd558be9	-0.05213538
36	0xbcc72c0f	-0.024313001
37	0xbe8b73ee	-0.27236885
38	0xbe66895e	-0.22513339
39	0xbe2d981c	-0.16952556
40	0x3e33d768	0.1756264
41	0xbe199b5c	-0.15000671
42	0xbe0b1b93	-0.13584737
43	0xbdfe40f4	-0.124147326
44	0xbe60df4d	-0.21960182
45	0xbe527567	-0.20552598
46	0xbe034d60	-0.12822485
47	0xbd2c600e	-0.042083792
48	0xbe170937	-0.14749609
49	0xbe012d83	-0.12615018
50	0x3d62dfc8	0.055389196
51	0x3e23478f	0.15945266
52	0xbd83ed95	-0.064417996
53	0x3e8364f0	0.25662947
54	0xbe2a98ec	-0.16659898
55	0x3e591060	0.21197653
56	0xbe4adf5a	-0.19811764
57	0xbe5fc2ea	-0.21851698
58	0xbdae9b27	-0.08525687
59	0xbe4eb1e5	-0.20185049
60	0xbd84469a	-0.06458779
61	0xbe0bf6db	-0.13668387
62	0x3d27be80	0.04095316
63	0xbda690da	-0.08133097
64	0xbead562c	-0.33854806
65	0xbe01a912	-0.12662151
66	0x3e6dbc6f	0.23216413
67	0xbd8fbc57	-0.07018345
68	0xbe8c48d1	-0.27399305
69	0x3e7abdfa	0.24486533
70	0x3dc33735	0.09532014
71	0xbdab86da	-0.0837533
72	0xbd5bd6ac	-0.053671524
73	0xbcc684b3	-0.024233198
74	0xbe0ed4ec	-0.13948411
75	0xbdcf447f	-0.101204865
76	0x3e422e5e	0.18963
77	0xbda70fc0	-0.08157301
78	0xbe66908a	-0.22516075
79	0xbe2961ff	-0.16541289
80	0xbd966859	-0.073441215
81	0xbde0232c	-0.109442085
82	0xbde0e791	-0.10981668
83	0xbe57d262	-0.21076348
84	0xbe871cfd	-0.26389304
85	0xbe5b9a9f	-0.21445702
86	0x3e42b4a4	0.19014221
87	0xbe1f2179	-0.15540113
88	0xbdcb9939	-0.09941334
89	0x3dae9c95	0.085259594
90	0x3cd8e776	0.026477557
91	0x3daba575	0.08381168
92	0x3c8adcb4	0.016950943
93	0xbd75236d	-0.059848238
94	0xbe0a28d5	-0.13492139
95	0xbd459b6b	-0.04824392
96	0xbdbfab87	-0.09358888
97	0x3e215a2e	0.15757057
98	0xbe2a8109	-0.16650786
99	0xbe9437ac	-0.28948724
100	0x3e0a8b6a	0.13529745
101	0xbc80b484	-0.015711077
102	0xbe19c807	-0.1501771
103	0xbd4ee3fb	-0.050510388
104	0xbdbaaab1	-0.09114588
105	0xbdbe43fe	-0.09290312
106	0xbd887caf	-0.066644065
107	0xbea8d5bc	-0.32975566
108	0xbdd7acb4	-0.105309874
109	0xbdceb0f5	-0.100923456
110	0xbe0bb10e	-0.1364176
111	0xbe31b5fc	-0.17354578
112	0xbe274e47	-0.16338454
113	0xbdc3d166	-0.09561424
114	0xbdcffd63	-0.101557516
115	0xbe77688b	-0.24160974
116	0x3e77e43d	0.2420816
117	0xbe37a2cb	-0.17933194
118	0xbe79c5da	-0.2439188
119	0xbda1c2c3	-0.07898476
120	0x3dc74e7a	0.09731765
121	0xbe61f084	-0.22064406
122	0xbd65d1ce	-0.05610829
123	0xba3c251d	-0.0007177161
124	0xbe341d94	-0.17589408
125	0xbd4dd4bf	-0.05025172
126	0x3e03331d	0.12812467
127	0xbd62c82d	-0.055366684

lstm.weight_ih_l0 f4 [200, 128]
0	0x3dae464d	0.085095026
1	0xbe5a89fd	-0.21341701
2	0xbda4e227	-0.08050948
3	0x3d98fd4f	0.0747019
4	0x3d6e2e85	0.058149833
5	0x3dd1d428	0.10245544
6	0x3dfcb5f0	0.12339389
7	0xbdfe7bdf	-0.1242597
8	0x3d82b62f	0.06382405
9	0xbbb5caab	-0.0055478415
10	0x3e022c3d	0.12712188
11	0x3dfccf70	0.12344253
12	0xbdbc2483	-0.091866516
13	0xbe74f194	-0.2392028
14	0x3dbc2602	0.09186937
15	0xbe065d62	-0.1312156
16	0xbe93fa94	-0.28902113
17	0xbd828244	-0.063725024
18	0xbe0ff34b	-0.14057653
19	0xbe09633f	-0.13416766
20	0x3d5a221d	0.05325519
21	0xbe59db55	-0.21275075
22	0xbe21a10d	-0.15784092
23	0x3d81a901	0.06331063
24	0xbd641d65	-0.055692095
25	0xbd2dce6f	-0.0424332
26	0x3db8d389	0.09024722
27	0xbd80b07e	-0.06283663
28	0xbdf1042d	-0.117683746
29	0xbb6a4e22	-0.0035752137
30	0xbd0da2e2	-0.034579165
31	0xbb01a3fc	-0.001978158
32	0xbe3f8187	-0.18701755
33	0xbdab4a65	-0.08363799
34	0xbd3cf3b4	-0.04613085
35	0x3de4c399	0.1117012
36	0x3da1c111	0.078981526
37	0xbe0ad06c	-0.13556069
38	0x3d005bb3	0.03133745
39	0xbe2ea06d	-0.17053385
40	0xbd90c801	-0.07069398
41	0xbdecbb1a	-0.11559124
42	0xbd8316ed	-0.06400857
43	0xbdc97375	-0.09836475
44	0xbe2f85f0	-0.17140937
45	0xbe111abd	-0.14170356
46	0xbc633672	-0.013867961
47	0xbca9b8dc	-0.02071803
48	0xbd02fd1a	-0.031979658
49	0xbe222731	-0.15835263
50	0xbe66d3f8	-0.22541797
51	0xbe4e3ffa	-0.20141593
52	0x3cb2530a	0.021768112
53	0x3e3c9c54	0.1841901
54	0xbca604c6	-0.020265948
55	0x3dbf9a73	0.09355631
56	0x3c2e085f	0.010622113
57	0x3dbe7bf9	0.0930099
58	0xbe38c554	-0.18044025
59	0xbd8bc973	-0.06825533
60	0x3d74d280	0.05977106
61	0xbe575f0a	-0.21032348
62	0xbd81567e	-0.06315325
63	0xbddd25c0	-0.10798216
64	0x3cf67036	0.030082803
65	0xbd8fab07	-0.07015043
66	0xbe61cd21	-0.22050907
67	0x3e166e5b	0.14690535
68	0xbd8a27e0	-0.06745887
69	0xbdf9c30f	-0.121954076
70	0xbe8d4526	-0.2759182
71	0x3ca9de1b	0.020735791
72	0xbe4b7b40	-0.19871235
73	0xbd1a71f9	-0.03770635
74	0xbd856776	-0.06513874
75	0xbd5e2223	-0.054231774
76	0xbea0e417	-0.3142402
77	0xbd8248c1	-0.06361533
78	0x3baca306	0.0052684573
79	0xbd6ce7ec	-0.057838365
80	0xbccfda0c	-0.025372528
81	0x3c54e1b0	0.012993261
82	0xbe43dc67	-0.19127046
83	0x3d279281	0.0409112
84	0xbe420a95	-0.18949349
85	0xbe54d504	-0.20784384
86	0xbc2df928	-0.0106184855
87	0xbe4a9eaf	-0.19787095
88	0x3d9d52a9	0.07681782
89	0xbde1d3e2	-0.110267416
90	0xbe59731c	-0.21235317
91	0xbe7fdb5c	-0.24986023
92	0xbd2f4aab	-0.04279582
93	0x3dc6b983	0.09703352
94	0xbca7dea2	-0.020491902
95	0x3c8fa61c	0.017535262
96	0xbdb7061e	-0.08936714
97	0xbe6fc13a	-0.23413554
98	0xbd60cf45	-0.054885168
99	0x3e53a5d7	0.20668732
100	0xbdd76a89	-0.10518367
101	0x3d9e494d	0.07728825
102	0x3c95b67a	0.018275488
103	0x3c9adc32	0.018903825
104	0xbc7916ae	-0.015203161
105	0xbd902a9c	-0.07039377
106	0xbe11056a	-0.14162222
107	0xbd79ad00	-0.060956
108	0x3dff90e9	0.12478811
109	0xbcc6bba0	-0.024259388
110	0xbd875acd	-0.06609116
111	0xbddc9690	-0.10770905
112	0xbdc380c1	-0.09546042
113	0xbe5159b7	-0.2044438
114	0xbdb60995	-0.088885464
115	0xbd4bb492	-0.049732752
116	0xbeaf6a8f	-0.34260985
117	0xbd90fd76	-0.07079594
118	0xbd1fc80a	-0.03900913
119	0x3ce1eae3	0.027577823
120	0xbc8fa660	-0.017535388
121	0x3c2f1a4e	0.010687424
122	0x3da53078	0.08065885
123	0xbdb5b563	-0.088724874
124	0xbc96bb0c	-0.018399738
125	0xbbbce45f	-0.0057645286
126	0xbbbe0e55	-0.0058000484
127	0xbd0d3a32	-0.034479327
128	0xbd9b0145	-0.075686015
129	0xbd25112e	-0.040299587
130	0xbe354ca7	-0.17705022
131	0x3d78d757	0.06075224
132	0xbdbe00f7	-0.09277528
133	0x3d3c21fa	0.04593084
134	0xbe53d077	-0.20684992
135	0xbd929880	-0.07157993
136	0xbe1a7509	-0.15083708
137	0xbe4dcb0f	-0.20096992
138	0xbe08a70b	-0.13344972
139	0xbda7165b	-0.08158561
140	0xbdf73436	-0.12070505
141	0x3dbc422e	0.0919231
142	0xbdc46046	-0.09588675
143	0xbdc2ec03	-0.09517672
144	0x3e57f8fc	0.21091074
145	0x3decf02c	0.11569247
146	0xbe3a9930	-0.18222499
147	0xbd9a21fa	-0.07526012
148	0x3d955c30	0.07292974
149	0x3e506453	0.2035077
150	0xbddc2eae	-0.10751091
151	0x3d04710d	0.032334376
152	0xbd798acc	-0.060923383
153	0xbd6aea69	-0.057352457
154	0x3dd0fea7	0.10204821
155	0xbe832fe4	-0.25622475
156	0x3e239536	0.15974888
157	0x3c35729a	0.011074686
158	0xbc65edaf	-0.014033719
159	0xbdedae0b	-0.11605462
160	0x3e195261	0.14972831
161	0x3b9bc6cc	0.004753923
162	0xbc76d178	-0.01506459
163	0xbd6243ca	-0.05524043
164	0xbdefa0b4	-0.117005736
165	0x3d6955b2	0.05696649
166	0xbc918d41	-0.01776755
167	0xbd482a9d	-0.048868764
168	0x3e05a5cd	0.13051529
169	0xbd83dfac	-0.064391464
170	0x3d0d058b	0.034429114
171	0xbdfa4656	-0.12220447
172	0xbdf0a6b0	-0.11750543
173	0xbe36d557	-0.1785482
174	0x3d46c33c	0.048526034
175	0xbe988bfc	-0.297943
176	0xbe0fdb70	-0.14048553
177	0xbe6d89b5	-0.23197062
178	0xbe873b03	-0.2641221
179	0x3cd87a0d	0.026425386
180	0xbe28e6d2	-0.16494301
181	0x3c191a49	0.009344646
182	0x3d1f3984	0.03887321
183	0x3dcc8051	0.09985412
184	0xbdeaebdf	-0.1147077
185	0xbe112edc	-0.14178032
186	0xbe13551c	-0.14387935
187	0xbcb92899	-0.022602366
188	0x3d1c1b11	0.03811175
189	0xbe0fa4cb	-0.14027707
190	0xbee8014c	-0.4531349
191	0xbcacd1af	-0.021096079
192	0xbd971932	-0.073778525
193	0xbe53932a	-0.20661607
194	0x3c841e5e	0.016127761
195	0x3d94939c	0.07254717
196	0xbe6b6b65	-0.22990187
197	0x3e130efc	0.14361185
198	0xbdc7a8c0	-0.097489834
199	0x3d20486f	0.039131578
200	0xbe654dce	-0.22392961
201	0xbe315524	-0.17317635
202	0xbe418c3c	-0.18901151
203	0xbe7b4ea3	-0.24541716
204	0xbd53cdaa	-0.05170981
205	0xbd805a49	-0.062672205
206	0xbd434485	-0.047672767
207	0xbdcc1bcf	-0.099662416
208	0xbc8a07d3	-0.016849434
209	0x3d043878	0.032280415
210	0xbc065870	-0.008199796
211	0x3d2581cd	0.04040699
212	0xbe37904d	-0.1792614
213	0xbdbfbcf9	-0.093622155
214	0x3e811367	0.25210115
215	0x3e3579ac	0.17722195
216	0x3dc5dbd5	0.0966107
217	0xbd036d00	-0.032086372
218	0x3cdf4964	0.027256675
219	0xbe290b03	-0.16508107
220	0xbe3c176a	-0.18368307
221	0xbd069ceb	-0.032864492
222	0xbdac2804	-0.0840607
223	0x3e03daf9	0.128765
224	0x3de2602e	0.11053501
225	0x3e8cc242	0.27491957
226	0xbe914401	-0.28372195
227	0xbe2593ff	-0.16169737
228	0xbda684dc	-0.0813081
229	0xbd80af96	-0.0628349
230	0xbcf32902	-0.02968264
231	0xbdfc2fda	-0.123138145
232	0xbdd0ef1a	-0.10201855
233	0xbb719f6d	-0.0036868707
234	0x3c9962ed	0.01872393
235	0xbdcba485	-0.09943489
236	0x3e195528	0.14973891
237	0xbddfb272	-0.109227076
238	0x3dba9ac2	0.09111549
239	0xbe4efd65	-0.2021385
240	0xbdfcb742	-0.12339641
241	0xbe052ba7	-0.13004933
242	0x3e1154f6	0.14192566
243	0x3d519939	0.051171515
244	0x3dd5fd9f	0.10448765
245	0xbdb14c20	-0.08657098
246	0xbd6a33f3	-0.05717845
247	0xbe1b4d46	-0.15166196
248	0xbd5bb4db	-0.053639274
249	0xbdfb321c	-0.12265417
250	0xbd107882	-0.035271175
251	0xbe41819b	-0.18897097
252	0xbe01cc1e	-0.12675521
253	0xbbdaadea	-0.006673564
254	0x3e0b3156	0.13593039
255	0x3e182592	0.14858082

lstm.weight_hh_l0 f4 [200, 50]
0	0xbda92bfb	-0.08260342
1	0xbdb3ea14	-0.08784881
2	0x3e03100c	0.1279909
3	0x3d271e8e	0.040800624
4	0x3ea43570	0.3207202
5	0x3dcc4ee1	0.099759825
6	0x3d38208e	0.04495292
7	0xbd11071e	-0.035407178
8	0x3da9188d	0.08256636
9	0xbe321f4f	-0.17394756
10	0xbe256303	-0.16151051
11	0x3e17c3b4	0.14820749
12	0xbd26a2da	-0.04068265
13	0x3d16a12b	0.036774796
14	0xbd322d34	-0.04350014
15	0xbd367a5b	-0.04455028
16	0xbc146c45	-0.009059017
17	0x3e5c72bb	0.21528141
18	0x3d432913	0.047646593
19	0xbdf4d037	-0.11953776
20	0xbd483072	-0.048874326
21	0x3d8d99fb	0.06914135
22	0x3e09b289	0.13447012
23	0xbd9ca0dd	-0.0764787
24	0x3debd2db	0.11514827
25	0x3df8b75e	0.121443495
26	0x3d00fad4	0.03148921
27	0xbd600538	-0.054692477
28	0x3deb38e9	0.11485464
29	0x3c789d74	0.0151742585
30	0xbe33b1d9	-0.17548312
31	0xbdfa5b88	-0.122244895
32	0xbdd63ae8	-0.10460454
33	0xbd29e28b	-0.041475814
34	0x3e35109e	0.1768212
35	0xbc2033f9	-0.009778016
36	0xbddefec6	-0.10888438
37	0xbddd04bb	-0.10791918
38	0xbcc58d38	-0.02411519
39	0xbd676507	-0.05649283
40	0x3daadbfd	0.08342741
41	0x3d140300	0.036135674
42	0xbde6a85f	-0.11262583
43	0x3d925d7d	0.07146738
44	0xbe6ee161	-0.23328163
45	0x3d2e4449	0.04254559
46	0x3e017bcd	0.12644883
47	0x3da26368	0.079291165
48	0x3dba66ce	0.0910164
49	0xbe26a7ae	-0.16274902
50	0xbb8bf5b9	-0.004271236
51	0xbe091355	-0.13386281
52	0x3e7fdf58	0.24987543
53	0x3d2e30c5	0.04252698
54	0x3df395e0	0.11893821
55	0xbd3f4384	-0.046695247
56	0x3dd0a2d6	0.101873085
57	0x3ce386b6	0.027774196
58	0xbd7caafb	-0.061686497
59	0xbdac59e6	-0.08415584
60	0x3a09c826	0.00052559597
61	0xbdf46f2e	-0.11935268
62	0xbdaaafd0	-0.08334315
63	0xbdc10515	-0.094247974
64	0x3cd66da8	0.026175335
65	0x3e1d5a52	0.15366486
66	0xbd482c6b	-0.048870485
67	0xbd2d4dbc	-0.04231046
68	0xbdeb71f5	-0.11496345
69	0xbd5e5544	-0.054280534
70	0xbcc0e4f1	-0.023546668
71	0xbd9aee8a	-0.07565029
72	0x3d8a4c50	0.06752837
73	0x3d80b261	0.06284023
74	0x3c062a16	0.008188745
75	0xbc09abb6	-0.0084027555
76	0xbb896b22	-0.0041936794
77	0xbc5d83fc	-0.013520237
78	0xbe4a4cd8	-0.19755876
79	0x3d95547f	0.07291507
80	0xbca589f0	-0.020207375
81	0xbc998dde	-0.018744405
82	0xbd45bc03	-0.048275005
83	0x3cb9fc2e	0.022703256
84	0x3e54f0b7	0.2079495
85	0xbdf325c3	-0.11872437
86	0x3e33cea7	0.175593
87	0xbd04e93a	-0.032448985
88	0x3d08c989	0.033395324
89	0xbc05bee4	-0.008163188
90	0x3e4cf455	0.2001508
91	0x3e090bc1	0.1338339
92	0x3dcfb427	0.10141783
93	0xbe29c229	-0.16577972
94	0xbe1e1f91	-0.15441729
95	0x3da1674e	0.07881032
96	0x3da81d10	0.08208668
97	0x3d3923b7	0.045200076
98	0x3e54e9d1	0.20792319
99	0xbe6f84bc	-0.23390478
100	0xbd2294df	-0.039692756
101	0xbdcd5d18	-0.10027522
102	0x3e2666e7	0.16250192
103	0x3e1951f2	0.14972666
104	0xbd4ef774	-0.05052896
105	0x3e3e9fd9	0.18615665
106	0x3e1d2f50	0.1535008
107	0x3e01917f	0.12653159
108	0x3d2d0ef8	0.042250603
109	0xbe4a0f2a	-0.19732347
110	0x3cf524fd	0.029924864
111	0xbd26118b	-0.040544074
112	0x3e3e20ff	0.18567275
113	0x3dca8451	0.098885186
114	0x3d85dc64	0.06536177
115	0x3d4d2873	0.050087404
116	0x3df7f691	0.12107576
117	0xbe648840	-0.223176
118	0x3e564a68	0.20926821
119	0xbd2227e4	-0.039588824
120	0x3d1b7bbc	0.0379598
121	0xbd6af599	-0.057363126
122	0x3db1cafb	0.086812936
123	0x3c753773	0.014966833
124	0xbde72158	-0.11285657
125	0xbc8f1317	-0.017465157
126	0x3d1a1b70	0.037623823
127	0xbb8ac16b	-0.004234483
128	0xbe10edc7	-0.14153205
129	0x3de82d3d	0.113367535
130	0x3d9c8b45	0.07643751
131	0x3c825111	0.015907796
132	0xbe2029a8	-0.1564089
133	0xbd494f20	-0.049147725
134	0xbe4d2a79	-0.20035733
135	0xbcbd92e8	-0.02314134
136	0x3c7e148f	0.015507831
137	0xbda07201	-0.078342445
138	0x3d329bac	0.04360549
139	0xbda24550	-0.079233766
140	0xbddd4d2e	-0.108057365
141	0xbd5765b2	-0.05258722
142	0x3e356052	0.17712525
143	0x3dfd3f74	0.12365618
144	0x3dc62983	0.096758865
145	0xbe20b925	-0.15695627
146	0xbc1c08b9	-0.009523564
147	0xbd0c4c39	-0.03425238
148	0x3e232ff9	0.15936269
149	0xbd433e68	-0.047666937
150	0x3dbd0b87	0.09230714
151	0x3d101f4d	0.0351861
152	0xbe554818	-0.20828283
153	0x3e490b37	0.19633184
154	0x3e2b9819	0.1675724
155	0x3d273d09	0.040829692
156	0x3dd8a851	0.10578979
157	0x3e22de33	0.15905075
158	0x3dd2c7fe	0.10292052
159	0x3dff32a2	0.12460829
160	0xbe58aae8	-0.21158946
161	0x3db7674a	0.08955248
162	0x3dc5c06c	0.09655842
163	0x3de6e51c	0.11274168
164	0x3dd66410	0.10468304
165	0xbdbdb123	-0.09262302
166	0xbd81fb35	-0.06346742
167	0x3daa6626	0.083202645
168	0x3dcb7ad0	0.09935534
169	0xbe4fa8c5	-0.20279224
170	0x3dcf5cf5	0.10125152
171	0x3c22b649	0.0099311555
172	0x3d04cb9f	0.03242075
173	0xbe68ea89	-0.22745718
174	0x3e89015f	0.2675886
175	0x3e7a35af	0.24434541
176	0xbe22abc3	-0.15885834
177	0x3e45c544	0.19313532
178	0x3a137abe	0.0005625895
179	0x3dca15e2	0.09867455
180	0xbd3d3143	-0.046189558
181	0x3c5da6b5	0.013528516
182	0xbde0ccc5	-0.10976557
183	0xbd95a032	-0.073059455
184	0x3d9e098a	0.07716663
185	0xbe2bc912	-0.16775921
186	0x3ce719e8	0.028210595
187	0xbe62d828	-0.2215277
188	0xbdd56c5a	-0.10421057
189	0x3dfe79fc	0.124256104
190	0x3bea4dfe	0.0071504107
191	0xbdd34596	-0.10316007
192	0xbd37815d	-0.044801105
193	0xbc00253b	-0.007821376
194	0xbdd5daed	-0.104421474
195	0xbe264c62	-0.16240075
196	0xbe5b4794	-0.21414024
197	0xbdbfaa6e	-0.09358679
198	0xbcd09717	-0.02546267
199	0xbe1ee363	-0.15516429
200	0x3d3229bb	0.04349683
201	0x3e3f7d9b	0.18700258
202	0xbe0e7fd8	-0.13915956
203	0xbd98d311	-0.07462133
204	0x3ed32c34	0.41244662
205	0x3e5e6134	0.21716768
206	0xbd773bae	-0.06035965
207	0xbe3a0982	-0.1816769
208	0xbebd66c7	-0.36992475
209	0xbdb71ecd	-0.08941422
210	0xbdf66bce	-0.12032281
211	0xbe7f86a1	-0.249537
212	0x3d07ffee	0.033203058
213	0x3db73ccb	0.08947142
214	0x3b351c43	0.0027635254
215	0x3e75f70e	0.24020025
216	0x3ddfdedb	0.10931178
217	0x3e988452	0.29788452
218	0xbe57d7a3	-0.21078353
219	0xbe8530df	-0.26013848
220	0x3deff5a7	0.11716776
221	0x3e0ce2de	0.13758418
222	0xbcd403a4	-0.025880642
223	0xbd3a801b	-0.045532327
224	0xbe850984	-0.25983822
225	0xbc86356c	-0.016382895
226	0x3dacbd83	0.08434584
227	0x3dfcdb30	0.12346494
228	0xbda139aa	-0.07872327
229	0x3d64d5bd	0.0558679
230	0xbd672a29	-0.05643669
231	0x3d48f43d	0.04906105
232	0xbddc8959	-0.107683845
233	0xbda18f63	-0.07888677
234	0x3dff0357	0.12451809
235	0xbeb4dd73	-0.35325202
236	0x3e75882e	0.2397773
237	0xbe4c70a9	-0.19964851
238	0xbe3544f7	-0.17702089
239	0x3cbe7b41	0.023252131
240	0x3b88ae00	0.004171133
241	0xbddb0858	-0.10694951
242	0x3de789b2	0.1130556
243	0x3d6bd564	0.057576552
244	0xbd9549dc	-0.07289478
245	0xbd9d2d84	-0.07674697
246	0xbe2900c2	-0.16504195
247	0x3e33a095	0.17541726
248	0x3dbae68f	0.09126007
249	0xbe38d420	-0.1804967
250	0xbd9b5494	-0.07584491
251	0xbd0d8558	-0.034550995
252	0xbde16f09	-0.110075064
253	0xbe0c8712	-0.137234
254	0x3e3ac803	0.18240361
255	0xbcd83f37	-0.02639733

lstm.bias_ih_l0 f4 [200]
0	0xbe15410a	-0.14575592
1	0xbcafb457	-0.021448297
2	0x3d36533d	0.044512976
3	0xbe668d3a	-0.22514811
4	0x3e4eba2d	0.20188208
5	0xbcefaf48	-0.029258385
6	0xbe80f894	-0.2518965
7	0xbe425858	-0.18979013
8	0x3dd9abe1	0.106284864
9	0xbe309181	-0.17243005
10	0xbb2bf06d	-0.0026235834
11	0x3e673d60	0.22582006
12	0xbe7ab2e8	-0.2448231
13	0x3cf01ab4	0.029309608
14	0xbd74333a	-0.059619166
15	0x3f09bbda	0.53802264
16	0xbe5dcf6a	-0.21661153
17	0x3dbfe52d	0.09369884
18	0x3d17ed8e	0.037091784
19	0xbd6dcf9c	-0.05805932
20	0xbe2b4ab8	-0.16727722
21	0xbeacb657	-0.33732864
22	0xbba30e10	-0.0049760416
23	0x3d2452eb	0.04011814
24	0xbea7bf41	-0.32763103
25	0x3d18e05f	0.037323352
26	0xbd6bb8c5	-0.057549257
27	0xbe9108bb	-0.28326973
28	0xbe4c50f0	-0.1995275
29	0xbe037606	-0.12837991
30	0x3dce3e9d	0.10070536
31	0xbc5dc447	-0.013535566
32	0xbd35c38a	-0.044375934
33	0xbe045a7b	-0.1292514
34	0x3e1e5c22	0.15464833
35	0x3e4705e7	0.19435845
36	0xbc12066a	-0.008912662
37	0xbdc8b58f	-0.098002546
38	0xbdab1191	-0.0835296
39	0xbe6551f4	-0.22394544
40	0xbdd5fcc6	-0.10448603
41	0xbe4d5a40	-0.20053959
42	0x3df3de33	0.119076155
43	0xbe8127e0	-0.25225735
44	0xbd7e8d13	-0.062146258
45	0x3b13b063	0.0022535555
46	0x3ec1d58d	0.3785824
47	0xbe4c088c	-0.19925135
48	0x3d057145	0.032578725
49	0x3e56a415	0.2096103
50	0xbda02a4b	-0.07820567
51	0xbcdf136e	-0.027230944
52	0xbde58791	-0.11207498
53	0xbe26494a	-0.16238895
54	0xbe4ee5a2	-0.20204785
55	0x3da3b054	0.07992616
56	0xbe0a045e	-0.13478228
57	0xbc27b061	-0.010234923
58	0xbe903ca2	-0.2817126
59	0xbdda953d	-0.10672996
60	0xbd176b96	-0.036967836
61	0x3d8ad4a3	0.067788385
62	0xbda1070e	-0.07862674
63	0x3e239649	0.15975298
64	0x3c7a12c5	0.015263264
65	0xbe847647	-0.25871488
66	0xbe087ec4	-0.13329607
67	0xbe1e40e4	-0.15454441
68	0x3b94762e	0.0045306897
69	0x3df21abf	0.11821508
70	0x3c7502f5	0.014954318
71	0xbe62412f	-0.22095178
72	0xbd793ffd	-0.06085204
73	0x3e1c58bc	0.15268224
74	0x3da8451d	0.08216307
75	0xbafc9ee4	-0.0019273427
76	0xbe3d9d9b	-0.18517153
77	0x3d193eba	0.037413336
78	0x3b1f5021	0.0024309235
79	0x3c94ba1a	0.018155146
80	0x3d70f121	0.05882371
81	0x3d6e3f30	0.05816573
82	0xbe12e177	-0.1434382
83	0x3e02ab1d	0.12760587
84	0xbec0e60e	-0.37675518
85	0x3b83091c	0.0039988887
86	0xbe075106	-0.13214502
87	0xbdc27519	-0.09494991
88	0x3d262acc	0.040568158
89	0xbdb67de3	-0.0891073
90	0xbe4e2126	-0.20129833
91	0xbb19b2ae	-0.0023452449
92	0xbcc4a2b3	-0.024003362
93	0xbe615399	-0.22004546
94	0xbac70c56	-0.0015186172
95	0xbd8ccbb1	-0.068747886
96	0xbdb59411	-0.08866132
97	0xbe164d29	-0.14677872
98	0xbe172139	-0.14758767
99	0xbe14b863	-0.14523463
100	0xbdccffda	-0.10009737
101	0x3deefe69	0.11669619
102	0x3e017ea4	0.12645966
103	0xbd3bf8f2	-0.04589171
104	0x3ddbf606	0.107402846
105	0xbc055ac4	-0.008139316
106	0xba481f50	-0.00076340605
107	0xbd1922aa	-0.037386574
108	0xbd9c9fce	-0.07647668
109	0xbdf98225	-0.12183026
110	0x3dc44b3e	0.09584664
111	0xbe419a8e	-0.18906614
112	0xbd54cd21	-0.05195344
113	0xbe127ada	-0.14304677
114	0xbd9b166a	-0.075726345
115	0xbdeaf22a	-0.114719704
116	0xbd3a3482	-0.04546023
117	0xbcee45f1	-0.029086085
118	0x3c077d59	0.008269631
119	0xbd07c068	-0.033142477
120	0xbaabc08d	-0.0013103649
121	0xbd3ab07d	-0.04557847
122	0x3dde8a3c	0.1086621
123	0x3e072ea6	0.13201389
124	0xbd6ecc3e	-0.05830025
125	0xbe103524	-0.14082772
126	0xbd083196	-0.033250414
127	0xbe0e3a9b	-0.13889544
128	0xbd88f230	-0.066868186
129	0x3cad0595	0.021120826
130	0x3de1cb10	0.11025059
131	0x3bb76707	0.0055969986
132	0x3daddfee	0.08489977
133	0xbb900c65	-0.004396009
134	0x3d88cb64	0.06679419
135	0x3dab43b4	0.08362523
136	0x3de21c08	0.11040503
137	0x3dc36466	0.09540634
138	0xbdeadc17	-0.1146776
139	0x3cf1e17f	0.02952647
140	0xbd3728b7	-0.044716563
141	0xbda7e7a0	-0.08198476
142	0x3dd31692	0.10307039
143	0xbca06f69	-0.019584375
144	0xbd91d805	-0.071212806
145	0x3e025835	0.12728961
146	0xbd7b4dbe	-0.061353438
147	0xbe12d4f6	-0.1433905
148	0x3e04c17e	0.12964436
149	0xbde8b428	-0.11362487
150	0xbe198dfd	-0.1499557
151	0x3d21e33a	0.03952334
152	0xbe44bd08	-0.19212735
153	0xbe1e5ace	-0.15464327
154	0x3e314a10	0.17313409
155	0xbd9a3c40	-0.07531023
156	0xbe4a1edf	-0.19738339
157	0xbe771089	-0.24127401
158	0x3e3fbe07	0.18724833
159	0xbdebe9d9	-0.11519212
160	0xbe5fa6a6	-0.21840915
161	0x3e038583	0.128439
162	0xbda19fae	-0.078917846
163	0x3cbe60c9	0.02323951
164	0xbe3404a9	-0.17579903
165	0x3e9dd078	0.30823112
166	0xbe579b02	-0.21055225
167	0x3d860c7f	0.06545352
168	0xbe6fde14	-0.2342456
169	0xbd278065	-0.04089393
170	0xbdb7288f	-0.08943283
171	0xbeb55249	-0.3541434
172	0xbdac3367	-0.08408242
173	0xbcbe7f1f	-0.023253975
174	0xbe4a741e	-0.19770858
175	0xbd6398e2	-0.055565722
176	0xbda51dfe	-0.08062361
177	0xbd8c23f9	-0.06842799
178	0xbe9b189a	-0.30292207
179	0x3cfdced7	0.030982418
180	0x3d9237bc	0.07139537
181	0xbe5c147f	-0.21492194
182	0x3d72767b	0.059195023
183	0xbe5bddc3	-0.21471314
184	0x3e7489d7	0.23880707
185	0x3e3c1397	0.18366848
186	0x3cb2fa70	0.021847934
187	0xbd37d4b4	-0.044880584
188	0xbc9ab721	-0.01888615
189	0xbdc5b30d	-0.09653292
190	0xbd3aa95d	-0.045571674
191	0xbdc5071f	-0.09620499
192	0x3e4de19d	0.20105596
193	0xbd68d411	-0.056842867
194	0x3d9ac91b	0.07557889
195	0xbe9ea1c1	-0.30982783
196	0x3e5ea4ed	0.21742602
197	0xbd86f3b5	-0.06589452
198	0xbd58d71e	-0.052939527
199	0xbc1a3415	-0.009411831

lstm.bias_hh_l0 f4 [200]
0	0xbe7613a6	-0.24030933
1	0x3e12cf65	0.14336927
2	0x3d2f9efd	0.042876232
3	0xbdb0a315	-0.086248554
4	0x3cb0fdaa	0.021605331
5	0xbc8dddf4	-0.01731775
6	0xbe9353e2	-0.28774935
7	0xbd9ff0e6	-0.078096196
8	0x3dc0c2d7	0.09412163
9	0xbdd60e4b	-0.10451945
10	0xbdbb90e5	-0.09158496
11	0x3db062ea	0.08612616
12	0xbd92b036	-0.07162516
13	0x3dcdc9a5	0.10048226
14	0xbe84aa0d	-0.25910988
15	0x3eaaaec1	0.33336452
16	0xbcae940f	-0.021310834
17	0x3e8be409	0.27322415
18	0x3d569972	0.05239243
19	0xbe3da81c	-0.1852116
20	0xbd2ea435	-0.04263707
21	0xbdf87452	-0.12131561
22	0xbe1f5572	-0.15559939
23	0x3d3a7404	0.045520797
24	0xbe89e302	-0.26931006
25	0x3dd4f325	0.10397939
26	0xbe399078	-0.18121517
27	0xbe83dc24	-0.2575389
28	0xbe4cf5da	-0.2001566
29	0xbe6cf819	-0.23141517
30	0xbda248db	-0.07924052
31	0xbd4cf38e	-0.05003696
32	0x3d34bf5c	0.044127807
33	0x3d02121b	0.031755548
34	0x3e44fe41	0.19237615
35	0x3da366b5	0.07978574
36	0xbe231b5c	-0.15928406
37	0x3caa2b49	0.020772593
38	0xbe6663a1	-0.22498943
39	0xbdd43800	-0.10362244
40	0xbd9285d9	-0.07154436
41	0xbe39a160	-0.18127966
42	0x3da688da	0.08131571
43	0xbe34ed1d	-0.17668577
44	0xbd9acd51	-0.07558692
45	0xbe445909	-0.19174589
46	0x3e478344	0.19483668
47	0xbdc5e9a2	-0.096637025
48	0xbe21628b	-0.15760247
49	0x3e3761fe	0.17908475
50	0xbdd70e68	-0.10500795
51	0xbc87c3c6	-0.016572844
52	0xbea88381	-0.3291283
53	0x3dab5c6d	0.08367238
54	0xbe54fea3	-0.20800261
55	0xbd102697	-0.035193052
56	0xbdb5b853	-0.08873048
57	0x3d25b6ae	0.04045742
58	0xbe876ab2	-0.2644859
59	0xbd0a1903	-0.03371526
60	0xbc8f2098	-0.017471597
61	0x3dc316c2	0.09525825
62	0xbddea423	-0.1087115
63	0x3eb33659	0.350024
64	0x3d555768	0.05208531
65	0xbe8dcba4	-0.27694428
66	0xbdc07c5e	-0.09398721
67	0xbe2b62fb	-0.16736977
68	0xbe02a51b	-0.12758295
69	0x3d861fc2	0.06549026
70	0xbbfa7e6a	-0.0076444643
71	0x3b43326a	0.0029784688
72	0xbd709f40	-0.058745623
73	0x3df72e7d	0.12069414
74	0xbccafe0e	-0.024779346
75	0xbdf1466c	-0.1178101
76	0xbe690941	-0.22757436
77	0xbda46c62	-0.08028485
78	0xbca75d9b	-0.020430377
79	0xbe0c25d4	-0.13686305
80	0xbde6e2a1	-0.11273695
81	0xbdf21110	-0.11819661
82	0xbce01207	-0.027352346
83	0x3d285d5c	0.04110466
84	0xbe0c35f3	-0.13692455
85	0xbc8e79a1	-0.017391982
86	0xbc6857de	-0.014181105
87	0xbdef1b71	-0.11675156
88	0xbd9050b3	-0.07046642
89	0x3c9f7a7f	0.01946759
90	0xbd95ca96	-0.07314031
91	0xbdcb7e15	-0.099361576
92	0xbe2047eb	-0.15652435
93	0xbd8ebc23	-0.06969478
94	0xbe0a862b	-0.13527744
95	0x3d747304	0.05968
96	0xbdca25c9	-0.09870488
97	0xbc894c5b	-0.016760042
98	0xbe4023eb	-0.18763702
99	0xbe7e5c13	-0.24839811
100	0x3d0f342b	0.03496186
101	0xbb3b3576	-0.00285658
102	0x3d260c97	0.04053935
103	0x3d4d20da	0.050080158
104	0xbdd1b197	-0.10238951
105	0xbd3a2ddc	-0.04545389
106	0xbd6a0673	-0.057135057
107	0x3cd2496a	0.025669772
108	0xbe0d3b7b	-0.13792221
109	0x3dce976a	0.10087474
110	0x3d69be1b	0.057066064
111	0xbe4f6733	-0.20254211
112	0xbced1b24	-0.028943606
113	0x3cfc04c9	0.030764
114	0x3d84e8f6	0.06489746
115	0xbdfa3060	-0.12216258
116	0x3cd36db5	0.025809148
117	0x3d512b6d	0.051066805
118	0xbda006dc	-0.07813808
119	0x3db51007	0.088409476
120	0xbd57b781	-0.052665237
121	0x3d4011fa	0.046892144
122	0x3dda5fca	0.106628016
123	0x3e0cd3e9	0.13752712
124	0xbdce661c	-0.100780696
125	0xbe0004f7	-0.12501894
126	0xbd1935e5	-0.037404913
127	0x3cfd2d6d	0.03090545
128	0x3ca6430e	0.020295646
129	0xbd72837b	-0.05920742
130	0xbd9fe1ae	-0.07806717
131	0xbc65bfdf	-0.014022796
132	0x3e24c376	0.16090187
133	0x3d10df25	0.035369057
134	0xbdde4188	-0.10852343
135	0xbd259911	-0.04042918
136	0x3dfef232	0.12448539
137	0x3e0069ca	0.12540355
138	0x3d26add2	0.04069311
139	0xbb83c48d	-0.0040212334
140	0xbddac606	-0.10682301
141	0x3d0e5fb9	0.034759257
142	0xbcc5d379	-0.02414869
143	0xba693ed9	-0.00088976097
144	0x3d83ee59	0.064419456
145	0x3d958966	0.07301597
146	0x3d3f6ac6	0.046732686
147	0x3d572ff6	0.052535973
148	0x3e35d31b	0.17756312
149	0xbc93b0b1	-0.018028589
150	0xbd3946cd	-0.045233537
151	0xbc9c97ce	-0.019115355
152	0xbe5e20e0	-0.21692228
153	0xbe8aefa9	-0.2713597
154	0x3dfe938c	0.12430486
155	0xbd76d7a7	-0.060264256
156	0xbe97c56c	-0.29642808
157	0xbdc33796	-0.095320866
158	0x3d175289	0.036943946
159	0xbd48bff9	-0.049011204
160	0xbd4c83dd	-0.049930442
161	0x3da07f54	0.07836786
162	0xbdf2221a	-0.118229106
163	0xbd297bad	-0.041377712
164	0xbe46688b	-0.19375817
165	0x3ebdc2bc	0.37062633
166	0xbe8a3c00	-0.269989
167	0x3d8f3768	0.0699299
168	0xbdf62ec5	-0.12020639
169	0xbca308da	-0.019901682
170	0xbcfba925	-0.030720303
171	0xbe5083c1	-0.2036276
172	0xbe0f52ee	-0.13996479
173	0x3e1e0465	0.15431364
174	0xbe3a6e74	-0.18206197
175	0xbcad4bf2	-0.021154378
176	0xbe1966b1	-0.1498058
177	0xbe498087	-0.19677936
178	0xbe15c178	-0.14624584
179	0xbd404e37	-0.04694959
180	0x3da546e7	0.08070164
181	0xbe5d4997	-0.21610104
182	0x3c6cb756	0.014448008
183	0xbe321f1b	-0.17394678
184	0x3e64c811	0.22341944
185	0x3e334c93	0.1750968
186	0xbbd68589	-0.0065466803
187	0xbd718a7f	-0.05896997
188	0xbd87152c	-0.06595835
189	0xbe22719c	-0.15863651
190	0xbe2192ad	-0.15778609
191	0xbd20a092	-0.03921563
192	0x3d994919	0.074846454
193	0xbd250026	-0.040283345
194	0x3d15db52	0.036586113
195	0xbe8fc3ea	-0.28079158
196	0x3e9e732a	0.30947238
197	0xbe5e400a	-0.21704116
198	0x3c1713e5	0.009221052
199	0x3ba37904	0.0049887914

lstm.weight_ih_l1 f4 [200, 50]
0	0xbe192665	-0.14956053
1	0xbe8fa0aa	-0.28052264
2	0x3c80e944	0.01573623
3	0x3e20a7cd	0.15689011
4	0x3ec72c13	0.38900813
5	0x3de2ceb6	0.11074583
6	0x3d3418a2	0.043968804
7	0x3da48d5d	0.080347754
8	0xbc0bebe4	-0.008540127
9	0xbca68b05	-0.020329962
10	0xbe00627b	-0.12537567
11	0xbe4bd09e	-0.199038
12	0xbb798ccd	-0.0038078309
13	0x3d4dd1c5	0.05024888
14	0x3e6efe00	0.23339081
15	0x3dff92f8	0.12479204
16	0x3e56c489	0.2097341
17	0x3d5fe34b	0.054660123
18	0xbd55465f	-0.052069064
19	0xbe8a8eba	-0.27062017
20	0xba088af5	-0.00052086945
21	0x3d967212	0.07345976
22	0xbe5b0db0	-0.2139194
23	0xbdf8fde6	-0.12157802
24	0x3d852a89	0.065022536
25	0x3e591480	0.21199226
26	0xbcaefb83	-0.021360165
27	0x3d8dd1f2	0.069248095
28	0x3dc0722b	0.09396776
29	0x3c01fdf5	0.007934083
30	0x3e26feed	0.16308184
31	0x3dc9ded0	0.09856951
32	0xbe09d435	-0.13459857
33	0xbe11e055	-0.14245732
34	0x3e571e73	0.21007709
35	0xbc48eeda	-0.012263978
36	0xbe80a77f	-0.2512779
37	0xbe04f4a1	-0.12983944
38	0x3dd715c4	0.10502198
39	0x3e061ba4	0.13096482
40	0x3e629db2	0.22130468
41	0x3dd86f51	0.10568107
42	0xbbbc62f1	-0.0057490994
43	0x3d90c471	0.07068718
44	0xbd7ecb26	-0.062205456
45	0xbe506ddc	-0.20354408
46	0x3ee186a5	0.44048038
47	0x3e6b3a41	0.22971441
48	0xbdd806bf	-0.10548162
49	0x3d7e6d4e	0.06211596
50	0xbdd2df8c	-0.102965444
51	0xbe040df3	-0.12895946
52	0x3d9267ac	0.0714868
53	0x3d4920e0	0.049103618
54	0x3dcaddc1	0.099055775
55	0x3c3f6fee	0.011684401
56	0xbd3c9130	-0.0460369
57	0xbd450733	-0.04810257
58	0xbdd00156	-0.10156505
59	0xbe01f7ac	-0.12692136
60	0xbd454ce0	-0.048169017
61	0xbd6ce75b	-0.057837825
62	0x3dfcc7ba	0.12342782
63	0x3e1d85aa	0.1538302
64	0x3e0eeb07	0.13956843
65	0x3e0d8e4f	0.13823818
66	0x3e2b509c	0.16729969
67	0x3e8d6741	0.2761784
68	0x3d283f48	0.041075975
69	0xbe3c6f20	-0.18401766
70	0x3dbdfb37	0.09276431
71	0x3e1c16c2	0.15243056
72	0xbe2d3b8d	-0.16917248
73	0x3b807b1b	0.0039209253
74	0x3d82ff81	0.0639639
75	0xbd1f3c33	-0.03887577
76	0x3dce63af	0.10077607
77	0x3de945e6	0.11390285
78	0xbdc067c2	-0.0939479
79	0xbd78d630	-0.06075114
80	0x3d3cb951	0.04607517
81	0xbd076531	-0.033055488
82	0x3ded31b0	0.11581743
83	0x3d129b05	0.03579237
84	0x3dd29ec0	0.102841854
85	0x3b8611cc	0.004091477
86	0xbda4c2df	-0.08044981
87	0xbe10d328	-0.1414305
88	0x3d12a0e6	0.035797976
89	0x3dbd7e41	0.09252597
90	0x3e93f5d6	0.28898495
91	0xbd92dfc6	-0.07171588
92	0xbc1b3507	-0.009473092
93	0xbd05961f	-0.03261387
94	0x3da991ce	0.08279763
95	0x3c7cc70a	0.015428314
96	0x3e81ff83	0.25390252
97	0xbd91154d	-0.07084141
98	0x3d1bf93d	0.03807949
99	0xbd98cb66	-0.0746067
100	0x3e5c57e8	0.21517909
101	0xbdba75ed	-0.09104524
102	0x3d95c1e7	0.073123746
103	0xbdcce59e	-0.100047335
104	0x3e329cce	0.17442629
105	0x3d1f4ce5	0.03889169
106	0xbe339c0d	-0.17539997
107	0xbdda9bf4	-0.10674277
108	0xbe18f26a	-0.14936224
109	0x3d8ec07b	0.069703065
110	0xbe440bd6	-0.1914514
111	0x3df16fc9	0.117888995
112	0x3d83d692	0.064374104
113	0x3dbca2db	0.0921075
114	0x3e415ebf	0.18883799
115	0x3e46195a	0.19345608
116	0x3dbd4096	0.092408344
117	0x3e9973c5	0.29971138
118	0xbe0ac30a	-0.13550964
119	0xbd713560	-0.058888793
120	0xbdfd2cdd	-0.123620726
121	0x3dcb1be8	0.09917432
122	0xbe585107	-0.2112466
123	0xbd148032	-0.03625507
124	0x3e616063	0.22009425
125	0x3d0c4587	0.034245994
126	0x3d0c6e4c	0.034284875
127	0x3d99995a	0.074999526
128	0x3dda61bc	0.106631726
129	0xbb83924e	-0.0040152436
130	0xbdfb03c2	-0.12256576
131	0xbe239aa2	-0.15976956
132	0xbd80b680	-0.06284809
133	0xbe1c267c	-0.15249056
134	0x3e8a7a22	0.27046305
135	0xbc871aae	-0.016492214
136	0xbbfcfc73	-0.007720524
137	0xbe52c848	-0.20584214
138	0xbe0b1722	-0.13583043
139	0xbcfe4eea	-0.031043489
140	0x3e4a989a	0.19784775
141	0x3dd10d4b	0.102076136
142	0xbe74f92c	-0.23923177
143	0xbd99e4a4	-0.07514313
144	0xbda77ba8	-0.081778824
145	0x3d360241	0.044435743
146	0x3dba0ffc	0.0908508
147	0x3e2b14c5	0.16707142
148	0xbe45c39f	-0.19312905
149	0xbe586fc3	-0.21136384
150	0xbc856750	-0.016284615
151	0xb91a86de	-0.00014736826
152	0xbd758a8a	-0.059946574
153	0x3e0bed6a	0.13664785
154	0xba128068	-0.0005588592
155	0x3e550789	0.20803656
156	0xbdc9d9da	-0.09856005
157	0xbdef02f0	-0.11670482
158	0xbd8ea99c	-0.06965944
159	0xbe66459a	-0.22487488
160	0xbe6eab1c	-0.2330746
161	0xbc9360b5	-0.01799045
162	0x3d66fa73	0.05639119
163	0x3e05aa64	0.1305328
164	0x3e1c3066	0.15252838
165	0x3e02485b	0.12722914
166	0x3e800ce4	0.25009835
167	0xbd039d4c	-0.032132432
168	0x3db0165f	0.08598017
169	0xbe0872b2	-0.13325003
170	0x3c135268	0.008991815
171	0xbce5d3c1	-0.028055074
172	0xbde979e5	-0.11400203
173	0xbc9c3185	-0.019066582
174	0x3d44907e	0.04798936
175	0xbe03fa5a	-0.1288847
176	0xbddc6549	-0.10761506
177	0x3b0f9c75	0.0021913324
178	0xbe4cb72c	-0.1999175
179	0xbb980171	-0.0046388437
180	0x3df1aef5	0.118009485
181	0x3d88c72b	0.06678613
182	0xbde2e866	-0.11079483
183	0xbd25e713	-0.040503573
184	0x3c9ae7b8	0.01890932
185	0xbe389bc8	-0.18028176
186	0x3e3be44b	0.18348806
187	0xbdf7d934	-0.12101975
188	0x3bb7723f	0.005598336
189	0x3d05b34c	0.032641694
190	0x3dedfb5d	0.11620209
191	0x3c3a49f6	0.011370173
192	0x3e4e9920	0.201756
193	0x3cb1c05d	0.021698171
194	0xbe92dc24	-0.2868358
195	0xbe82d284	-0.25551236
196	0xbe8a0456	-0.26956433
197	0x3de4047e	0.11133669
198	0xbe3fc87e	-0.18728825
199	0xbe46e9c8	-0.19425118
200	0x3d738dcf	0.05946141
201	0x3b5c78dc	0.0033641374
202	0xbdfb4bd2	-0.12270321
203	0xbddcfa02	-0.10789873
204	0x3e81b232	0.25331265
205	0x3ca2088a	0.019779462
206	0x3dbdefe9	0.09274275
207	0x3e32f410	0.17475915
208	0xbe55d2c9	-0.2088119
209	0x3e29395c	0.16525787
210	0x3dad3af3	0.08458509
211	0xbd190899	-0.037361715
212	0xbbe0660b	-0.006848102
213	0x3db7ed28	0.08980781
214	0x3e2893f7	0.16462694
215	0x3d401f04	0.04690458
216	0xbe2f93f4	-0.17146283
217	0x3ecfe382	0.40603262
218	0xbd944a2e	-0.07240711
219	0x3df317d1	0.11869777
220	0x3d7c5623	0.061605584
221	0x3e0f9b00	0.14023972
222	0x3d97b958	0.074083984
223	0x3cc77da6	0.024351906
224	0x3e0fdb8f	0.14048599
225	0xbd985544	-0.07438138
226	0x3d22a10e	0.039704375
227	0xbdeddb52	-0.11614098
228	0xbb06c0d0	-0.0020561703
229	0xbcea4104	-0.028595455
230	0xbe80bf95	-0.25146165
231	0xbe90890f	-0.28229567
232	0x3da9f405	0.08298496
233	0xbbd93be5	-0.0066294544
234	0x3ee5a944	0.44855702
235	0x3db72c8a	0.08944042
236	0xbb8f3dad	-0.004371366
237	0xbe0f909a	-0.14020005
238	0xbe421000	-0.18951416
239	0x3d0d1b0b	0.03444962
240	0x3c4d5066	0.0125313755
241	0xbe09d38a	-0.13459602
242	0xbe7fbc4a	-0.2497417
243	0xbcc00397	-0.023439212
244	0x3de48dea	0.111598805
245	0x3e1fef58	0.15618646
246	0x3e378fec	0.17925996
247	0x3d09d326	0.033648632
248	0x3e152520	0.14564943
249	0xbe39fcca	-0.18162838
250	0xbe3254ea	-0.17415205
251	0xbddac967	-0.10682946
252	0xbd358f56	-0.04432615
253	0x3de4cd26	0.111719415
254	0x3d94ce19	0.072658725
255	0x3e2f2310	0.17103219
