pol_models/dust_model_state.pt (torch, 650353 bytes, 16 tensors)

conv1.weight f4 [64, 300, 3]
0.00936088 -0.020333923 -0.011675323 0.017034883 -0.017337047 -0.021293307 -0.013973708 0.011109407
0.0039032202 -0.03485961 0.012468669 -0.0151006505 -0.009610831 -0.02173588 0.00806838 0.010734076
-0.03360612 -0.009418961 -0.016479848 -0.00570905 0.0036385325 -0.013269755 -0.010419313 0.011501498
0.017027136 -0.0013496114 -0.028713105 0.026101902 -0.03558213 -0.03249006 -0.018028192 -0.0042963317
-0.025855524 -0.0270835 0.0042884834 0.0041006124 0.0061518657 0.0027810012 -0.014762496 0.0022257275
-0.03519275 -0.03050022 -0.0060842214 0.00413233 -0.032942384 -0.031084023 -0.037739903 0.010444346
-0.013214282 -0.029236551 -0.025588466 0.021259066 -0.0018643609 0.0024692095 0.0021641122 -0.010199824
-0.014266043 -0.038457416 -0.014786144 -0.0059553063 -0.0032527042 -0.037593387 -4.5866647e-05 -0.012707945
-0.030660486 -0.008425077 -0.025808575 0.003532348 0.0018900114 -0.028376224 0.008233179 -0.009993361
-0.009535597 -0.032713737 0.027401172 -0.016273573 -0.028265515 -0.013489865 0.014393935 -0.031140922
-0.023318654 -0.030792853 -0.027120123 -0.03809897 -0.030984307 -0.004555157 -0.03806243 -0.011271689
0.00046519903 -0.013693668 -0.007858611 -0.025445364 0.022034096 0.002591432 0.014015727 0.014337172
0.011218337 0.018630296 0.007903141 -0.03511144 -0.012540078 -0.012382318 -0.034572635 0.02670432
0.026855089 0.0046301438 -0.027881952 0.014858382 0.0031888215 -0.017323388 0.021332549 0.0055654193
-0.014931823 0.024699626 0.011241644 0.018927442 -0.028653989 0.00075191446 -0.008453285 -0.026550626
-0.0039084223 0.027183048 -0.0053913086 -0.038369704 0.0016213848 0.006210086 -0.015571975 -0.0034886345
-0.025012637 0.023210302 -0.008032559 0.008059532 -0.011919354 -0.0066645527 -0.009316319 0.018545775
-0.035914563 -0.017418422 -0.028655803 -0.0017789691 -0.033666294 0.020333758 0.014699391 -0.037955955
-0.023314951 -0.0146665685 -0.016987093 -0.009644993 0.0023480149 -0.012226306 -0.0066154236 -0.012050364
0.017776366 0.024904814 -0.03855186 0.023720797 0.0077865357 0.026988497 0.026471138 -0.022420617
-0.005373458 0.007942667 -0.01187697 0.018743154 0.013508814 -0.0038004161 0.0042912937 0.0079291165
-0.0092194555 -0.030086143 0.0043049417 0.013597786 0.020499928 0.006913864 -0.010102324 -0.02140485
-0.00025068296 -0.031994708 -0.019686438 -0.02220054 -0.029331964 -0.014544718 0.00097354647 -0.02903483
0.0061526215 0.011332017 0.017870074 0.024792036 -0.017924935 -0.038041465 -0.018979525 -0.0055086077
0.0110462615 -0.0064010085 -0.0015338293 0.0013020111 -0.017507864 -0.017176563 -0.029105403 -0.028449481
0.0036371264 -0.011754322 -0.035470694 -0.0025355995 -0.022023037 -0.01906316 -0.03726893 0.0168919
-0.009942838 -0.007413547 -0.010256768 -0.014500353 -0.00764711 0.01331493 -0.036576234 -0.027138665
0.009736817 -0.027899312 -0.01974341 -0.021004396 -0.021590214 -0.01246398 0.022055503 0.027972637
-0.0031300082 -0.026548522 -0.005333909 0.0054317852 -0.022280246 -0.008509409 -0.0069741574 0.00808207
-0.015695011 -0.019987397 -0.021696707 -0.021544298 0.0137592545 -0.014181812 -0.031784315 -0.0106352465
-0.03443376 0.001980988 -0.03458997 -0.018958446 -0.018283036 0.019536931 -0.015220614 -0.012313811
-0.0073307147 -0.01409573 0.012312503 0.0076052155 0.025395734 0.007642671 -0.0068079783 0.0005376743
00000000: 605e 193c 5493 a6bc db49 3fbc bd8c 8b3c
00000010: 6c06 8ebc 4d6f aebc fbf1 64bc 3b04 363c
00000020: 2bcd 7f3b f3c8 0ebd 6349 4c3c b868 77bc
00000030: bf76 1dbc 720f b2bc 3d31 043c fadd 2f3c
00000040: 92a6 09bd fc51 1abc bf00 87bc fc12 bbbb
00000050: 7274 6e3b 6369 59bc c4b5 2abc c770 3c3c
00000060: 7e7c 8b3c 72e5 b0ba bf37 ebbc a8d3 d53c
00000070: 91be 11bd 4c14 05bd dcaf 93bc 3ec8 8cbb
00000080: f7ce d3bc 37de ddbc 6886 8c3b 6e5e 863b
00000090: 9795 c93b 7541 363b 65de 71bc 83dd 113b
000000a0: 4626 10bd 99db f9bc 265e c7bb 7f68 873b
000000b0: 98ee 06bd eca3 febc 2895 1abd c31e 2b3c
000000c0: b780 58bc 7e81 efbc e79e d1bc 7e27 ae3c
000000d0: 925d f4ba 76d2 213b c7d3 0d3b 2a1d 27bc
000000e0: 1fbc 69bc 8685 1dbd 9541 72bc bb24 c3bb
000000f0: 522b 55bb 86fb 19bd f060 40b8 fc34 50bc
00000100: b32b fbbc 5609 0abc 816c d3bc f77e 673b
00000110: 42ba f73a 4175 e8bc 75e4 063c 32bb 23bc
00000120: 313b 1cbc d7fe 05bd 6c78 e03c 2850 85bc
00000130: 158d e7bc 9804 5dbc 8ad4 6b3c 3f1b ffbc
00000140: c306 bfbc 4b41 fcbc 052b debc aa0d 1cbd
00000150: cdd2 fdbc 6d43 95bb 5ae7 1bbd e4ac 38bc
00000160: f5e5 f339 685b 60bc 67c1 00bc cc72 d0bc
00000170: d980 b43c 04d5 293b 38a2 653c 75e6 6a3c
00000180: 1ecd 373c 909e 983c 2d7c 013c 03d1 0fbd
00000190: e674 4dbc 35df 4abc 099c 0dbd 05c3 da3c
000001a0: 34ff db3c 76b8 973b b168 e4bc 9270 733c
000001b0: 8cfb 503b c7e9 8dbc 99c1 ae3c 1f5e b63b
000001c0: 9ba4 74bc df56 ca3c df2e 383c b90d 9b3c
000001d0: c5bb eabc 201c 453a a67f 0abc b380 d9bc
000001e0: 3912 80bb fcae de3c 93a9 b0bb 8d29 1dbd
000001f0: a584 d43a fa7d cb3b 9921 7fbc 93a1 64bb
00000200: 4de7 ccbc 8823 be3c ff9a 03bc 210c 043c
00000210: 6549 43bc 5262 dabb 79a3 18bc 4fed 973c
00000220: 261b 13bd 14b1 8ebc 93bf eabc 4c2c e9ba
00000230: abe5 09bd fb92 a63c b7d5 703c b477 1bbd
00000240: fffe bebc 0c4c 70bc 8428 8bbc 0806 1ebc
00000250: 27e1 193b d850 48bc 32c6 d8bb e46e 45bc
00000260: be9f 913c 2e05 cc3c 8ee8 1dbd 1e52 c23c
00000270: 3226 ff3b fb16 dd3c 00da d83c 71ab b7bc
00000280: d513 b0bb f621 023c 9f97 42bc 3e8b 993c
00000290: 1354 5d3c 6710 79bb fb9d 8c3b 20e9 013c
000002a0: 330d 17bc 3777 f6bc 7810 8d3b 40c9 5e3c
000002b0: 77ef a73c b28d e23b 3884 25bc 3959 afbc
000002c0: 196e 83b9 e20c 03bd 7445 a1bc e8dd b5bc
000002d0: 9649 f0bc f84c 6ebc 9935 7f3a 74da edbc
000002e0: ee9b c93b eda9 393c 4364 923c ab18 cb3c
000002f0: 50d7 92bc 5ed1 1bbd f37a 9bbc 8d81 b4bb
00000300: 61fb 343c 8dbf d1bb c50a c9ba 3ea8 aa3a
00000310: a76c 8fbc ddb5 8cbc 746e eebc e30e e9bc
00000320: db5c 6e3b 3395 40bc b849 11bd 4d2c 26bb
00000330: a869 b4bc 582a 9cbc 4ea7 18bd e260 8a3c
00000340: 49e7 22bc 57ed f2bb 010c 28bc e392 6dbc
00000350: 9c94 fabb dd26 5a3c f6d0 15bd e851 debc
00000360: 2c87 1f3c 198d e4bc efbc a1bc 6911 acbc
00000370: f6dd b0bc b935 4cbc bead b43c df26 e53c
00000380: d320 4dbb 497c d9bc 12c8 aebb 1efd b13b
00000390: 1085 b6bc 0c6b 0bbc 7987 e4bb a96a 043c
000003a0: d392 80bc 9cbc a3bc 4bbd b1bc ab7d b0bc
000003b0: 7f6e 613c d55a 68bc 4530 02bd 753f 2ebc
000003c0: 6a0a 0dbd 77d3 013b 36ae 0dbd be4e 9bbc
000003d0: 4ec6 95bc ea0b a03c e25f 79bc debf 49bc
000003e0: 7e36 f0bb c7f1 66bc 61ba 493c 2c35 f93b
000003f0: b70a d03c 5f6f fa3b 7615 dfbb b6f2 0c3a

conv1.bias f4 [64]
-0.0001471248 0.024508083 -0.03464036 -0.12055487 -0.01688208 -0.0014763193 -0.0056171985 -0.027409319
-0.03488302 -0.26990274 -0.010310205 -0.01699008 -0.05363724 -0.02276059 -0.013310488 -0.04478211
0.00069112715 0.14773057 0.020025717 -0.03381531 -0.021749409 0.0002122863 -0.022072539 -0.021345932
-0.009969236 -0.023959322 -0.0832284 -0.006021489 -0.22442147 -0.018490028 0.27671564 -0.019475535
0.23400654 0.002966567 -0.24720393 -0.016313687 -0.092327 -0.021346983 -0.01258476 -0.11267182
-0.17108758 0.078431785 0.13445684 -0.0013022557 0.20527692 -0.20013739 -0.11472166 0.0031468358
-0.007826148 -0.17255881 -0.037738048 -0.015360906 -0.009145258 -0.18596964 -0.15708628 0.00067442196
-0.23197229 0.25754043 -0.14867042 0.025398877 -0.0190479 -0.20120358 -0.010461955 -0.034703087
00000000: 8345 1ab9 2dc5 c83c 0de3 0dbd 79e5 f6bd
00000010: 4a4c 8abc 0e81 c1ba 7a10 b8bb 8289 e0bc
00000020: 7fe1 0ebd b130 8abe 22ec 28bc c82e 8bbc
00000030: b9b2 5bbd 6b74 babc 3c14 5abc 726d 37bd
00000040: c22c 353a af46 173e f90c a43c ec81 0abd
00000050: d12b b2bc 2b99 5e39 78d1 b4bc aadd aebc
00000060: 0256 23bc 5746 c4bc a773 aabd e94f c5bb
00000070: bece 65be 6678 97bc acad 8d3e 288b 9fbc
00000080: 699f 6f3e bc6a 423b 0723 7dbe 48a4 85bc
00000090: f015 bdbd dedf aebc 4f30 4ebc 7cc0 e6bd
000000a0: 9531 2fbe d8a0 a03d 0eaf 093e 73b0 aaba
000000b0: 1d34 523e d1f0 4cbe 31f3 eabd 253b 4e3b
000000c0: 3e39 00bc 42b3 30be 3693 1abd 4fac 7bbc
000000d0: fed5 15bc d36e 3ebe 3adb 20be b1cb 303a
000000e0: 258a 6dbe 57dc 833e 0f3d 18be 4e11 d03c
000000f0: 570a 9cbc 5008 4ebe 9f68 2bbc d324 0ebd

conv2.weight f4 [128, 64, 3]
-0.059217572 0.057580825 0.052085776 0.03475989 0.054511 -0.042735748 -0.062604636 -0.05351992
-0.051139865 -0.024826955 -0.04804015 -0.012588864 -0.058972925 -0.030430038 -0.031754784 0.002175643
-0.051642124 -0.015756316 -0.017541425 0.08110876 -0.025358144 0.0040955935 -0.047217403 -0.018499255
0.08385078 0.009374135 -0.009767051 -0.047407214 0.009725149 -0.024108626 0.0767045 0.032360233
0.06799436 -0.055966403 -0.034543104 0.048945602 0.0032069394 0.036056224 -0.021337323 0.045079313
-0.042948637 -0.021855513 0.07575693 0.071534164 0.031954445 0.060958374 0.05296427 0.0047339
-0.07159342 0.068734586 0.06389572 -0.07892366 -0.017025696 0.06304997 -0.12606074 0.035762675
0.069066234 0.03515431 -0.02388463 0.044025723 0.009541151 0.0012184518 -0.037811488 0.028888311
0.035580073 -0.055427276 0.011809643 0.049681287 -0.058565635 0.011284218 -0.0014901243 0.066424325
0.01576348 0.011591055 -0.032145526 0.07042328 0.027344154 -0.039923035 0.08320658 -0.011325502
-0.18044052 0.03763635 0.05844016 -0.039731268 -0.04304639 0.04528759 0.049213108 -0.022206962
0.06106749 -0.041048724 0.076901354 -0.043146726 0.19988534 -0.013026449 -0.04797763 0.043986656
-0.041022062 -0.002613521 -0.023920316 -0.0011561867 -0.0953162 0.04673512 -0.0018634839 0.011435642
0.046900373 -0.0038449576 -0.052054718 0.024779698 0.020016754 0.012889257 0.035343092 0.057488397
-0.031596735 -0.0776224 -0.05371457 -0.0189581 -0.054256637 -0.06853221 0.021371024 -0.021316633
0.06783533 0.01485684 0.037119623 -0.06443673 -0.13850455 0.060270544 0.13204394 -0.060407456
-0.05686883 0.03607137 0.074611425 0.040866736 -0.07557748 0.04058758 0.04943813 -9.16485e-05
0.05206492 0.06264041 0.010604378 0.043211635 -0.01118972 0.010760893 0.04552415 -0.0078527285
-0.046906363 -0.057669196 0.026706297 0.026504455 -0.10035219 0.061566684 0.07127759 0.030974664
0.03192841 0.0031321773 -0.04425757 -0.026916843 0.028556248 -0.04898975 0.044965345 -0.051215447
0.06412363 0.077455126 0.051910706 -0.042742327 0.024311416 0.013100468 -0.0013389227 -0.04864493
-0.0820158 -0.007845522 -0.035925604 -0.022207856 -0.13698535 -0.144482 0.03303498 0.026230445
0.039105088 0.0017694932 -0.02857648 -0.0887417 -0.059054986 0.020821275 0.066417724 0.028727444
-0.06595784 0.087900266 0.037967414 -0.040475547 0.009900039 -0.04170081 -0.00781914 0.18204935
0.045899395 0.036161393 0.012335715 0.04689041 -0.081558384 0.053353995 -0.0006720676 0.062497534
0.06319225 -0.0008691459 0.017359536 -0.08197646 -0.0081043355 0.05247696 -0.05062863 -0.07254483
0.0031878767 0.02120477 -0.034832135 0.0552492 -0.03314726 -0.06909815 0.063955925 -0.046033114
-0.038971014 0.05999121 -0.017568456 0.047753416 0.06392742 -0.20079562 -0.020406323 -0.018091977
-0.0504273 0.0039369315 0.027201083 -0.009034368 0.007257249 0.08053316 -0.092659324 0.057610277
0.0119429715 0.036539793 0.031517085 -0.06686117 -0.06581949 0.06325925 -0.03155598 -0.0053870217
-0.01720585 -0.068935074 -0.04533273 0.08586838 0.06779713 0.025741993 0.011723993 0.090847865
-0.18202327 -0.0203538 -0.05567951 0.04008248 0.006666017 0.065169655 -0.009841167 0.027819749
00000000: 208e 72bd dfd9 6b3d e557 553d 6360 0e3d
00000010: ed46 5f3d ae0b 2fbd dc36 80bd b437 5bbd
00000020: 0978 51bd e661 cbbc c0c5 44bd 8641 4ebc
00000030: 988d 71bd 6a48 f9bc 4e11 02bd 3c95 0e3b
00000040: b186 53bd 6413 81bc 09b3 8fbc 591c a63d
00000050: e2bb cfbc 5434 863b 0967 41bd c08b 97bc
00000060: f5b9 ab3d f995 193c fb05 20bc 112e 42bd
00000070: 3b56 1f3c 747f c5bc 4017 9d3d 2a8c 043d
00000080: a140 8b3d 073d 65bd 127d 0dbd 2f7b 483d
00000090: 842b 523b b1af 133d 9ccb aebc 16a5 383d
000000a0: e9ea 2fbd 550a b3bc 7326 9b3d 8180 923d
000000b0: aae2 023d 7daf 793d 10f1 583d d51e 9b3b
000000c0: 929f 92bd b8c4 8c3d c2db 823d baa2 a1bd
000000d0: 7979 8bbc 5820 813d 1116 01be e27b 123d
000000e0: 9972 8d3d f7fd 0f3d b3a9 c3bc 5154 343d
000000f0: 7d52 1c3c 75b4 9f3a 38e0 1abd 2ea7 ec3c
00000100: 69bc 113d b607 63bd 3c7d 413c 9b7e 4b3d
00000110: 85e2 6fbd 71e1 383c 4650 c3ba 7a09 883d
00000120: 6a22 813c 69e8 3d3c 07ab 03bd 153a 903d
00000130: d900 e03c 5686 23bd 3668 aa3d 998e 39bc
00000140: 66c5 38be 9328 1a3d f35e 6f3d 41bd 22bd
00000150: 6951 30bd 7b7f 393d af93 493d 60eb b5bc
00000160: e821 7a3d b522 28bd 757e 9d3d 9fba 30bd
00000170: beae 4c3e e36c 55bc 3184 44bd 5a2b 343d
00000180: c006 28bd 9b47 2bbb 8af4 c3bc 308b 97ba
00000190: 2435 c3bd 536d 3f3d 2540 f4ba 8f5c 3b3c
000001a0: 9b1a 403d affb 7bbb 5437 55bd cbfe ca3c
000001b0: 2dfa a33c 762d 533c ebc3 103d f478 6b3d
000001c0: 946b 01bd 7ef8 9ebd cf03 5cbd 044e 9bbc
000001d0: 353c 5ebd 9e5a 8cbd 4912 af3c 38a0 aebc
000001e0: 40ed 8a3d 1a6a 733c bf0a 183d 68f7 83bd
000001f0: 23d4 0dbe 3fde 763d 8736 073e cf6d 77bd
00000200: 4aef 68bd 93bf 133d e0cd 983d e163 273d
00000210: 5ec8 9abd 2a3f 263d a37f 4a3d 6a33 c0b8
00000220: 0742 553d 9e49 803d fcbd 2d3c affe 303d
00000230: 1655 37bc 754e 303c 8877 3a3d bba8 00bc
00000240: e320 40bd 8936 6cbd 2ac7 da3c df1f d93c
00000250: 7385 cdbd 592d 7c3d fcf9 913d 94be fd3c
00000260: 5dc7 023d 3745 4d3b 6d47 35bd b680 dcbc
00000270: cbee e93c 7aa9 48bd 952d 383d 4ac7 51bd
00000280: 4053 833d cba0 9e3d 52a0 543d 9412 2fbd
00000290: bc28 c73c 58a3 563c ca7e afba e83f 47bd
000002a0: e6f7 a7bd 818a 00bc ba26 13bd 40ed b5bc
000002b0: e345 0cbe 17f3 13be b04f 073d 3be1 d63c
000002c0: a82c 203d 57ee e73a 3919 eabc 35be b5bd
000002d0: a4e3 71bd 6191 aa3c 0406 883d d155 eb3c
000002e0: e714 87bd 0e05 b43d b883 1b3d b0c9 25bd
000002f0: c633 223c 78ce 2abd da1b 00bc 256b 3a3e
00000300: 0101 3c3d f81d 143d bd1b 4a3c 2910 403d
00000310: 1508 a7bd b889 5a3d b12d 30ba 6afd 7f3d
00000320: f06a 813d 65d7 63ba 9635 8e3c 46e3 a7bd
00000330: 0cc8 04bc 15f2 563d f75f 4fbd 6292 94bd
00000340: b2eb 503b a0b5 ad3c 24ac 0ebd fc4c 623d
00000350: 6cc5 07bd 5583 8dbd 53fb 823d 388d 3cbd
00000360: 12a0 1fbd 58b9 753d b9eb 8fbc 1699 433d
00000370: 61ec 823d 5e9d 4dbe 292b a7bc a035 94bc
00000380: db8c 4ebd 6001 813b ced4 de3c e304 14bc
00000390: 38ce ed3b 92ee a43d 2cc4 bdbd c1f8 6b3d
000003a0: 74ac 433c c0aa 153d 0f18 013d 82ee 88bd
000003b0: 5ecc 86bd 118e 813d d840 01bd 9d85 b0bb
000003c0: 48f3 8cbc d52d 8dbd d0ae 39bd c3db af3d
000003d0: 39d9 8a3d dfe0 d23c fe15 403c 720e ba3d
000003e0: 4f64 3abe 03bd a6bc 3310 64bd 872d 243d
000003f0: 9b6e da3b ab77 853d d93c 21bc 3ee6 e33c

conv2.bias f4 [128]
-0.033249125 -0.1505627 -0.14545864 -0.024005754 0.04062124 -0.1656543 -0.0716267 0.24615252
-0.0619856 0.19995017 -0.16379678 -0.21873936 0.010449567 -0.040402252 -0.032534212 0.16687551
-0.13573477 -0.18600003 -0.106981754 -0.093061395 -0.113358535 0.038768925 -0.14538649 -0.1522057
-0.16462533 -0.059055105 -0.041453544 0.041284725 -0.06336297 -0.048404817 -0.050495252 -0.14606246
0.1340387 -0.019445512 -0.09942781 -0.18788429 0.20596343 0.11346534 -0.19515902 -0.068543784
0.03865064 0.10611563 -0.22892116 -0.024940126 -0.09568275 0.09788834 -0.18926919 -0.09433988
0.11669252 -0.19163726 -0.15683912 0.1754909 -0.00070758973 -0.08320459 -0.12787232 0.24469636
0.19259077 -0.16951546 -0.16159184 -0.06005268 -0.08889189 -0.05760326 -0.1897773 -0.12221387
-0.17282702 -0.0927447 -0.056657776 -0.08651146 -0.052716102 -0.18635887 -0.027695773 -0.09876188
-0.069052085 -0.16123775 -0.07754082 -0.11637249 -0.09197903 0.16794485 0.07285223 -0.097007126
-0.20940597 -0.20430046 -0.12088845 -0.07306004 -0.072066836 -0.012048187 -0.0761173 -0.0609632
-0.09970398 0.122111864 -0.105269514 -0.08052195 0.04304139 -0.06772976 -0.19289128 0.07300358
0.10753738 -0.17513314 -0.047325574 0.16351666 -0.16876656 -0.11188027 0.2757942 -0.045017526
-0.050957315 -0.14809795 -0.14597137 0.22989507 -0.22905238 -0.117388315 -0.00926873 -0.12811294
-0.07429201 -0.11732706 -0.10778146 -0.11572302 0.12105045 -0.10494937 0.2683938 -0.05450608
0.19749321 -0.15727557 -0.14729424 -0.07322594 -0.14659056 0.043525156 -0.12004926 -0.07128532
00000000: 3c30 08bd 1c2d 1abe 1cf3 14be b7a7 c4bc
00000010: 7562 263d 48a1 29be 05b1 92bd 680f 7c3e
00000020: 9de4 7dbd bdbf 4c3e 58ba 27be 36fd 5fbe
00000030: a934 2b3c d57c 25bd 9842 05bd 6ae1 2a3e
00000040: 0efe 0abe cb76 3ebe 4019 dbbd f996 bebd
00000050: 8528 e8bd 2acc 1e3d 32e0 14be d0db 1bbe
00000060: 8b93 28be c4e3 71bd 31cb 29bd 2c1a 293d
00000070: 72c4 81bd 2144 46bd 1cd4 4ebd 6691 15be
00000080: 7141 093e 324c 9fbc cfa0 cbbd bd64 40be
00000090: 14e8 523e 8460 e83d c4d7 47be af60 8cbd
000000a0: 2250 1e3d 2753 d93d 4f6a 6abe 3c4f ccbc
000000b0: 51f5 c3bd af79 c83d c8cf 41be 4435 c1bd
000000c0: 7dfc ee3d 8f3c 44be 6f9a 20be e3b3 333e
000000d0: 8b7d 39ba 2b67 aabd f6f0 02be af91 7a3e
000000e0: 8436 453e 7695 2dbe 5578 25be cdf9 75bd
000000f0: f40c b6bd 65f1 6bbd fb54 42be 444b fabd
00000100: 91f9 30be eff0 bdbd fc11 68bd ec2c b1bd
00000110: d7ec 57bd dcd4 3ebe 3fe2 e2bc ab43 cabd
00000120: 2e6b 8dbd 821b 25be b9cd 9ebd b354 eebd
00000130: 805f bcbd bcf9 2b3e 8d33 953d acab c6bd
00000140: 856e 56be 2434 51be 5d94 f7bd 81a0 95bd
00000150: c797 93bd c265 45bc 63e3 9bbd 8cb4 79bd
00000160: 9a31 ccbd c915 fa3d 8b97 d7bd b1e8 a4bd
00000170: 2b4c 303d e7b5 8abd 4b85 45be e782 953d
00000180: 8f3c dc3d 1a56 33be 76d8 41bd e970 273e
00000190: 24d1 2cbe 7c21 e5bd e634 8d3e 4c64 38bd
000001a0: 9eb8 50bd fda6 17be 8579 15be 9d69 6b3e
000001b0: b58c 6abe 4969 f0bd dfdb 17bc 0a30 03be
000001c0: 6926 98bd 2b49 f0bd 87bc dcbd 3100 edbd
000001d0: 4ce9 f73d b2ef d6bd ea6a 893e c441 5fbd
000001e0: a93b 4a3e d90c 21be 4dd4 16be 7bf7 95bd
000001f0: d61b 16be 6f47 323d 63dc f5bd 0afe 91bd

lstm.weight_ih_l0 f4 [200, 128]
-0.044623494 0.033737935 -0.21422172 0.016657762 0.12398534 0.03236212 -0.07627238 -0.0027630976
0.029828947 0.10032024 -0.036863126 -0.09717378 -0.17149584 -0.19409797 -0.034668546 0.040476948
0.14696193 -0.13665915 0.104224525 -0.13396366 -0.034693934 -0.12036685 0.019384157 0.03262384
0.11298858 0.1980202 0.05277761 -0.042580865 -0.06587216 -0.096086256 0.10045685 -0.03203948
0.2870294 0.05147044 -0.14707822 0.16407268 0.026454287 0.048617918 0.014043603 -0.075277306
-0.07045848 -0.05006178 0.12846448 0.0033726664 0.09800416 0.11382537 0.0863531 0.028145658
0.023200335 0.05905033 0.036093626 0.00847819 0.121045694 -0.03496421 0.0583938 0.43329063
0.21298786 0.0014765778 -0.004104829 -0.036733117 1.7632265e-05 0.022748137 0.0017355209 0.11086628
0.24418792 0.0816485 -0.13091582 0.056454193 -0.032270882 0.055090595 0.10254597 0.1845579
0.027654354 0.0695848 0.06978962 0.08213694 -0.045050178 -0.10078863 0.15884012 -0.047126867
0.29740217 0.13355418 -0.1007229 0.1773867 -0.030433705 -0.024225585 0.09006732 0.08998819
-0.08796192 0.13932365 0.0777413 0.097857706 0.2589805 0.090738304 -0.09338501 -0.20185775
0.17215975 0.043505132 0.30630535 0.063483246 -0.03977247 0.11337704 -0.023903415 0.101397134
-0.13244998 0.11608659 0.018834723 0.28645268 -0.043133467 0.082509205 0.0921124 0.021398043
0.10971594 0.07053517 -0.057392348 0.034071214 -0.032215603 -0.01867557 0.18472339 0.12569948
-0.053026855 0.022762569 -0.03645303 0.054029148 -0.03712005 0.041134518 0.2637649 0.046527907
-0.08110502 0.03854519 -0.04648309 0.040396646 0.15800773 -0.13008156 0.15271023 0.03953409
-0.09331931 -0.0025790583 -0.024400054 -0.112434514 -0.014575255 -0.15502618 0.122312404 0.16184445
-0.013098044 -0.10788385 0.070117466 -0.058889255 -0.06096788 0.07169371 0.043506034 -0.07567043
-0.1015701 -0.13621673 -0.12064216 0.16555421 -0.063356675 0.0012767934 0.049242917 -0.15557134
0.11968304 0.044267904 0.027659584 0.0052770716 0.19743372 0.021097848 -0.012958225 0.06505548
-0.04561165 0.07291003 -0.025696024 -0.120911546 -0.036111392 -0.03802354 -0.05351986 -0.07774241
0.018952934 0.008591727 0.052671734 0.06584139 -0.092024125 0.078483425 -0.07304563 0.18096268
0.1871886 0.01628364 0.063241504 0.07362499 -0.059427343 -0.11723704 0.050546635 -0.063169464
-0.11507589 -0.028385231 -0.045386754 -0.091043375 -0.008328471 -0.14129782 -0.20647237 -0.016777568
0.10438552 -0.07858068 0.07375648 0.22644177 0.043463733 0.01940188 0.020846533 -0.011967235
-0.09141316 -0.17036103 0.024469055 -0.16204114 0.05315857 -0.010826297 -0.03007821 -0.09163197
-0.083900474 0.2478419 -0.12160354 0.093927816 0.0077304346 -0.10324794 -0.037731882 0.061982635
-0.022502776 -0.16103528 0.044117708 0.13703261 -0.073753044 -0.120407954 0.059387002 0.043380793
-0.023932993 0.0897085 -0.03649252 0.20914301 -0.006131874 -0.06848818 0.16603518 -0.09185956
0.09081494 -0.012172719 -0.123002544 -0.16466624 0.05471912 -0.039418254 0.26417327 0.10734103
-0.07841925 -0.025458386 -0.17069836 -0.05362945 0.06531495 -0.0014234902 0.05924757 0.014888859
00000000: 20c7 36bd ca30 0a3d f05c 5bbe dc75 883c
00000010: 07ec fd3d 248e 043d b234 9cbd 1615 35bb
00000020: d65b f43c b374 cd3d cafd 16bd 0c03 c7bd
00000030: 9b9c 2fbe 9ec1 46be 9b00 0ebd 28cb 253d
00000040: 307d 163e 60f0 0bbe ab73 d53d c52d 09be
00000050: 3a1b 0ebd e582 f6bd 86cb 9e3c 93a0 053d
00000060: 8e66 e73d cfc5 4a3e 562d 583d 4669 2ebd
00000070: fce7 86bd dfc8 c4bd 52bc cd3d d43b 03bd
00000080: 84f5 923e abd2 523d ac9b 16be ab02 283e
00000090: a9b6 d83c 9523 473d 2417 663c fd2a 9abd
000000a0: 894c 90bd 950d 4dbd 318c 033e f407 5d3b
000000b0: 68b6 c83d 471d e93d e5d9 b03d b991 e63c
000000c0: a10e be3c c2de 713d e9d6 133d 1be8 0a3c
000000d0: cee6 f73d a236 0fbd 562e 6f3d 45d8 dd3e
000000e0: 7d19 5a3e bb89 c13a cd81 86bb 7775 16bd
000000f0: 00e9 9337 4d5a ba3c 6b7a e33a dc0d e33d
00000100: 660c 7a3e 5437 a73d cc0e 06be 833c 673d
00000110: 792e 04bd ada6 613d 9f03 d23d bffc 3c3e
00000120: 628b e23c 7a82 8e3d dced 8e3d 6937 a83d
00000130: 8986 38bd 456a cebd fca6 223e 1a08 41bd
00000140: 1945 983e 6dc2 083e cf47 cebd dca4 353e
00000150: 1b50 f9bc bc74 c6bc 3775 b83d ba4b b83d
00000160: 6125 b4bd dcaa 0e3e d536 9f3d 9f69 c83d
00000170: 1899 843e 01d5 b93d a440 bfbd ccb3 4ebe
00000180: a54a 303e 7032 323d 0ed4 9c3e 8103 823d
00000190: 75e8 22bd 3932 e83d 18d1 c3bc 4da9 cf3d
000001a0: f8a0 07be cebe ed3d 474b 9a3c eda9 923e
000001b0: b8ac 30bd 96fa a83d 6da5 bc3d f34a af3c
000001c0: c0b2 e03d be74 903d 3d14 6bbd 428e 0b3d
000001d0: 82f4 03bd 82fd 98bc 2128 3d3e 5db7 003e
000001e0: b032 59bd 9178 ba3c c64f 15bd ab4d 5d3d
000001f0: 320b 18bd ab7c 283d 310c 873e 0c94 3e3d
00000200: 641a a6bd 90e1 1d3d 0d65 3ebd f476 253d
00000210: c7cc 213e 1a34 05be 1260 1c3e 7fee 213d
00000220: 321e bfbd 6b05 29bb 9fe2 c7bc 1144 e6bd
00000230: 0dcd 6ebc 2fbf 1ebe ed7e fa3d 8dba 253e
00000240: 2e99 56bc 35f2 dcbd bf99 8f3d dc35 71bd
00000250: 75b9 79bd 27d4 923d 6233 323d 19f9 9abd
00000260: fc03 d0bd 667c 0bbe 3d13 f7bd 0b87 293e
00000270: 25c1 81bd 145a a73a f1b2 493d 184e 1fbe
00000280: 621c f53d 4352 353d 5a96 e23c 49eb ac3b
00000290: 112c 4a3e 65d5 ac3c bc4e 54bc cf3b 853d
000002a0: 48d3 3abd db51 953d 7880 d2bc 79a0 f7bd
000002b0: 8ae9 13bd 92be 1bbd a437 5bbd 6a37 9fbd
000002c0: 2f43 9b3c 51c4 0c3c 51be 573d dad7 863d
000002d0: 2577 bcbd ebbb a03d f298 95bd 484e 393e
000002e0: 5eae 3f3e 4565 853c c384 813d b3c8 963d
000002f0: 166a 73bd f919 f0bd fd09 4f3d fe5e 81bd
00000300: e9ac ebbd 2588 e8bc 76e7 39bd f374 babd
00000310: 2474 08bc 60b0 10be 7e6d 53be 1c71 89bc
00000320: 13c8 d53d e8ee a0bd a30d 973d 5ae0 673e
00000330: 0707 323d b1f0 9e3c 59c6 aa3c 3912 44bc
00000340: d336 bbbd 1f73 2ebe 5473 c83c 1dee 25be
00000350: cdbc 593d c860 31bc 9466 f6bc 8ba9 bbbd
00000360: 03d4 abbd 44ca 7d3e 470b f9bd 3a5d c03d
00000370: 964f fd3b a873 d3bd bf8c 1abd 81e1 7d3d
00000380: be57 b8bc 6fe6 24be c5b4 343d 4752 0c3e
00000390: d60b 97bd 7298 f6bd c93f 733d 0fb0 313d
000003a0: 200f c4bc 17b9 b73d 2e79 15bd 9629 563e
000003b0: e3ed c8bb 8843 8cbd 2005 2a3e dd20 bcbd
000003c0: 2ffd b93d 1670 47bc c2e8 fbbd 449e 28be
000003d0: 2821 603d 0975 21bd b841 873e 9dd5 db3d
000003e0: 469a a0bd 1b8e d0bc 8dcb 2ebe 8eaa 5bbd
000003f0: d8c3 853d 6894 baba 94ad 723d 67f0 733c

lstm.weight_hh_l0 f4 [200, 50]
-0.14146993 0.2935157 -0.03489633 0.12218911 0.057976227 -0.10615663 0.22742754 -0.18198372
-0.08378364 -0.034231357 -0.060862605 -0.005251607 0.08137512 -0.085528895 -0.26014498 -0.040654786
-0.0080587445 -0.081564136 -0.21964864 -0.14943497 -0.00074674905 -0.24364759 -0.2595017 0.043879006
-0.15991242 -0.019472327 0.2284992 -0.20622554 0.07902169 -0.04703548 -0.17404579 0.08394189
0.12006366 0.0219261 0.018008428 0.050160494 -0.09948723 0.09556966 0.18710539 0.1298074
-0.007882284 0.065944225 0.12724122 -0.20900394 -0.20938843 -0.032930657 0.2575632 0.12916501
0.069697775 -0.20872584 0.12054742 0.024750821 0.053981178 0.17845014 -0.06181118 0.08096316
-0.114379846 -0.13082467 -0.020916015 0.11793999 0.13822134 0.18678999 0.11330119 0.11270817
-0.22820683 -0.101344 0.034078345 -0.12557524 0.09732529 -0.10574639 0.08637793 -0.041310217
-0.09108649 0.082175255 -0.03636224 -0.05963113 0.012557485 0.012353289 0.06302193 0.023512928
-0.083481625 -0.032410298 0.08002623 -0.081350744 -0.14275664 -0.02342143 -0.054517444 0.07528147
-0.0014082484 -0.033273626 -0.23768142 -0.07762424 -0.05721189 0.003251799 0.042054046 -0.060150858
-0.019217055 0.030827122 -0.10208329 -0.14146037 -0.11054297 0.19286047 -0.017816177 0.065460086
-0.06714688 0.16450761 0.3990721 -0.1346645 -0.031210855 -0.22140288 -0.14654638 -0.03137316
-0.059612714 -0.08816285 -0.279773 0.06937509 -0.32469 0.023504738 -0.010279984 0.015391953
-0.037424978 -0.27170402 -0.11956977 -0.021667276 -0.3019322 0.059450626 0.18858844 -0.1377562
-0.08480098 -0.023285981 0.019736918 0.19002819 -0.03975408 0.06121693 0.15365301 -0.06536844
-0.014718949 0.18022808 -0.04597473 0.09602261 0.18760598 -0.079263285 -0.03946651 -0.31395718
0.15415445 -0.14150132 0.41212913 0.08127806 -0.05320582 0.15660968 0.17915633 -0.22016454
0.05505473 -0.0369655 0.12166491 0.03780839 0.028975451 0.20390695 0.080666065 0.111954026
0.14129269 0.16637714 -0.026805976 -0.17179613 0.051198993 -0.41924337 0.011501341 -0.04333394
-0.096868426 -0.08622909 0.107347086 0.023763772 -0.14502802 -0.13132901 -0.015541513 0.0047105984
-0.12851666 0.03555277 0.21213625 0.11763498 -0.07019584 0.04848125 -0.22704615 -0.12652846
-0.04143093 -0.22936173 -0.070294164 -0.04703791 0.029616972 -0.19034447 -0.07726659 0.14935306
0.027955178 0.0895833 -0.044535946 -0.22059882 -0.0673745 -0.013122026 0.18254316 0.18678011
0.13096753 -0.042679045 -0.059061293 0.23678364 -0.14711022 -0.114952974 -0.069724 0.20828672
-0.044531196 0.04265857 0.06165056 0.14431466 -0.033409867 0.12704548 -0.11246082 0.051047157
-0.014533147 -0.038004804 -0.07948708 -0.2140145 0.14483292 0.1207759 0.21523033 -0.030979902
0.060541566 -0.20276888 -0.09584019 0.020508327 0.089567535 -0.07657996 0.13190506 -0.07629338
-0.21956775 -0.085454546 0.027445825 0.17304493 -0.060199242 -0.14545515 0.09416078 -0.13214205
-0.25119087 0.18741657 0.04422169 0.07694329 0.18670595 0.0199881 0.13980404 0.15521063
0.12886412 0.08897789 -0.20690335 -0.010066154 -0.15419206 -0.09377761 -0.1606242 0.109583504
00000000: 7edd 10be b147 963e 74ef 0ebd 493e fa3d
00000010: 7b78 6d3d a668 d9bd c4e2 683e f159 3abe
00000020: c296 abbd 2e36 0cbd 114b 79bd ac15 acbb
00000030: 00a8 a63d c629 afbd b931 85be a285 26bd
00000040: d308 04bc 190b a7bd 93eb 60be 7b05 19be
00000050: 7bc1 43ba c17e 79be 68dd 84be 79ba 333d
00000060: 15c0 23be 6e84 9fbc b2fb 693e ca2c 53be
00000070: 20d6 a13d 47a8 40bd 0f39 32be bae9 ab3d
00000080: f0e3 f53d 5d9e b33c 6986 933c 1775 4d3d
00000090: f6bf cbbd 07ba c33d 8e98 3f3e 3bec 043e
000000a0: b224 01bc c40d 873d 864b 023e 2105 56be
000000b0: ec69 56be 4ce2 06bd 53df 833e d543 043e
000000c0: b5bd 8e3d 3abc 55be 91e1 f63d 3cc2 ca3c
000000d0: 5e1b 5d3d a2bb 363e b82d 7dbd 03d0 a53d
000000e0: fb3f eabd e7f6 05be 1058 abbc 858a f13d
000000f0: e589 0d3e e045 3f3e 740a e83d 8bd3 e63d
00000100: 0daf 69be 718d cfbd bc95 0b3d cc96 00be
00000110: 7b52 c73d 9091 d8bd eae6 b03d e734 29bd
00000120: 8e8b babd 804b a83d 92f0 14bd c63f 74bd
00000130: e9bd 4d3c 7365 4a3c a411 813d 2f9e c03c
00000140: 6af8 aabd a9c0 04bd cbe4 a33d 389b a6bd
00000150: cc2e 12be 4cde bfbc af4d 5fbd 2c2d 9a3d
00000160: fa94 b8ba ed49 08bd c262 73be 75f9 9ebd
00000170: 0457 6abd 221c 553b dd40 2c3d bf60 76bd
00000180: 166d 9dbc 2989 fc3c 0b11 d1bd fdda 10be
00000190: 5a64 e2bd 377d 453e 3bf3 91bc f00f 863d
000001a0: 4e84 89bd af74 283e 2e53 cc3e 7ee5 09be
000001b0: e8ad ffbc 70b7 62be 4110 16be 2581 00bd
000001c0: 762c 74bd b98e b4bd 683e 8fbe 8714 8e3d
000001d0: c53d a6be 028d c03c 616d 28bc 882e 7c3c
000001e0: ef4a 19bd ca1c 8bbe ffe0 f4bd 927f b1bc
000001f0: db96 9abe 8082 733d 541d 413e f60f 0dbe
00000200: 23ac adbd 3ec2 bebc 51af a13c c096 423e
00000210: 2dd5 22bd 9bbe 7a3d 3757 1d3e e3df 85bd
00000220: bf27 71bc b68d 383e 0050 3cbd 81a7 c43d
00000230: c81b 403e ca54 a2bd a3a7 21bd ffbe a0be
00000240: aada 1d3e b9e5 10be 9702 d33e 1d75 a63d
00000250: 59ee 59bd 4a5e 203e c274 373e d072 61be
00000260: 1281 613d 2369 17bd 742b f93d f8dc 1a3d
00000270: ed5d ed3c fccc 503e 4034 a53d 2748 e53d
00000280: 08af 103e c55e 2a3e 3598 dbbc 53eb 2fbe
00000290: 09b6 513d 11a7 d6be 1f70 3c3c ee7e 31bd
000002a0: f462 c6bd e198 b0bd cad8 db3d 3eac c23c
000002b0: 3a82 14be 1d7b 06be d5a1 7ebc 5d5b 9a3b
000002c0: df99 03be c89f 113d 3f3a 593e 9cea f03d
000002d0: d6c2 8fbd 4694 463d c97e 68be ad90 01be
000002e0: 7bb3 29bd cddd 6abe 63f6 8fbd d3aa 40bd
000002f0: 4b9f f23c a9e9 42be f23d 9ebd 02f0 183e
00000300: 4202 e53c 7377 b73d 536b 36bd a8e4 61be
00000310: a4fb 89bd c4fd 56bc 98ec 3a3e 4943 3f3e
00000320: 5a1c 063e 39d0 2ebd 41ea 71bd 6977 723e
00000330: 10a4 16be 776c ebbd 75cb 8ebd 1d49 553e
00000340: 5866 36bd c1ba 2e3d 4c85 7c3d 39c7 133e
00000350: c9d8 08bd 3618 023e dc51 e6bd d316 513d
00000360: 701c 6ebc edaa 1bbd 1fca a2bd 9e26 5bbe
00000370: 154f 143e 5b59 f73d 5765 5c3e 90c9 fdbc
00000380: 6ffa 773d a5a2 4fbe dd47 c4bd 1401 a83c
00000390: 2f6f b73d f4d5 9cbd 1f12 073e b43f 9cbd
000003a0: 5ed6 60be cb02 afbd 11d6 e03c b132 313e
000003b0: 7b93 76bd 32f2 14be 5ed7 c03d 3f50 07be
000003c0: 179c 80be 21ea 3f3e ce21 353d 7294 9d3d
000003d0: d82f 3f3e 15be a33c ca28 0f3e 89ef 1e3e
000003e0: f5f4 033e 0a3a b63d 79de 53be 83ec 24bc
000003f0: 86e4 1dbe 7a0e c0bd ac7a 24be 516d e03d

lstm.bias_ih_l0 f4 [200]
0.077434145 -0.08101032 -0.11769487 0.05866322 0.0637312 -0.16845793 0.15975614 -0.0441523
-0.12738003 -0.009636628 -0.24574152 -0.10422762 -0.13330485 0.018430205 0.09268496 0.16899016
-0.029161341 -0.13467099 0.057588574 0.03055619 0.00972159 0.016732287 -0.017382422 0.043178126
0.021644806 -0.061683632 -0.0067495177 -0.16046748 -0.015085358 -0.21187854 -0.21634214 -0.20061263
-0.2046003 0.10807698 -0.11666398 0.23670731 0.16202785 0.03126311 -0.17389695 0.2636993
0.09865158 -0.11462515 -0.026701028 -0.21831481 -0.09347257 -0.27470148 0.004268187 -0.015469681
-0.16550118 0.0002991667 0.01026413 -0.12616342 -0.086168036 -0.009596599 0.04771204 -0.15227915
-0.2069955 -0.099601336 -0.19720787 -0.00084664614 -0.02452174 -0.18030548 -0.022959111 -0.14290741
0.016907876 -0.20829305 -0.13936913 -0.106671676 -0.012435465 -0.07616995 -0.038800582 -0.16067255
-0.32131085 -0.028799333 0.024304057 -0.12616214 -0.017300567 -0.021558369 -0.07914712 -0.23631628
-0.084867075 -0.16306564 -0.007550055 -0.116898745 -0.1795512 -0.1723262 -0.115353525 -0.07702725
-0.06556939 -0.07593483 -0.095945306 0.06739501 -0.016953204 -0.15269285 -0.16224605 -0.09582082
-0.25674444 -0.071813114 -0.1390753 -0.14493619 -0.14570105 0.10800636 -0.12470694 0.114594966
-0.09758017 -0.07046455 0.15408757 0.052141104 0.030011978 -0.07623818 -0.05752347 -0.030678015
0.07668394 -0.09933377 -0.15845338 -0.04667349 0.020138742 0.07134372 -0.14121433 -0.14971864
-0.02984795 -0.0926991 -0.12563267 -0.12171592 0.13841863 -0.046289876 0.09231436 -0.09081302
-0.056526307 -0.018327395 -0.13855842 -0.03124713 -0.045383185 0.13824674 -0.02699805 -0.023453243
-0.11566831 0.14623298 0.030210624 -0.007184188 -0.034354657 -0.17377271 0.050836783 -0.08677161
-0.07261902 -0.13166904 -0.0071014767 -0.016740894 -0.11205619 -0.055381697 0.11005076 -0.079489455
-0.12332139 -0.16741523 0.031102426 -0.20870636 0.05552244 -0.09190085 -0.1797867 -0.23887935
-0.082213655 0.09138867 0.054791488 -0.018066099 0.22019316 0.05510932 -0.0058848523 -0.057388134
-0.07989551 0.013181314 -0.22150946 0.041256744 -0.022727352 -0.09892361 0.028374577 -0.027849434
-0.06330545 -0.23934026 0.11180133 -0.25955972 -0.1374845 -0.062217724 -0.25100252 -0.06865454
0.066141985 0.06768851 0.028238637 -0.11626643 -0.150934 -0.06101363 0.13084851 -0.103770666
-0.28620973 0.01438496 -0.20353287 -0.09737723 0.12196205 -0.20393765 -0.025391776 -0.042460397
00000000: cb95 9e3d bde8 a5bd 020a f1bd d848 703d
00000010: 8185 823d 3c80 2cbe 1d97 233e 0bd9 34bd
00000020: e96f 02be f3e2 1dbc aaa3 7bbe 4a75 d5bd
00000030: 1181 08be f1fa 963c 9dd1 bd3d c20b 2d3e
00000040: c4e3 eebc 31e7 09be ffe1 6b3d fa50 fa3c
00000050: 4e47 1f3c 2612 893c 9565 8ebc 8cdb 303d
00000060: 7350 b13c faa7 7cbd 0f2b ddbb 9651 24be
00000070: 9428 77bc b0f6 58be cb88 5dbe 666d 4dbe
00000080: be82 51be 7757 dd3d 86ed eebd 6763 723e
00000090: a1ea 253e bf0d 003d 0b12 32be 9803 873e
000000a0: d709 ca3d 97c0 eabd 1dbc dabc eb8d 5fbe
000000b0: 8c6e bfbd aca5 8cbe 26dc 8b3b 8b74 7dbc
000000c0: 2479 29be 7ad9 9c39 e22a 283c fc30 01be
000000d0: de78 b0bd 0e3b 1dbc b36d 433d 11ef 1bbe
000000e0: a1f6 53be c9fb cbbd dcf0 49be 76f1 5dba
000000f0: d1e1 c8bc 00a2 38be bf14 bcbc 5256 12be
00000100: 6382 8a3c c64a 55be c8b6 0ebe ae76 dabd
00000110: 1fbe 4bbc fefe 9bbd 5ced 1ebd 5887 24be
00000120: db82 a4be 94ec ebbc 4d19 c73c a630 01be
00000130: ebb9 8dbc 2d9b b0bc e317 a2bd e5fc 71be
00000140: cace adbd aefa 26be 7466 f7bb 9c68 efbd
00000150: 45dc 37be 4876 30be 783e ecbd 76c0 9dbd
00000160: 3f49 86bd b883 9bbd f97e c4bd 6506 8a3d
00000170: 72e1 8abc 845b 1cbe d423 26be b53d c4bd
00000180: 0274 83be c112 93bd c169 0ebe 276a 14be
00000190: a832 15be 7032 dd3d 5a66 ffbd c4b0 ea3d
000001a0: 1dd8 c7bd b84f 90bd 22c9 1d3e e991 553d
000001b0: aedb f53c c322 9cbd bb9d 6bbd 7650 fbbc
000001c0: 780c 9d3d 816f cbbd 9a41 22be b42c 3fbd
000001d0: 01fa a43c a81c 923d 7d9a 10be d84f 19be
000001e0: b083 f4bc 07d9 bdbd daa5 00be 3246 f9bd
000001f0: 9dbd 0d3e 749a 3dbd 500f bd3d 2dfc b9bd
00000200: 2188 67bd 5523 96bc 42e2 0dbe fbf9 ffbc
00000210: b8e3 39bd 8e90 0d3e 042b ddbc 0421 c0bc
00000220: 82e3 ecbd 19be 153e 457c f73c 5669 ebbb
00000230: 78b7 0cbd 79f1 31be 3b3a 503d 50b5 b1bd
00000240: 48b9 94bd 40d4 06be 81b3 e8bb 3324 89bc
00000250: b77d e5bd ebd7 62bd 4b62 e13d 5ecb a2bd
00000260: ed8f fcbd e66e 2bbe 84ca fe3c 1fb7 55be
00000270: 7f6b 633d 8336 bcbd 011a 38be ca9c 74be
00000280: a25f a8bd fc29 bb3d 0a6d 603d 5bff 93bc
00000290: 517a 613e 4fba 613d b8d5 c0bb d20f 6bbd
000002a0: 42a0 a3bd 70f6 573c 60d3 62be d5fc 283d
000002b0: b62e babc 7698 cabd cd71 e83c 7f24 e4bc
000002c0: 4aa6 81bd 9d15 75be 18f8 e43d 03e5 84be
000002d0: bdc8 0cbe 03d8 7ebd 6783 80be c09a 8cbd
000002e0: 7375 873d 46a0 8a3d b754 e73c 181d eebd
000002f0: 718e 1abe 6ee9 79bd 27fd 053e b785 d4bd
00000300: 158a 92be e5ae 6b3c ec6a 50be b76d c7bd
00000310: 3dc7 f93d 08d5 50be 6a02 d0bc f4ea 2dbd

lstm.bias_hh_l0 f4 [200]
0.23737621 0.12472322 -0.09137628 -0.11140317 -0.02912978 -0.13780768 -0.042576432 -0.087958716
-0.06751176 -0.021585707 -0.15083346 -0.15381564 0.0012471256 -0.005976456 0.32969967 -0.0077515333
-0.18661843 -0.19470951 -0.1578022 -0.073854215 -0.080201745 0.15629277 0.023977611 -0.1328432
0.13667287 0.018245606 -0.020335203 -0.12477047 -0.097354926 -0.20837423 -0.006959622 0.040031366
0.0018592556 -0.10113024 -0.0077433605 0.13503577 0.3052942 0.07078065 -0.15515922 0.26849782
0.15365043 -0.09950462 -0.18960509 -0.053021163 -0.25218347 -0.11816033 0.012868042 -0.21363509
-0.24122354 -0.04545203 -0.19481958 -0.09784373 -0.09185343 -0.17969717 0.041626506 -0.13470598
-0.246293 -0.19123207 -0.097529046 0.110965535 -0.022062793 0.009609778 0.038956743 -0.2396696
-0.08055052 -0.053558603 0.026909102 -0.24224147 -0.085144974 -0.09029767 -0.0799948 -0.009365025
-0.12491768 -0.043536756 0.022543361 -0.18670942 0.06115847 -0.13256647 -0.13544223 -0.1739937
-0.18370323 -0.16690537 -0.17381027 0.08866366 0.05627374 -0.1151797 0.056145333 -0.27205807
-0.21247765 0.02929491 -0.2045831 -0.09555015 -0.20121129 0.028407449 -0.010002701 -0.029002909
-0.16278121 -0.19888005 -0.13470747 -0.25976562 0.06114312 0.11759332 0.009947726 0.008014034
-0.015932972 0.003845904 0.18920238 0.0662453 0.06394557 0.0681259 0.06992546 -0.18674943
0.089254566 0.08808262 -0.07672594 -0.052058604 0.08997998 -0.03679708 0.0005455683 -0.11317326
-0.052171912 -0.17431076 0.049235743 0.11407923 -0.09676677 0.010657655 0.02491976 0.135625
0.054581832 -0.07233316 0.011224114 -0.07207892 -0.02117096 0.04294819 0.08674541 0.10370677
-0.15740618 0.012478138 0.085872725 -0.060038768 0.05955321 0.08325397 -0.15957841 -0.05377232
-0.15861402 -0.046334673 0.07337421 0.09702215 0.0091184415 0.020760193 0.16758814 -0.0032858853
-0.095254816 -0.121381976 0.10024458 -0.18046038 0.02502772 -0.034809828 0.044291012 -0.19538607
-0.21868731 0.016438311 -0.144325 -0.106797926 0.20417264 0.21494588 -0.10462288 -0.15751496
-0.11168761 0.17783512 -0.24197322 0.023589179 -0.08133426 -0.064630195 0.10247964 -0.056105677
-0.078257814 -0.14659366 -0.08786632 -0.23403548 -0.07398849 -0.19921431 -0.07549902 0.07687756
0.02717154 0.10564237 0.16163565 0.07382378 -0.16592263 0.17496331 -0.060246997 -0.2032069
-0.22997658 -0.20753983 0.04995398 -0.0767453 0.16647322 -0.2354082 -0.2145497 -0.09217841
00000000: c012 733e e36e ff3d 7d23 bbbd 5827 e4bd
00000010: 94a1 eebc 751d 0dbe a064 2ebd b323 b4bd
00000020: 9b43 8abd 82d4 b0bc 1674 1abe d981 1dbe
00000030: 9776 a33a 26d6 c3bb 65ce a83e 9300 febb
00000040: e718 3fbe ee61 47be e696 21be e140 97bd
00000050: d040 a4bd 360b 203e b26c c43c 0c08 08be
00000060: f9f3 0b3e cf77 953c 0396 a6bc a987 ffbd
00000070: 0562 c7bd 0e60 55be 8a0d e4bb eef7 233d
00000080: 44b2 f33a 5f1d cfbd 04bc fdbb d146 0a3e
00000090: 854f 9c3e 72f5 903d 0fe2 1ebe 8c78 893e
000000a0: 8a56 1d3e 14c9 cbbd d627 42be b82c 59bd
000000b0: 311e 81be 0bfe f1bd 7bd4 523c 28c3 5abe
000000c0: 4e03 77be e82b 3abd c97e 47be 4b62 c8bd
000000d0: a71d bcbd 8902 38be 8e80 2a3d 5df0 09be
000000e0: 3b34 7cbe 57d2 43be 4fbd c7bd e641 e33d
000000f0: 08bd b4bc 5572 1d3c 1b91 1f3d f36b 75be
00000100: acf7 a4bd 4460 5bbd 7a70 dc3c 260e 78be
00000110: 7d60 aebd fced b8bd 50d4 a3bd c36f 19bc
00000120: d7d4 ffbd 9953 32bd dbac b83c c130 3fbe
00000130: 4e81 7a3d 81bf 07be 5eb1 0abe 682b 32be
00000140: b31c 3cbe 3ee9 2abe 52fb 31be 4b95 b53d
00000150: 4b7f 663d 56e3 ebbd a6f8 653d 324b 8bbe
00000160: be93 59be e1fb ef3c 3b7e 51be ccaf c3bd
00000170: 550a 4ebe bdb6 e83c 5ee2 23bc 8297 edbc
00000180: 1eb0 26be 36a7 4bbe c1f0 09be 0000 85be
00000190: 3571 7a3d c4d4 f03d c9fb 223c 4b4d 033c
000001a0: dd85 82bc 900b 7c3b 45be 413e 9eab 873d
000001b0: e5f5 823d 9885 8b3d 1435 8f3d 3e3b 3fbe
000001c0: 19cb b63d a964 b43d 7d22 9dbd 673b 55bd
000001d0: 6c47 b83d 89b8 16bd 7804 0f3a 62c7 e7bd
000001e0: 37b2 55bd 857e 32be 6bab 493d 5fa2 e93d
000001f0: a82d c6bd 729d 2e3c 8624 cc3c 48e1 0a3e
00000200: 3391 5f3d 6823 94bd 59e5 373c 1d9e 93bd
00000210: b96e adbc 71ea 2f3d 94a7 b13d 3764 d43d
00000220: 162f 21be 1b71 4c3c 0ade af3d 36eb 75bd
00000230: 11ee 733d 0f81 aa3d 8668 23be 5d40 5cbd
00000240: b76b 22be 6dc9 3dbd 3845 963d 8db3 c63d
00000250: 8465 153c 4811 aa3c 3a9c 2b3e 0258 57bb
00000260: f514 c3bd 1d97 f8bd 084d cd3d 9bca 38be
00000270: ef06 cd3c c094 0ebd 7e6a 353d 4913 48be
00000280: 91ef 5fbe a3a9 863c efc9 13be dfb8 dabd
00000290: a212 513e c61a 5c3e 8544 d6bd 9a4b 21be
000002a0: 79bc e4bd 691a 363e d4c7 77be 183e c13c
000002b0: 9492 a6bd d65c 84bd d8e0 d13d 11cf 65bd
000002c0: a245 a0bd a61c 16be 42f3 b3bd ffa6 6fbe
000002d0: 4787 97bd d6fe 4bbe 3b9f 9abd fb71 9d3d
000002e0: d996 de3c 075b d83d d183 253e ec30 973d
000002f0: 9fe7 29be 9529 333e 8ec5 76bd 7815 50be
00000300: fb7e 6bbe 5285 54be 8b9c 4c3d a42c 9dbd
00000310: f577 2a3e d90e 71be ebb2 5bbe 09c8 bcbd

lstm.weight_ih_l1 f4 [200, 50]
-0.026363153 -0.20110616 0.0754173 -0.109125726 -0.057926327 0.014158672 0.073640466 0.17423926
-0.055991795 -0.03726039 -0.034033794 0.110253304 0.016156815 -0.12170563 -0.22662921 0.02045676
0.23913483 0.010126367 -0.06555659 -0.23349519 -0.040454086 -0.13841549 -0.16666153 -0.07910351
-0.13013524 0.18973522 0.120614015 -0.0857758 -0.020342244 0.09873945 0.10915451 0.050575517
0.082238734 -0.09157615 -0.03982137 -0.066952705 0.031492192 0.13457775 -0.013308651 0.11272604
-0.113722764 -0.012164418 0.039240636 0.1048605 -0.0811933 0.13393602 0.24365807 -0.23612107
0.047045793 -0.047952365 -0.13126357 -0.18143806 0.013492984 -0.11509972 -0.12169343 0.02486132
-0.06791544 -0.32953867 0.14024037 0.07378464 0.1280116 0.05073621 -0.044617806 -0.03747098
-0.12265934 0.16785677 -0.113785274 -0.011824703 -0.05840795 -0.13410302 -0.23228164 0.0077643944
-0.0707271 0.050950933 0.09191448 -0.15085524 0.30974555 -0.2169552 0.37467003 -0.073075056
-0.2327922 0.020760486 -0.09363529 -0.057338633 -0.0030844372 0.002661402 0.02663979 -0.15581362
0.061772905 0.15487427 0.16590942 0.042562317 0.08304956 -0.05205891 -0.16080256 -0.122657835
0.3364158 -0.005145058 0.07844359 -0.12940426 0.10035681 -0.01755496 0.002754796 -0.0426857
0.1409371 -0.07788952 -0.12262341 -0.10222967 -0.08478851 -0.02209727 0.07843646 0.2440683
0.05686538 0.017406614 -0.020765752 -0.17906009 0.032106053 0.070331514 0.21635544 -0.11897663
-0.09135503 -0.13598631 -0.22815536 -0.16891365 0.04613129 0.006551069 -0.1264811 -0.06776727
0.2166814 0.028962657 0.03208077 0.070914686 0.14572927 0.1528501 -0.075164564 -0.06407904
-0.14966701 0.115094855 -0.1866887 -0.011318448 -0.01062499 0.0885541 -0.031741064 -0.02180269
0.14843455 0.10139232 0.07536969 -0.07176459 0.023328543 0.109101936 0.118409194 0.13493912
0.2286805 -0.12106532 -0.07909375 -0.01296448 -0.061875902 0.008122815 -0.06297153 0.09839956
0.01891594 0.08687637 -0.16987737 0.087314144 -0.030127412 0.18193816 -0.054225776 0.15545209
0.048604492 0.08975102 0.021409735 -0.0054339543 -0.32011607 -0.03965106 0.056172423 0.037742045
0.028644003 0.04080382 0.112977356 -0.052999634 -0.14291719 -0.2115584 -0.15642396 0.04271841
0.03803357 -0.23708127 0.1538059 -0.10358724 0.0698988 -0.0062721786 0.029807827 0.070295006
0.098679945 -0.047721036 0.18532409 0.041861326 -0.06656173 -0.11893238 0.2504787 -0.09135904
-0.24116811 -0.18479694 -0.05262702 0.0069436985 0.25421318 0.19809891 0.03083216 0.02431245
0.0037139503 0.043604992 0.056313768 0.040709253 -0.18427283 0.013209371 -0.038513232 0.06636529
0.16509263 0.15630516 0.035459757 -0.04125719 0.10382142 0.11070203 0.018281212 0.029472971
-0.13639219 0.16368572 -0.06833964 -0.012657448 0.0047972756 -0.10665999 -0.16017926 -0.09769902
-0.06667095 0.028259305 -0.047825623 -0.06575842 0.022920918 -0.016920943 -0.05931354 0.02883843
-0.09121932 0.020486828 0.0029550826 -0.033265874 0.02654571 0.23295335 0.24308121 -0.18581128
0.014647371 -0.15328386 0.0055021457 -0.2772697 0.3032602 -0.11918362 0.24101584 -0.04062669
00000000: 8af7 d7bc c6ee 4dbe 6374 9a3d 4f7d dfbd
00000010: 2844 6dbd c6f9 673c d0d0 963d c76b 323e
00000020: a757 65bd 5a9e 18bd 0567 0bbd 7ccc e13d
00000030: 4c5b 843c cd40 f9bd 7d11 68be ef94 a73c
00000040: c3df 743e 10e9 253c 8942 86bd 5d19 6fbe
00000050: 2fb3 25bd cabc 0dbe 52a9 2abe 0501 a2bd
00000060: 2c42 05be f349 423e 7b04 f73d 39ab afbd
00000070: c7a4 a6bc e937 ca3d 668c df3d 4628 4f3d
00000080: c86c a83d 478c bbbd bc1b 23bd 801e 89bd
00000090: f5fd 003d c0ce 093e 870c 5abc e9dc e63d
000000a0: 7be7 e8bd 444d 47bc caba 203d 1ac1 d63d
000000b0: ac48 a6bd 8626 093e 8081 793e b9c9 71be
000000c0: 17b3 403d b369 44bd f569 06be e6ca 39be
000000d0: ad11 5d3c 67b9 ebbd 683a f9bd f8a9 cb3c
000000e0: 4017 8bbd 4bb9 a8be 2c9b 0f3e 671c 973d
000000f0: 7915 033e c6d0 4f3d 29c1 36bd 2c7b 19bd
00000100: d234 fbbd a5e2 2b3e 4108 e9bd 66bc 41bc
00000110: 2d3d 6fbd 4d52 09be 3ddb 6dbe 766c fe3b
00000120: 5fd9 90bd edb1 503d a93d bc3d cc79 1abe
00000130: f896 9e3e 8129 5ebe c0d4 bf3e 60a8 95bd
00000140: 1461 6ebe e511 aa3c dcc3 bfbd eadb 6abd
00000150: 4524 4abb eb6a 2e3b b03b da3c 9b8d 1fbe
00000160: 9605 7d3d 5c97 1e3e 29e4 293e d355 2e3d
00000170: e315 aa3d b93b 55bd 6da9 24be 0834 fbbd
00000180: b13e ac3e e097 a8bb 08a7 a03d 8d82 04be
00000190: df87 cd3d 6bcf 8fbc cf89 343b 33d7 2ebd
000001a0: d151 103e 8a84 9fbd fb21 fbbd ca5d d1bd
000001b0: 99a5 adbd 5505 b5bc 4ba3 a03d 0aed 793e
000001c0: aceb 683d 5198 8e3c f01c aabc 875b 37be
000001d0: a381 033d f809 903d 488c 5d3e 05aa f3bd
000001e0: 5918 bbbd ff3f 0bbe 8fa1 69be b3f7 2cbe
000001f0: 2af4 3c3d 5aaa d63b 4384 01be 91c9 8abd
00000200: bbe1 5d3e 1843 ed3c 2067 033d b83b 913d
00000210: 0e3a 153e bd84 1c3e e1ef 99bd df3b 83bd
00000220: 4f42 19be dab6 eb3d 532b 3fbe 0371 39bc
00000230: 7014 2ebc da5b b53d eb02 02bd 8e9b b2bc
00000240: 3aff 173e c7a6 cf3d 6d5b 9a3d 50f9 92bd
00000250: 801b bf3c d670 df3d 8580 f23d 7b2d 0a3e
00000260: 392b 6a3e 18f1 f7bd e7fb a1bd f868 54bc
00000270: 9671 7dbd 8e15 053c 38f7 80bd b585 c93d
00000280: 9af5 9a3c 3dec b13d 55f4 2dbe c2d1 b23d
00000290: c3cd f6bc ff4d 3a3e d91b 5ebd d52e 1f3e
000002a0: 8115 473d 62cf b73d 7863 af3c 500f b2bb
000002b0: 41e6 a3be 2669 22bd 0e15 663d 6797 1a3d
000002c0: d4a6 ea3c e821 273d ac60 e73d 2516 59bd
000002d0: e258 12be c4a2 58be 9a2d 20be 80f9 2e3d
000002e0: 17c9 1b3d 6fc5 72be 4b7f 1d3e 8c25 d4bd
000002f0: 1a27 8f3d d986 cdbb 8b2f f43c d4f6 8f3d
00000300: b618 ca3d 2277 43bd 99c5 3d3e c876 2b3d
00000310: 8451 88bd d292 f3bd bf3e 803e 731a bbbd
00000320: c6f4 76be 693b 3dbe 6e8f 57bd f787 e33b
00000330: 3b28 823e 71da 4a3e ba93 fc3c e72a c73c
00000340: bf65 733b 269b 323d 44a9 663d bfbe 263d
00000350: 04b2 3cbe 1e6c 583c 0dc0 1dbd 86ea 873d
00000360: 0b0e 293e 760e 203e 403e 113d 4dfd 28bd
00000370: 53a0 d43d bfb7 e23d 7bc2 953c 4d71 f13c
00000380: 65aa 0bbe 3b9d 273e a7f5 8bbd 2f61 4fbc
00000390: 7732 9d3b 8e70 dabd 0806 24be 6c16 c8bd
000003a0: c78a 88bd 0f80 e73c cde4 43bd 5aac 86bd
000003b0: a6c4 bb3c ca9d 8abc c1f2 72bd 923e ec3c
000003c0: 32d1 babd fed3 a73c 0faa 413b cc41 08bd
000003d0: 6476 d93c 538b 6e3e 48ea 783e 5045 3ebe
000003e0: 87fb 6f3c 72f6 1cbe 584b b43b 4bf6 8dbe
000003f0: ec44 9b3e 8b16 f4bd dbcc 763e 2c68 26bd
