pol_models/nitrogen_dioxide_model_state.pt (torch, 650637 bytes, 16 tensors)

conv1.weight f4 [64, 300, 3]
-0.004668947 0.01577365 -0.026902152 -0.028651882 -0.014697572 0.009430325 2.2632517e-05 0.028926525
0.00035159837 0.0031481716 -0.011855038 -0.006001906 -0.045420866 -0.033463787 -0.021617528 -0.0074996706
0.0067375475 0.014126213 -0.025742276 -0.015991526 0.01255697 0.024998352 -0.0073697735 0.02544563
-0.009700407 0.0017899281 0.03094003 -0.03595626 -0.024481269 -0.010187322 -0.016050648 0.029286336
-0.017279377 -0.018434104 -0.024071151 -0.029342337 -0.027150279 0.022957442 0.010744773 0.012549117
0.00040004024 -0.01513143 0.0019089833 -0.032469977 -0.024310622 -0.022573275 0.018901259 0.020167388
-0.02009794 -0.003113048 0.02317308 0.021323582 0.003401573 -0.0038765862 0.017666617 -0.022314783
0.0047935722 -0.027612923 -0.022265116 -0.013640497 0.008434359 0.009382498 -0.022762889 0.0075406563
0.016677428 -0.0039583775 0.0010075596 0.010603509 0.025153449 0.027378736 -0.02716279 -0.010229044
0.0094226925 0.02667999 0.030433377 0.024197377 0.0031708307 -0.031380523 -0.0050863656 -0.025430385
-0.033927068 0.025413552 0.024247173 -0.03209522 0.0021184688 -0.0074744266 -0.004993632 -0.0277034
0.004043981 -0.024054557 0.006316797 0.013303071 0.022714477 0.007180043 -0.03499738 -0.023855427
0.011329075 0.0050664116 -0.024148412 -0.02553506 0.028224057 0.022240644 -0.0209471 -0.012307523
-0.03292706 -0.0039463704 -0.025219569 -0.02186839 -0.00789107 0.0027038406 -0.013081192 0.016685
-0.02097669 0.03313232 0.008197463 -0.03980884 -0.01623406 -0.0032421448 0.002863233 0.009923573
0.009995135 0.0015977799 -0.012860644 0.012683291 -0.03275811 -0.017880524 -0.011430141 -0.016635995
-0.008257464 -0.033292025 -0.009258372 0.009250255 -0.021980675 0.0011693721 0.028335923 -0.011013902
-0.0038994602 -0.0039106095 0.0030978625 0.01971519 0.03226296 0.014739378 0.028234083 -0.0041648042
-0.033895176 -0.018329853 0.021134412 -0.0063637113 -0.02075254 -0.027051914 -0.035634376 -0.029344466
-0.0056723217 0.013065681 0.014558386 -0.03454215 0.019123811 -0.025257004 -0.004191895 -0.016045334
-0.008042172 -0.006295891 -0.035491724 -0.030035818 -0.0033368524 -0.0037890598 -0.016175605 0.014936241
-0.03462778 -0.0033166136 0.03110894 -0.019937476 0.026965847 0.011851842 -0.036229637 0.016905585
-0.005354665 -0.020850522 0.023184737 -0.028610747 -0.0016421435 -0.009437197 0.023892779 0.0065171137
0.015987623 0.013960939 -0.008288643 -0.00409195 -0.021808 0.012499808 0.022466969 0.021477176
-0.024204265 0.0024407632 -0.021229751 -0.023910848 -0.022436656 0.010416016 -0.024491511 -0.0022025807
0.0033888803 0.015481785 -0.027718857 -0.022770876 -0.019256927 0.025398202 -0.008498519 0.024375884
0.01093713 0.005807084 -0.0062537836 -0.009110902 0.0042950716 -0.015764268 -0.0048110946 0.0013911441
-0.030293617 -0.018504156 0.029296027 -0.029654134 -0.0023690576 0.03516555 0.007248168 -0.0011467738
-0.028877642 0.016938256 -0.020772029 -0.003677114 -0.015304474 -0.00679534 0.0008563472 0.019801322
-0.0015345297 0.025727255 0.01920206 -0.021020865 0.015967553 -0.026627883 -0.014015694 0.013031974
0.0021379222 0.018620899 -0.0133548705 -0.006359569 0.013242756 -0.0334102 0.012195093 -0.036843732
-0.006691914 -0.0087614935 -0.01824782 0.0072923275 0.015258844 -0.01931724 -0.027064094 -0.017542474
00000000: f7fd 98bb be37 813c e761 dcbc 5ab7 eabc
00000010: 16ce 70bc a681 1a3c f6da bd37 52f7 ec3c
00000020: bc56 b839 8e51 4e3b a23b 42bc a3ab c4bb
00000030: 3b0b 3abd 5311 09bd 3e17 b1bc ccbf f5bb
00000040: a5c6 dc3b a271 673c 77e1 d2bc a900 83bc
00000050: c0bb 4d3c 58c9 cc3c 247e f1bb 5b73 d03c
00000060: 75ee 1ebc 059c ea3a f275 fd3c df46 13bd
00000070: f18c c8bc bae8 26bc a67c 83bc e6e9 ef3c
00000080: 7b8d 8dbc 1e03 97bc dd30 c5bc 575f f0bc
00000090: 436a debc 3f11 bc3c d80a 303c d09a 4d3c
000000a0: 7ebc d139 d1e9 77bc da36 fa3a 3dff 04bd
000000b0: 1227 c7bc 97eb b8bc d0d6 9a3c 1436 a53c
000000c0: 6fa4 a4bc 4704 4cbb 79d5 bd3c cbae ae3c
000000d0: edec 5e3b 530e 7ebb 95b9 903c 7ecd b6bc
000000e0: 6613 9d3b 7f34 e2bc 5565 b6bc 647c 5fbc
000000f0: 4430 0a3c 0db9 193c 3d79 babc 9c17 f73b
00000100: 1a9f 883c 47b5 81bb 1710 843a 57ba 2d3c
00000110: 9b0e ce3c 5f49 e03c 8084 debc b897 27bc
00000120: a361 1a3c ff8f da3c 6b4f f93c 9439 c63c
00000130: b6cd 4f3b dd88 00bd 87ab a6bb 6253 d0bc
00000140: 1cf7 0abd 1530 d03c 02a2 c63c 4776 03bd
00000150: 02d6 0a3b 09ec f4bb 9fa1 a3bb 3ef2 e2bc
00000160: 5f83 843b 100e c5bc 22fd ce3b 20f5 593c
00000170: b613 ba3c 9146 eb3b 6a59 0fbd 756c c3bc
00000180: 969d 393c 2404 a63b e4d2 c5bc e72e d1bc
00000190: 2336 e73c 0332 b63c 4199 abbc 7ea5 49bc
000001a0: 86de 06bd 8e50 81bb 4599 cebc 5625 b3bc
000001b0: 8c49 01bc eb32 313b 7f52 56bc fbae 883c
000001c0: 4fd7 abbc c1b5 073d a74e 063c 980e 23bd
000001d0: 4bfd 84bc 2a7a 54bb 14a5 3b3b 7b96 223c
000001e0: a2c2 233c 996c d13a 73b5 52bc 94cd 4f3c
000001f0: 5e2d 06bd 2d7a 92bc 7c45 3bbc 3648 88bc
00000200: 504a 07bc 385d 08bd 6db0 17bc 628e 173c
00000210: d110 b4bc 9e45 993a bd20 e83c a773 34bc
00000220: 168e 7fbb 9224 80bb 8205 4b3b c081 a13c
00000230: 2a26 043d 6f7d 713c 2a4b e73c e978 88bb
00000240: abd5 0abd 7d28 96bc 1322 ad3c ae86 d0bb
00000250: 3b01 aabc fa9b ddbc 5af5 11bd ce63 f0bc
00000260: e2de b9bb 7011 563c 4c86 6e3c 127c 0dbd
00000270: 8aa9 9c3c c7e7 cebc 2a5c 89bb 8171 83bc
00000280: 50c3 03bc c34d cebb c55f 11bd ad0d f6bc
00000290: 18af 5abb e051 78bb b482 84bc 23b7 743c
000002a0: dcd5 0dbd 8b5b 59bb 2dd8 fe3c eb53 a3bc
000002b0: 7be7 dc3c 3a2e 423c 8765 14bd 957d 8a3c
000002c0: 3076 afbb b7ce aabc ebed bd3c 1661 eabc
000002d0: 313d d7ba 799e 1abc caba c33c 838d d53b
000002e0: 7af8 823c 6cbc 643c 17cd 07bc c415 86bb
000002f0: b1a6 b2bc ffcb 4c3c a60c b83c e7f0 af3c
00000300: 0648 c6bc 36f5 1f3b 04ea adbc afe0 c3bc
00000310: 14cd b7bc f0a7 2a3c 6ca2 c8bc 2c59 10bb
00000320: fa17 5e3b 50a7 7d3c a812 e3bc fd89 babc
00000330: b4c0 9dbc e40f d03c 5f3d 0bbc efaf c73c
00000340: a631 333c 5a49 be3b 8aec ccbb e545 15bc
00000350: acbd 8c3b 1124 81bc 63a6 9dbb 0d57 b63a
00000360: 522a f8bc 0796 97bc 39fe ef3c 3aed f2bc
00000370: 3142 1bbb c009 103d 0a82 ed3b 584f 96ba
00000380: ce90 ecbc 19c2 8a3c 1a2a aabc bcfb 70bb
00000390: 9ebf 7abc 72ab debb 7d7c 603a 6236 a23c
000003a0: 4622 c9ba f7c1 d23c a34d 9d3c f333 acbc
000003b0: 63ce 823c b822 dabc 15a2 65bc 1084 553c
000003c0: 621c 0c3b db8a 983c 63ce 5abc ee63 d0bb
000003d0: 25f8 583c 22d9 08bd edcd 473c 74e9 16bd
000003e0: d847 dbbb 5e8c 0fbc 747c 95bc 7af4 ee3b
000003f0: 3b00 7a3c 303f 9ebc 85b5 ddbc 3cb5 8fbc

conv1.bias f4 [64]
-0.0065743607 0.008641363 -0.004621162 -0.0015237859 -0.036487702 0.008248254 -0.013559567 0.0076395306
-0.068176225 -0.16837162 0.010922147 -0.24398077 -0.612778 -0.17299001 -0.038454168 0.01309787
-0.0017206804 -0.022186715 0.21650356 -0.010007327 -0.002266746 -0.14324509 -0.059253655 -0.54380834
0.0115909735 -0.024231847 -0.3038705 0.29519263 -0.036943477 0.01115387 -0.33141163 -0.35011286
0.012652676 -0.043152694 0.0027704681 -0.028114738 -0.20619933 0.19919135 0.007402646 -0.3366287
0.006452366 -0.24675156 -0.24399744 -0.027839549 0.47964343 -0.37082106 -0.4100479 -0.026730001
-0.035097837 -0.031283062 -0.021721026 -0.023049753 0.018874835 -0.017269788 -0.15163594 -0.03330509
-0.0073960046 0.02116886 -0.4265272 -0.0132367695 0.021000843 -0.25910866 -0.0243275 -0.015068722
00000000: bc6d d7bb 8194 0d3c 1e6d 97bb c5b9 c7ba
00000010: 2174 15bd af23 073c f228 5ebc 0755 fa3b
00000020: fa9f 8bbd 9c69 2cbe cef2 323c 18d6 79be
00000030: 05df 1cbf 4b24 31be 1e82 1dbd 7398 563c
00000040: 7488 e1ba eac0 b5bc 1cb3 5d3e c6f5 23bc
00000050: b08d 14bb d7ae 12be f6b3 72bd 0637 0bbf
00000060: 11e8 3d3c de81 c6bc ea94 9bbe 7d23 973e
00000070: 0b52 17bd b9be 363c c9ae a9be fe41 b3be
00000080: 2b4d 4f3c e1c0 30bd be90 353b e150 e6bc
00000090: eb25 53be d1f8 4b3e e591 f23b 995a acbe
000000a0: 5e6e d33b 71ac 7cbe 77da 79be c40f e4bc
000000b0: d393 f53e 42dc bdbe ccf1 d1be e0f8 dabc
000000c0: c0c2 0fbd ab22 00bd 4bf0 b1bc d6d2 bcbc
000000d0: 669f 9a3c 5f79 8dbc 7446 1bbe eb6a 08bd
000000e0: 2f5a f2bb 516a ad3c c661 dabe 09df 58bc
000000f0: f609 ac3c e4a9 84be 774a c7bc cde2 76bc

conv2.weight f4 [128, 64, 3]
-0.06361939 0.011448846 -0.027335728 0.015208089 0.018150466 -0.061988305 0.06664204 -0.06556962
-0.04398315 -0.04931404 -0.015352324 0.015464261 -0.048222356 -0.03471751 -0.031731617 0.02395961
-0.010559667 -0.021498827 -0.03612485 0.043748256 0.0077661206 -0.01228531 -0.006727715 0.027711667
-0.0006152725 0.027446466 0.02041653 -0.038818337 -0.005592355 -0.013082139 -0.022525592 0.048251886
0.024958273 0.036706705 -0.08716227 -0.029979242 -0.012377445 -0.10884373 -0.021188563 -0.042194948
-0.03475379 -0.062298976 0.0031486955 -0.0657352 -0.021196844 0.063137494 -0.07105409 0.016582279
-0.043134697 0.024148166 0.075471915 -0.037758816 -0.063433096 0.013917643 0.041749664 0.035955254
-0.018351864 -0.012892579 -0.08030361 -0.06375339 0.04750661 0.07138366 -0.047494724 0.013767137
-0.022071376 -0.09812037 -0.007748791 -0.0019692036 0.018856533 -0.031844202 -0.031661086 0.041059513
-0.00052874704 -0.0629928 -0.038753435 0.021639675 -0.024348576 -0.048854735 -0.07347835 -0.10393495
-0.10181894 -0.013659656 -0.07564619 -0.05412477 -0.029828314 0.07034738 0.06488139 -0.0550585
-0.058335338 -0.047822997 -0.08694101 -0.06303012 -0.03417379 -0.066733226 -0.081383884 -0.03596916
0.016869226 -0.052254938 -0.02021412 -0.081422254 -0.05156409 -0.03996979 0.027662177 0.02238837
-0.010404649 -0.056261074 0.010135192 0.051517256 -0.0527697 8.53847e-05 0.013726738 -0.06281059
0.028382024 -0.09305593 0.06688968 0.0071282564 -0.05072811 0.024849596 0.00869403 -0.106638715
-0.0031087708 0.031462844 -0.028775826 0.013224155 0.022294357 0.029003909 0.026413145 -0.11390624
-0.081200466 -0.03347565 -0.03529936 -0.085491195 0.055240225 0.042385332 -0.04706814 -0.069944054
-0.13018332 0.0098783 -0.00023083093 0.029242372 -0.060328536 -0.04380341 0.025256546 0.052322958
-0.056202397 -0.03745334 -0.032467663 -0.070370995 -0.02972839 -0.018415462 -0.036040135 -0.02785445
-0.043882433 0.03171616 -0.054687668 0.031743467 -0.015243956 0.005465279 0.044876214 -0.011904897
-0.054177422 -0.026715323 -0.017189909 -0.011974641 0.006108612 -0.0115556065 -0.0035879735 0.050806362
0.06662245 0.009984836 0.021953164 -0.062188987 0.011795559 0.0042375457 -0.041259967 0.014527236
-0.022608493 -0.026401743 -0.01195171 0.06003615 0.002802885 -0.06420604 0.04187177 -0.08501691
-0.02877424 -0.044830307 -0.06292725 -0.017636867 0.049364857 -0.022800215 -0.06769634 -0.056371678
0.056245375 0.051572923 -0.022632228 0.034896832 -0.03187838 -0.002221185 -0.021286562 0.01643031
-0.06403685 -0.007408081 -0.03326059 -0.037352733 -0.041790154 -0.010190768 0.02230558 -0.01804055
-0.00965154 0.02998133 -0.001351001 0.0071012047 -0.020401906 0.0046318523 -0.07832324 0.046897516
-0.06350791 0.023358328 -0.16499545 0.07081963 0.07054303 -0.2378932 0.023655877 -0.069678545
-0.0044405977 -0.06694827 -0.009103387 -0.04747238 -0.106969126 0.0035597985 0.032433283 -0.07393397
0.07601838 0.014543777 -0.0070792576 -0.04836862 0.026350863 0.071239285 0.039971948 0.04186031
0.04326567 -0.017630514 0.014980499 -0.031304985 0.051748935 -0.04759332 -0.2574699 -0.16683204
-0.2067043 0.06484983 -0.04321859 0.03285654 0.0036550704 -0.019621728 -0.057093512 0.044779982
00000000: e24a 82bd f193 3b3c 2def dfbc 592b 793c
00000010: 49b0 943c 73e7 7dbd 9f7b 883d 5d49 86bd
00000020: ad27 34bd 85fd 49bd 5088 7bbc d05d 7d3c
00000030: ce84 45bd f333 0ebd 03f9 01bd f246 c43c
00000040: 7402 2dbc 4f1e b0bc a7f7 13bd 5f31 333d
00000050: f17a fe3b 5348 49bc 2a74 dcbb 9403 e33c
00000060: 3d4a 21ba 69d7 e03c 9140 a73c faff 1ebd
00000070: 1340 b7bb 7856 56bc 9787 b8bc c5a3 453d
00000080: 4b75 cc3c c559 163d 2282 b2bd 0797 f5bc
00000090: c4ca 4abc 76e9 debd a393 adbc 9cd4 2cbd
000000a0: fd59 0ebd 362d 7fbd 585a 4e3b 2da0 86bd
000000b0: 01a5 adbc 3b4e 813d cf84 91bd 8fd7 873c
000000c0: 02ae 30bd 60d2 c53c 0591 9a3d fda8 1abd
000000d0: 36e9 81bd d306 643c b201 2b3d d145 133d
000000e0: a656 96bc 653b 53bc 3876 a4bd 2391 82bd
000000f0: 4b96 423d 9931 923d d489 42bd 8f8f 613c
00000100: 08cf b4bc 55f3 c8bd 92e9 fdbb c10d 01bb
00000110: 0479 9a3c 116f 02bd 0eaf 01bd 052e 283d
00000120: 9d9b 0aba 5e02 81bd ecbb 1ebd b045 b13c
00000130: aa76 c7bc e71b 48bd d17b 96bd d9db d4bd
00000140: 7386 d0bd c0cc 5fbc 64ec 9abd efb1 5dbd
00000150: 825a f4bc 4a12 903d 89e0 843d 0685 61bd
00000160: 09f1 6ebd 0ce2 43bd 210e b2bd f015 81bd
00000170: d1f9 0bbd 6eab 88bd 98ac a6bd 6654 13bd
00000180: 5531 8a3c 4609 56bd 1598 a5bc b6c0 a6bd
00000190: de34 53bd 5db7 23bd ca9b e23c d167 b73c
000001a0: 4378 2abc 0372 66bd 140e 263c c203 533d
000001b0: 0a25 58bd 9010 b338 1de6 603c d7a2 80bd
000001c0: 6b81 e83c 1c94 bebd 75fd 883d 2694 e93b
000001d0: 47c8 4fbd 6191 cb3c 6871 0e3c 6665 dabd
000001e0: 85bc 4bbb 2fdf 003d 48bb ebbc 20aa 583c
000001f0: a8a2 b63c 9b99 ed3c 6160 d83c ad47 e9bd
00000200: 6e4c a6bd c31d 09bd 1096 10bd 0216 afbd
00000210: 9343 623d 3e9c 2d3d 86ca 40bd d43e 8fbd
00000220: c74e 05be 98d8 213c 350b 72b9 b38d ef3c
00000230: 0e1b 77bd 346b 33bd d1e6 ce3c 9950 563d
00000240: 7c34 66bd ac68 19bd d0fc 04bd ab1e 90bd
00000250: f488 f3bc 06dc 96bc d29e 13bd 042f e4bc
00000260: 11be 33bd cee8 013d 2d00 60bd 7005 023d
00000270: c9c1 79bc 1516 b33b 1fd0 373d c20c 43bc
00000280: 25e9 5dbd 18da dabc dad1 8cbc 4931 44bc
00000290: c02a c83b ba53 3dbc 3524 6bbb 551a 503d
000002a0: 5a71 883d 7097 233c 1fd7 b33c e1b9 7ebd
000002b0: 2942 413c 1cdb 8a3b 3600 29bd a503 6e3c
000002c0: 7235 b9bc 7848 d8bc 1bd1 43bc 77e8 753d
000002d0: 9bb0 373b 757e 83bd bc81 2b3d 591d aebd
000002e0: f4b7 ebbc fc9f 37bd 01e0 80bd 317b 90bc
000002f0: ce32 4a3d 84c7 babc 61a4 8abd fde5 66bd
00000300: 8d61 663d 213e 533d 3967 b9bc fbef 0e3d
00000310: e792 02bd 4d91 11bb 2861 aebc dc98 863c
00000320: c125 83bd 7dbf f2bb 423c 08bd 2eff 18bd
00000330: 272c 2bbd 2ef7 26bc 31ba b63c c7c9 93bc
00000340: 7e21 1ebc 689b f53c 1214 b1ba 39b1 e83b
00000350: e621 a7bc cbc6 973b ef67 a0bd 9c17 403d
00000360: 6f10 82bd f759 bf3c 91f4 28be e209 913d
00000370: dd78 903d 469a 73be f8c9 c13c a0b3 8ebd
00000380: 6f82 91bb 2d1c 89bd 5f26 15bc 6672 42bd
00000390: a112 dbbd 824b 693b c3d8 043d b16a 97bd
000003a0: 86af 9b3d 0649 6e3c 1ef9 e7bb 2d1e 46bd
000003b0: c4dd d73c e7e5 913d a0b9 233d b775 2b3d
000003c0: 5837 313d de6d 90bc c470 753c a839 00bd
000003d0: b1f6 533d 37f1 42bd 18d3 83be 05d6 2abe
000003e0: 4baa 53be fdcf 843d fa05 31bd 9494 063d
000003f0: e889 6f3b bfbd a0bc e3da 69bd 376b 373d

conv2.bias f4 [128]
-0.08211704 -0.38288906 -0.36663565 -0.37388012 -0.12773828 -0.3625336 -0.38785797 -0.03430864
-0.35411668 -0.315246 0.20181993 -0.04026731 -0.38815558 0.30208108 -0.19861893 -0.07116647
0.304679 0.27906433 -0.410687 -0.3142098 -0.1559734 -0.14682005 -0.30818528 -0.16539268
-0.047706302 -0.45750982 0.22420786 -0.3358543 0.103343144 -0.115911 -0.30858225 -0.30994785
-0.15136196 -0.03142598 -0.19912462 0.26392594 -0.077007234 -0.043641046 -0.43452522 -0.06993382
0.2479511 -0.3128563 -0.35689926 -0.32656094 -0.047389455 -0.16628322 -0.46689108 -0.15492181
-0.27952746 -0.4124948 0.19839053 0.1810999 -0.32347023 0.21589197 -0.34918314 0.2743748
-0.3742703 -0.39645037 -0.24642359 -0.39747915 -0.1074069 -0.26439416 0.20323774 -0.22571908
-0.2885297 -0.21966293 0.26886806 -0.26116353 0.1030355 0.15012786 -0.07080453 0.07628676
-0.25367138 0.1768484 -0.31435692 -0.36516187 -0.05985171 -0.091676205 -0.23489785 -0.03882329
-0.07332309 -0.4433724 -0.15170996 -0.28176025 -0.30712306 -0.35261774 -0.08149602 0.033848815
-0.070940696 -0.08652352 0.1590486 0.23087129 -0.12982504 -0.33874106 -0.21097283 0.29986066
-0.25281963 0.3361866 -0.1187082 -0.24756806 -0.059026603 0.18268609 -0.18378876 -0.04781024
-0.11839611 0.11778518 -0.24344422 0.0059501743 -0.25760213 -0.13144039 -0.25975892 -0.24803664
-0.16950962 -0.2930052 -0.30549926 -0.430822 0.25823 -0.38650537 -0.43073204 -0.27652982
-0.25191066 -0.29299882 -0.3059835 0.21313398 -0.24262758 -0.05834337 0.21943139 -0.39639634
00000000: fb2c a8bd 090a c4be abb7 bbbe 376d bfbe
00000010: d3cd 02be 019e b9be 5295 c6be 3787 0cbd
00000020: c84e b5be ec67 a1be e2a9 4e3e 56ef 24bd
00000030: 54bc c6be 5faa 9a3e c362 4bbe babf 91bd
00000040: e3fe 9b3e 85e1 8e3e 9145 d2be 1be0 a0be
00000050: 7eb7 1fbe ff57 16be 76ca 9dbe b35c 29be
00000060: af67 43bd ba3e eabe bf96 653e 18f5 abbe
00000070: 92a5 d33d bf62 edbd 7efe 9dbe 7cb1 9ebe
00000080: a1fe 1abe 87b8 00bd 53e7 4bbe 4d21 873e
00000090: f8b5 9dbd f4c0 32bd 177a debe 7639 8fbd
000000a0: e5e6 7d3e b32e a0be 80bb b6be ff32 a7be
000000b0: 721b 42bd 2646 2abe 590c efbe d3a3 1ebe
000000c0: 391e 8fbe 8532 d3be e326 4b3e 4172 393e
000000d0: e49d a5be c912 5d3e 22c8 b2be db7a 8c3e
000000e0: 5ba0 bfbe 8bfb cabe 7756 7cbe 6382 cbbe
000000f0: 26f8 dbbd ac5e 87be 8e1d 503e e722 67be
00000100: 2aba 93be 52ef 60be 13a9 893e 3ab7 85be
00000110: 4704 d33d 1ebb 193e f701 91bd 3c3c 9c3d
00000120: 37e1 81be bf17 353e 64f3 a0be 7ff6 babe
00000130: 1127 75bd bcc0 bbbd 1089 70be 2c05 1fbd
00000140: 6b2a 96bd b501 e3be db59 1bbe e142 90be
00000150: 3c3f 9dbe 508a b4be 63e7 a6bd 0ea5 0a3d
00000160: 5b49 91bd 3e33 b1bd a3dd 223e 8669 6c3e
00000170: dbf0 04be 786f adbe 4309 58be 5687 993e
00000180: 9371 81be a620 ac3e 491d f3bd 7b82 7dbe
00000190: e1c5 71bd 1012 3b3e 1f33 3cbe acd4 43bd
000001a0: a979 f2bd 5b39 f13d 7149 79be aef9 c23b
000001b0: 6de4 83be 4f98 06be 1fff 84be 51fd 7dbe
000001c0: ee93 2dbe c704 96be 666a 9cbe b494 dcbe
000001d0: b936 843e 08e4 c5be e988 dcbe 5195 8dbe
000001e0: 6ffa 80be f103 96be dfa9 9cbe cb3f 5a3e
000001f0: 5d73 78be 75f9 6ebd 9fb2 603e 76f4 cabe

lstm.weight_ih_l0 f4 [200, 128]
0.10740905 0.15062237 -0.014391336 0.04447179 0.12733588 0.12950017 0.035084814 -0.34815925
0.10126887 0.17088117 -0.11510466 0.048533976 -0.011751282 -0.015941575 0.13211876 -0.08832972
0.023028307 -0.27895343 0.07225137 -0.064796306 -0.13156451 -0.12482786 -0.11720622 0.0876163
-0.15036772 -0.022301203 0.30266148 0.059086267 0.28931674 -0.0015211928 0.088658206 0.23761852
0.19627011 -0.18003233 0.074326284 -0.11731241 0.078500286 -0.085961334 0.08620445 -0.09571354
0.15725113 -0.036758564 -0.12943725 -0.09912796 -0.12060507 -0.058384776 0.12750235 0.1530693
0.26170927 -0.004578679 -0.07989217 0.2041889 0.05183188 0.020139284 -0.03721447 0.13655019
0.13877775 0.066583455 -0.008738624 0.057973787 0.050496113 -0.006018022 -0.01348199 -0.16844872
0.22381148 0.024507258 0.115043275 0.31105626 -0.0061411113 0.24895127 -0.13375573 -0.07600747
0.07399395 0.053163383 -0.0043443595 0.09834301 0.0818613 0.057870474 0.09290697 -0.08350784
-0.098396495 0.07903781 -0.05358859 0.014869626 -0.09300471 -0.22631922 0.07455245 -0.2649428
0.11337995 0.025488043 -0.09748805 -0.040916737 0.115612924 0.14915629 0.06762297 -0.027784327
-0.10800763 -0.1470661 0.2694509 0.07206682 -0.093929134 0.25657433 0.09120587 0.027249204
0.09091531 -0.124310225 -0.14209466 0.011481998 -0.22708833 -0.002762225 0.1755596 0.023229167
-0.0046898327 -0.11172033 0.1798122 0.052771494 -0.13964866 -0.018404331 0.015353213 0.15002298
0.028650291 0.08033706 0.21277541 0.023991672 0.16025916 0.104973175 -0.15369402 0.11146527
-0.020634308 -0.14501102 -0.13984971 -0.0965086 -0.061530102 -0.32534978 -0.15966584 0.015026558
-0.10299061 -0.048622046 -0.009624808 -0.10331537 0.031123599 0.06767486 -0.09856818 0.15640652
0.24352604 0.28447935 -0.027570106 -0.10868175 0.1655575 0.12907386 -0.21961358 0.016725972
0.125838 0.15680578 0.1353469 -0.13773525 0.23047529 0.012133692 -0.05380106 -0.12776951
0.07904364 -0.061843242 0.090080276 -0.0040022535 -0.10796503 0.1258645 -0.07854492 0.11965296
0.20422705 0.09641124 -0.16403252 -0.06703297 0.025890011 -0.016220542 0.10981653 -0.22770928
-0.06432595 -0.2305626 0.1680493 -0.20465207 -0.12676418 0.18010506 0.06311822 -0.05984501
-0.21743624 -0.10154764 0.08117956 0.03424281 0.037827283 -0.15819484 0.13366559 -0.07212997
0.02024262 -0.05377222 0.09233506 0.1174133 -0.08332698 0.16525805 -0.121636756 0.06708742
-0.00569415 0.17716396 -0.21768954 -0.09777222 -0.030811343 -0.030913135 -0.06931061 -0.023106229
-0.12216737 -0.04078042 -0.14211465 -0.043005235 -0.13095388 0.12271661 0.13025454 0.24770002
0.025804263 -0.10574033 0.07856931 0.16800466 -0.31329346 0.01536302 -0.12824969 0.23646118
-0.009611933 0.36760068 -0.07189719 -0.16197298 -0.057930067 0.17517397 -0.098495565 -0.124289766
0.029345987 0.12597644 0.20582512 0.036245164 0.064391404 0.09887664 0.0009052299 -0.14432533
-0.008361647 0.21539466 0.0024374004 -0.039471846 0.1376405 -0.11856528 -0.101498 -0.15364595
-0.05200749 -0.22049432 -0.09251524 0.16813485 -0.19316097 -0.033908356 0.27087408 0.121326655
00000000: 47f9 db3d c03c 1a3e a3c9 6bbc 0d28 363d
00000010: 5664 023e b19b 043e 18b5 0f3d ee41 b2be
00000020: 0e66 cf3d 79fb 2e3e febb ebbd 90cb 463d
00000030: 7388 40bc e897 82bc 244a 073e 36e6 b4bd
00000040: dca5 bc3c fcd2 8ebe 87f8 933d edb3 84bd
00000050: d9b8 06be c0a5 ffbd d109 f0bd 2d70 b33d
00000060: fff9 19be 03b1 b6bc 72f6 9a3e 7104 723d
00000070: 5321 943e c362 c7ba 6f92 b53d 4552 733e
00000080: 08fb 483e 655a 38be 6138 983d 7d41 f0bd
00000090: c2c4 a03d 7f0c b0bd f58b b03d 7605 c4bd
000000a0: 7106 213e 2690 16bd 338b 04be 9a03 cbbd
000000b0: caff f6bd e024 6fbd fa8f 023e 33be 1c3e
000000c0: c2fe 853e be08 96bb 829e a3bd e516 513e
000000d0: aa4d 543d 24fb a43c 336e 18bd d0d3 0b3e
000000e0: c11b 0e3e e85c 883d 722c 0fbc ec75 6d3d
000000f0: 03d5 4e3d d432 c5bb 91e3 5cbc d27d 2cbe
00000100: d62e 653e 72c3 c83c cf9b eb3d c442 9f3e
00000110: 603b c9bb 15ed 7e3e 43f7 08be cea9 9bbd
00000120: 248a 973d d9c1 593d 215b 8ebb 0f68 c93d
00000130: e6a6 a73d 9709 6d3d 0246 be3d 2906 abbd
00000140: 1a84 c9bd 93de a13d b67f 5bbd bb9f 733c
00000150: 4179 bebd 3ac0 67be f4ae 983d 95a6 87be
00000160: bf33 e83d 4dcc d03c d1a7 c7bd 4f98 27bd
00000170: 78c6 ec3d 6dbc 183e e97d 8a3d f59b e3bc
00000180: 1b33 ddbd 7f98 16be 78f5 893e c597 933d
00000190: eb5d c0bd b65d 833e 25ca ba3d b939 df3c
000001a0: ce31 ba3d 5c96 febd 4381 11be fd1e 3c3c
000001b0: d889 68be 7206 35bb e5c5 333e 184b be3c
000001c0: 2bad 99bb a1cd e4bd b020 383e ec26 583d
000001d0: 0f00 0fbe aec4 96bc 0b8c 7b3c a09f 193e
000001e0: 04b4 ea3c c287 a43d cce1 593e 2f8a c43c
000001f0: fa1a 243e 2dfc d63d f761 1dbe e747 e43d
00000200: 4809 a9bc c57d 14be c334 0fbe 4da6 c5bd
00000210: fd06 7cbd 3f94 a6be 717f 23be f431 763c
00000220: beec d2bd e927 47bd 5fb1 1dbc 0297 d3bd
00000230: ebf6 fe3c 1e99 8a3d 1dde c9bd 0829 203e
00000240: e45e 793e 47a7 913e b4da e1bc 8a94 debd
00000250: e887 293e f02b 043e 62e2 60be e804 893c
00000260: addb 003e b291 203e 6198 0a3e 780a 0dbe
00000270: b701 6c3e 65cc 463c 805e 5cbd 03d6 02be
00000280: a2e1 a13d 574f 7dbd 027c b83d 5625 83bb
00000290: c51c ddbd a0e2 003e 29dc a0bd 9c0c f53d
000002a0: e520 513e 4273 c53d 24f8 27be 9548 89bd
000002b0: 4a17 d43c f1e0 84bc 7de7 e03d 9f2c 69be
000002c0: 53bd 83bd 9a18 6cbe 1e15 2c3e 5090 51be
000002d0: 78ce 01be 766d 383e 2044 813d 0b20 75bd
000002e0: 9ba7 5ebe 36f8 cfbd 7841 a63d 3042 0c3d
000002f0: c8f0 1a3d d4fd 21be a2df 083e e1b8 93bd
00000300: dad3 a53c 4240 5cbd 2a1a bd3d 6276 f03d
00000310: 56a7 aabd 6839 293e b11c f9bd 2165 893d
00000320: fe95 babb 786a 353e 02ea 5ebe cd3c c8bd
00000330: 1268 fcbc 8b3d fdbc b9f2 8dbd 4649 bdbc
00000340: e332 fabd 5f09 27bd 8186 11be 4226 30bd
00000350: c618 06be d952 fb3d 7261 053e 13a5 7d3e
00000360: 7663 d33c 638e d8bd f2e8 a03d 6a09 2c3e
00000370: 0068 a0be 2db5 7b3c e353 03be e122 723e
00000380: 5e7b 1dbc 2836 bc3e d53e 93bd 3fdc 25be
00000390: 1448 6dbd ce60 333e 0bb8 c9bd a28b febd
000003a0: ff66 f03c f8ff 003e d2c3 523e cf75 143d
000003b0: a4df 833d d67f ca3d f34c 6d3a 05ca 13be
000003c0: 4aff 08bc 6b90 5c3e cbbc 1f3b 3bad 21bd
000003d0: a2f1 0c3e 5bd2 f2bd 2fde cfbd 5d55 1dbe
000003e0: ce05 55bd 43c9 61be a178 bdbd 8b2b 2c3e
000003f0: fdcb 45be 7de3 0abd 02b0 8a3e 1c7a f83d

lstm.weight_hh_l0 f4 [200, 50]
-0.002558767 0.0072858254 0.18185085 0.021269362 0.11052472 0.13545546 -0.1811801 0.0087273475
0.023449188 -0.298014 -0.021072252 0.11818587 -0.20986953 -0.03952744 -0.12402415 -0.06424713
-0.1325897 0.03680736 0.1726339 -0.057655003 0.08277759 0.14491065 0.28809273 -0.013993303
-0.11334898 -0.099511355 0.16990656 -0.15422662 0.19441804 -0.1553258 -0.08099409 -0.24701121
-0.19303584 0.22721855 0.051219244 0.13645068 0.2165851 0.010207128 -0.25319508 -0.010408434
-0.18066204 -0.13451421 -0.21019001 0.022762697 -0.04471012 0.12592125 0.17125766 -0.03516937
0.12635574 0.04356553 -0.050194673 -0.19082536 0.29445353 0.005392682 0.09065536 0.007158749
0.34232688 -0.07982777 0.13685751 -0.052837078 -0.070676066 0.09775154 0.016019745 -0.044722844
0.104013056 0.12404739 0.12694746 -0.08461798 -0.026417 -0.3146935 0.018730085 -0.16195035
-0.20591137 0.12989038 -0.031721655 0.14449021 -0.09452302 0.1557822 -0.24781649 -0.026982408
0.11442883 -0.037054572 -0.43429425 -0.17091165 0.13551924 -0.010154389 0.23996541 0.11468741
0.21584871 0.2375704 0.05695901 0.28296998 0.15316634 -0.096383795 -0.11342358 0.06695915
0.2771189 0.086740635 0.029001154 0.119888954 0.08368939 -0.20043653 0.31773126 0.1793803
0.07004091 0.29291767 0.09802267 0.15371373 -0.24105199 -0.15929304 0.44055188 -0.08751859
-0.15774807 0.29259858 0.15301193 -0.24183856 0.13156393 -0.2567308 0.42945626 0.10924605
0.08916944 0.18591149 0.117800266 -0.28731775 0.04966763 0.12965128 -0.07577958 -0.018169042
-0.0442084 0.31492624 0.10305882 -0.11457593 0.27091163 0.037900217 -0.08933145 0.36525235
0.01365743 0.11101144 -0.07524824 0.05788912 -0.52797747 -0.17578688 0.108056776 0.2086789
0.17251438 -0.1769655 0.4011708 -0.08760173 0.06914098 0.12889299 0.056057025 0.24979663
0.046360772 0.08512112 0.26633963 -0.0027628122 0.28832096 -0.0430303 0.07925676 -0.023269888
-0.16581877 0.3577185 0.0055430867 0.16229387 0.1514709 -0.18221585 -0.097232796 -0.16010301
0.1715441 -0.287919 -0.008571973 -0.08914484 -0.021640383 -0.014048693 -0.07383918 0.3280588
-0.24275562 0.20520763 0.263164 0.17844093 -0.030413931 -0.13672774 0.08399638 -0.10939526
-0.1837581 0.09845781 0.4317884 0.18699698 0.009848414 0.14540522 -0.29957366 0.032694504
0.20114349 0.06183422 -0.12890477 -0.15341482 0.082759626 0.14993533 0.09003384 0.16918457
0.17386095 0.01747769 0.18628316 -0.16370924 0.037894934 0.10252352 0.10825023 -0.027912373
0.06142543 -0.3378146 -0.16533104 -0.14824228 -0.12832548 -0.025350817 0.1337948 -0.045711316
-0.08345277 0.005915276 0.20343572 -0.21656503 -0.06963208 0.03162764 -0.12766348 -0.0010222922
-0.22091614 -0.069825076 0.13145296 0.21141034 0.12924774 0.26259866 -0.21897511 -0.044179164
0.17769408 0.022835815 -0.17431639 0.04490887 0.24755579 0.12900399 0.024667135 0.15221909
-0.003473054 0.04783748 0.08632766 0.13205886 -0.00042384982 -0.13470645 0.04179979 0.05934339
-0.24484834 0.09245928 0.009460452 0.17577438 -0.11899028 -0.41424954 -0.14555387 0.091304466
00000000: fdb0 27bb efbd ee3b 1c37 3a3e 163d ae3c
00000010: c95a e23d d6b4 0a3e 4787 39be 26fd 0e3c
00000020: 8318 c03c 4a95 98be b79f acbc 6f0b f23d
00000030: 0ae8 56be 86e7 21bd 6000 febd 0094 83bd
00000040: 98c5 07be 50c3 163d f1c6 303e a727 6cbd
00000050: 4c87 a93d 7563 143e e480 933e 2b44 65bc
00000060: 8323 e8bd 9ccc cbbd fcfb 2d3e 95ed 1dbe
00000070: 8615 473e ba0d 1fbe 3be0 a5bd 82f0 7cbe
00000080: 30ab 45be fbab 683e 45cb 513d bab9 0b3e
00000090: 7cc8 5d3e cc3b 273c c9a2 81be 2388 2abc
000000a0: 78ff 38be 18be 09be 0d3c 57be d678 ba3c
000000b0: f521 37bd 80f1 003e 2b5e 2f3e c20d 10bd
000000c0: 6663 013e c571 323d ee98 4dbd b967 43be
000000d0: 9dc2 963e 18b5 b03b 84a9 b93d f093 ea3b
000000e0: 7845 af3e be7c a3bd 6024 0c3e b16b 58bd
000000f0: 9dbe 90bd f631 c83d d73b 833c 4d2f 37bd
00000100: cc04 d53d 8f0c fe3d 84fe 013e 314c adbd
00000110: 7768 d8bc 821f a1be d66f 993c 50d6 25be
00000120: 6eda 52be fc01 053e 91ee 01bd 3ef5 133e
00000130: 4995 c1bd 5e85 1f3e 9bc3 7dbe 360a ddbc
00000140: aa59 ea3d 89c6 17bd d15b debe 7703 2fbe
00000150: 8ec5 0a3e 985e 26bc 7eb9 753e 3ce1 ea3d
00000160: 7207 5d3e a845 733e da4d 693d 71e1 903e
00000170: a3d7 1c3e de64 c5bd 9f4a e8bd e121 893d
00000180: 87e2 8d3e 13a5 b13d d493 ed3c 5788 f53d
00000190: 5865 ab3d 3c3f 4dbe acad a23e 78af 373e
000001a0: 9c71 8f3d 4ef9 953e 1cc0 c83d 2267 1d3e
000001b0: 55d6 76be b71d 23be 0490 e13e f23c b3bd
000001c0: b688 21be 7bcf 953e 29af 1c3e 87a4 77be
000001d0: b2b8 063e 3872 83be b1e1 db3e 65bc df3d
000001e0: 789e b63d 955f 3e3e 4441 f13d 501b 93be
000001f0: 4970 4b3d 4ec3 043e 5332 9bbd 3ed7 94bc
00000200: de13 35bd 033e a13e 8110 d33d c9a6 eabd
00000210: eeb4 8a3e 423d 1b3d 68f3 b6bd 5b02 bb3e
00000220: 6ac3 5f3c f759 e33d c01b 9abd 241d 6d3d
00000230: 8829 07bf 7a01 34be df4c dd3d ecaf 553e
00000240: 9ca7 303e 7236 35be 4266 cd3e 8968 b3bd
00000250: c999 8d3d 86fc 033e 0d9c 653d b0ca 7f3e
00000260: cbe4 3d3d fb53 ae3d ab5d 883e 4c10 35bb
00000270: ce9e 933e 8a40 30bd 5e51 a23d 7ea0 bebc
00000280: 65cc 29be e126 b73e c8a2 b53b 5d30 263e
00000290: 301b 1b3e cb96 3abe fd21 c7bd 0bf2 23be
000002a0: 42a9 2f3e 1f6a 93be 7671 0cbc 9291 b6bd
000002b0: 2c47 b1bc 7d2c 66bc ff38 97bd 53f7 a73e
000002c0: ee94 78be f321 523e 6fbd 863e 38b9 363e
000002d0: a326 f9bc 5b02 0cbe 4b06 ac3d 9f0a e0bd
000002e0: 152b 3cbe 40a4 c93d 5f13 dd3e 237c 3f3e
000002f0: 3e5b 213c 1be5 143e b861 99be acea 053d
00000300: 8ff8 4d3e e145 7d3d 9dff 03be c618 1dbe
00000310: e17d a93d a688 193e a963 b83d b83e 2d3e
00000320: 9b08 323e 5f2d 8f3c 03c1 3e3e 65a3 27be
00000330: b837 1b3d daf7 d13d 4cb2 dd3d 7da8 e4bc
00000340: 3b99 7b3d 09f6 acbe 8a4c 29be d3cc 17be
00000350: c167 03be 84ac cfbc 8101 093e ca3b 3bbd
00000360: 49e9 aabd eed4 c13b 7451 503e 39c3 5dbe
00000370: 449b 8ebd fc8b 013d 37ba 02be 6ffe 85ba
00000380: d737 62be 7300 8fbd 9b9b 063e f47b 583e
00000390: 8559 043e 5573 863e 033b 60be 36f5 34bd
000003a0: 70f5 353e 2d12 bb3c ff7f 32be 5df2 373d
000003b0: 447f 7d3e 9f19 043e bb12 ca3c 52df 1b3e
000003c0: 2d9c 63bb 3cf1 433d 8ecc b03d 703a 073e
000003d0: 2938 deb9 7df0 09be 4236 2b3d 0e12 733d
000003e0: 86b9 7abe 4a5b bd3d 0300 1b3c 33fe 333e
000003f0: 2db1 f3bd 8418 d4be 130c 15be d6fd ba3d

lstm.bias_ih_l0 f4 [200]
0.0128179975 0.10692379 0.39050204 0.24195477 0.23782176 -0.256891 -0.16990754 -0.2787244
0.016410097 0.078291744 -0.09525908 0.34960958 -0.2299625 -0.13713893 -0.062425934 0.4504197
-0.22007991 0.051821668 0.18246058 -0.048115354 -0.009627976 -0.16100705 -0.013820013 0.18128158
-0.26737264 0.3064636 0.077111706 -0.29731962 -0.24073501 0.026542023 0.24172331 0.01505199
0.16263004 -0.10599815 0.21446589 0.09523919 0.1534492 0.15521277 0.012220035 -0.18809056
0.23118035 -0.16545488 -0.016275425 -0.077096 0.20555541 0.043162785 0.2619997 -0.30757377
-0.057328448 0.10371212 -0.2972691 0.09668378 -0.12639005 0.15015745 -0.30436245 0.1829565
-0.1869 -0.08989131 -0.36532554 -0.027708758 -0.13633175 -0.13407776 0.034649927 0.033795446
-0.11859449 0.07222343 -0.20467319 -0.052862283 0.16812044 0.24209113 0.012424263 -0.13354234
-0.017558997 0.0050959955 0.3297665 -0.15211797 -0.19177257 -0.042058118 -0.02222207 0.06667145
-0.20956278 0.15859312 -0.18409109 0.03411306 -0.004581204 0.22664988 -0.1330134 0.0937325
-0.037581854 -0.090689845 0.013915989 0.07946972 -0.07789915 -0.21779783 -0.018649869 -0.12985869
0.16076738 -0.2677385 -0.13425207 -0.0633772 -0.019572904 0.24687849 0.07975112 0.11990887
0.15450329 0.05415109 -0.015586011 -0.003185587 -0.035013683 -0.21272187 0.12331318 0.07515473
-0.10059995 -0.09960923 -0.064422846 -0.44827127 -0.1521553 -0.057761658 0.32791305 -0.124598555
-0.020729033 -0.049895115 0.11911797 0.24157055 -0.09291803 -0.074168645 -0.05241812 -0.085025616
0.02934905 0.1348308 -0.030075403 -0.20257919 0.04979486 0.07272445 -0.07067103 0.3573131
0.26508045 0.32585928 -0.15177676 0.07208269 -0.31766844 -0.061128117 0.12731528 -0.06746762
-0.13296613 0.0770401 -0.030883495 -0.12753229 0.25312263 -0.115945466 -0.060701627 0.0874245
0.12438971 -0.16993594 0.08172532 -0.05258798 -0.1929386 -0.35304546 0.055322044 0.08388101
-0.33467957 0.24854635 -0.008797594 -0.15626656 -0.24391773 0.12347924 -0.35899997 -0.10178779
-0.07645987 0.09896299 0.082666546 -0.22964813 -0.09179147 -0.026533449 -0.08001073 0.22289431
0.06857515 -0.07885907 -0.26116654 0.08643749 0.24698843 -0.10747701 0.24131893 -0.3032195
0.07770422 0.045946036 0.018415246 -0.01276782 0.027667562 0.0687284 0.0942024 -0.08260322
0.13970394 -0.023137841 0.22894782 -0.34717524 0.10797093 -0.12961516 -0.18464418 -0.18747802
00000000: 9402 523c dcfa da3d e2ef c73e fec2 773e
00000010: 8c87 733e 3887 83be 3efc 2dbe f7b4 8ebe
00000020: 786e 863c 6c57 a03d 3117 c3bd 0700 b33e
00000030: 4a7b 6bbe 266e 0cbe 56b2 7fbd 699d e63e
00000040: a15c 61be f542 543d f2d6 3a3e 9b14 45bd
00000050: a9be 1dbc 08df 24be 566d 62bc e1a1 393e
00000060: 11e5 88be cce8 9c3e beec 9d3d 473a 98be
00000070: 3d83 76be a86e d93c 5186 773e 9f9c 763c
00000080: 7d88 263e 8f15 d9bd f29c 5b3e c40c c33d
00000090: c921 1d3e 19f0 1e3e 8b36 483c d09a 40be
000000a0: 8bba 6c3e 016d 29be 0a54 85bc 82e4 9dbd
000000b0: 1e7d 523e 76cb 303d d324 863e 4f7a 9dbe
000000c0: 3cd1 6abd 0567 d43d a833 98be 2502 c63d
000000d0: 656c 01be e0c2 193e 65d5 9bbe f358 3b3e
000000e0: b762 3fbe ef18 b8bd f30b bbbe 7afd e2bc
000000f0: 8d9a 0bbe ae4b 09be 15ed 0d3d 186d 0a3d
00000100: abe1 f2bd e1e9 933d d995 51be 1f86 58bd
00000110: c427 2c3e bde6 773e 238f 4b3c 53bf 08be
00000120: e3d7 8fbc 4ffc a63b 28d7 a83e d0c4 1bbe
00000130: 0760 44be 2245 2cbd 0f0b b6bc 0b8b 883d
00000140: a097 56be 3c66 223e 6082 3cbe 23ba 0b3d
00000150: ed1d 96bb e816 683e aa34 08be d3f6 bf3d
00000160: 6eef 19bd 99bb b9bd e3ff 633c 05c1 a23d
00000170: 9789 9fbd 6506 5fbe 9cc7 98bc adf9 04be
00000180: 34a0 243e 0515 89be 6079 09be e8cb 81bd
00000190: 5b57 a0bc b7cd 7c3e 8e54 a33d c892 f53d
000001a0: 1c36 1e3e 89cd 5d3d 785c 7fbc 48c5 50bb
000001b0: 826a 0fbd c3d3 59be 9f8b fc3d b9ea 993d
000001c0: 5907 cebd edff cbbd 20f0 83bd d083 e5be
000001d0: 99ce 1bbe 7d97 6cbd 38e4 a73e 872d ffbd
000001e0: efcf a9bc d25e 4cbd 1ff4 f33d 455e 773e
000001f0: cf4b bebd bbe5 97bd 62b4 56bd e921 aebd
00000200: 6b6d f03c 1611 0a3e b160 f6bc eb70 4fbe
00000210: b2f5 4b3d 8ef0 943d f9bb 90bd bef1 b63e
00000220: a0b8 873e 07d7 a63e 5e6b 1bbe 17a0 933d
00000230: 70a5 a2be 7a61 7abd f05e 023e 772c 8abd
00000240: 4628 08be 33c7 9d3d 62ff fcbc d397 02be
00000250: 4a99 813e d174 edbd 45a2 78bd 9e0b b33d
00000260: 08c0 fe3d b003 2ebe 9b5f a73d 7e66 57bd
00000270: b291 45be 60c2 b4be 5e99 623d cfc9 ab3d
00000280: 1f5b abbe ef82 7e3e c923 10bc 5704 20be
00000290: 92c5 79be afe2 fc3d d8ce b7be 1e76 d0bd
000002a0: fe96 9cbd 1cad ca3d 144d a93d e128 6bbe
000002b0: 2bfd bbbd ad5c d9bc aadc a3bd 683e 643e
000002c0: 2171 8c3d dd80 a1bd 9fb7 85be 2406 b13d
000002d0: 89ea 7c3e e81c dcbd 4f1c 773e 963f 9bbe
000002e0: 6423 9f3d e931 3c3d 92db 963c 1e30 51bc
000002f0: 15a7 e23c 7ac1 8c3d 30ed c03d e12b a9bd
00000300: 8d0e 0f3e 928b bdbc 4c71 6a3e f4c0 b1be
00000310: dd1f dd3d d6b9 04be 5d13 3dbe 3dfa 3fbe

lstm.bias_hh_l0 f4 [200]
-0.08173591 0.27174082 0.38886517 0.38085452 0.057545416 -0.24495028 -0.2057598 -0.1670304
0.0042468547 0.14620228 -0.18421978 0.2099131 -0.05676422 -0.065965936 -0.26191744 0.24576196
-0.024779899 0.2313475 0.19776103 -0.17526793 0.115012094 0.055005543 -0.16444343 0.18668434
-0.20905203 0.37311965 -0.046554595 -0.27158904 -0.24136409 -0.07649299 0.061777227 -0.021448858
0.25113288 0.055008996 0.2521931 -0.01933204 0.003077598 0.27398786 -0.12923941 -0.067767315
0.2641226 -0.14619485 -0.05403698 -0.0015246446 0.19211511 -0.15083708 0.07825366 -0.20496047
-0.24751027 0.07318683 -0.32407117 0.10734171 -0.34344167 0.39621842 -0.31031746 0.06783787
-0.14084809 -0.039198346 -0.34809887 0.045306027 -0.11683633 -0.1066074 0.004565156 0.2240672
-0.081772335 0.053993788 -0.165364 -0.06568729 0.03600667 0.18936656 -0.010174678 0.0903871
-0.0154525805 -0.026892211 0.22282365 -0.2680007 -0.23417461 -0.15975598 -0.045083255 -0.08834646
-0.38112566 -0.01776973 -0.06800512 -0.052387387 0.23524956 0.2052594 -0.015049135 0.07193093
-0.14861625 0.01788486 0.14207473 -0.017546734 -0.21041948 -0.06744719 -0.15240747 -0.0014313041
0.15072395 -0.13772042 -0.17430134 -0.16654062 0.11548627 0.1273271 -0.006168973 0.21588026
-0.055289034 0.01683665 -0.07195807 0.059870746 -0.096458435 0.009983208 0.08453341 0.06167873
-0.07758969 0.074202225 0.07620066 -0.45571432 -0.08088556 0.022391448 0.2415047 -0.0030469182
-0.07208397 0.04257556 0.11708367 0.24708371 -0.13539852 -0.05836 -0.056572367 0.08477516
0.11651287 0.054501478 -0.21839383 -0.22219917 0.12579724 0.11248945 -0.24598834 0.2332588
0.2791603 0.35585633 0.003594886 0.03853487 -0.37977582 0.055616047 9.672559e-05 -0.04877317
0.0026661414 0.022766376 0.07720276 0.06839469 0.3010418 -0.020349542 0.04402016 0.028785704
0.09959391 -0.28665206 0.032895934 -0.037542235 -0.291984 -0.20709193 -0.09498241 0.15006207
-0.16620107 0.19847515 -0.04810898 -0.22088417 -0.26187658 0.18587422 -0.41843644 -0.09731138
0.037579607 0.1199551 0.1413792 -0.07913305 -0.14767246 0.151034 -0.06436402 0.2573049
-0.000607474 -0.20721087 -0.104491234 0.0085050315 0.25629517 -0.10865595 0.19657063 -0.2624531
0.06231681 0.037374604 -0.009979223 -0.026857195 -0.019404842 0.0066246046 -0.018011976 -0.025613789
0.013494615 -0.0065782336 0.18995357 -0.31813884 0.20001644 -0.2807624 -0.12248371 -0.1730778
00000000: 2865 a7bd 9d21 8b3e 5619 c73e 5dff c23e
00000010: beb4 6b3d 3fd4 7abe b2b2 52be 040a 2bbe
00000020: 3329 8b3b 0db6 153e 1ca4 3cbe 76f3 563e
00000030: 9981 68bd 2619 87bd 0b1a 86be 06a9 7b3e
00000040: 37ff cabc 5ce6 6c3e de81 4a3e 7079 33be
00000050: 768b eb3d 7e4d 613d dc63 28be 2e2a 3f3e
00000060: bc11 56be 8a09 bf3e 08b0 3ebd b80d 8bbe
00000070: 2628 77be 5ba8 9cbd 1e0a 7d3d 84b5 afbc
00000080: 7d94 803e 1d51 613d 741f 813e 3a5e 9ebc
00000090: 87b1 493b 2348 8c3e 5657 04be 97c9 8abd
000000a0: 143b 873e 1ab4 15be e155 5dbd 95d6 c7ba
000000b0: d3b9 443e 0975 1abe 7443 a03d 28e1 51be
000000c0: 5573 7dbe fae2 953d a8ec a5be f8d5 db3d
000000d0: 96d7 afbe 24dd ca3e eee1 9ebe 95ee 8a3d
000000e0: 7b3a 10be 728e 20bd 043a b2be d092 393d
000000f0: e347 efbd fb54 dabd 4e97 953b df71 653e
00000100: 4178 a7bd 9728 5d3d 2e55 29be 0f87 86bd
00000110: bb7b 133d 4fe9 413e b1b3 26bc df1c b93d
00000120: d22c 7dbc 0e4d dcbc e22b 643e 6337 89be
00000130: 78cb 6fbe 1297 23be 38a9 38bd fdee b4bd
00000140: e722 c3be d391 91bc 4546 8bbd 2894 56bd
00000150: 43e5 703e 852f 523e a690 76bc 8650 933d
00000160: dc2e 18be 4583 923c 0a7c 113e 2bbe 8fbc
00000170: 3478 57be c121 8abd b410 1cbe 999a bbba
00000180: 6157 1a3e 9506 0dbe 0d7c 32be a089 2abe
00000190: 1184 ec3d 0962 023e 1925 cabb b70f 5d3e
000001a0: c176 62bd 04ed 893c c15e 93bd 073b 753d
000001b0: 008c c5bd 9c90 233c da1f ad3d d6a2 7c3d
000001c0: 58e7 9ebd 56f7 973d 170f 9c3d 6353 e9be
000001d0: 54a7 a5bd 456e b73c 024d 773e ceae 47bb
000001e0: c3a0 93bd b663 2e3d 90c9 ef3d 8303 7d3e
000001f0: e9a5 0abe e50a 6fbd 6db8 67bd 999e ad3d
00000200: 4d9e ee3d f13c 5f3d a2a2 5fbe 2e88 63be
00000210: fed0 003e de60 e63d 5ee4 7bbe 65db 6e3e
00000220: 19ee 8e3e cd32 b63e 2e98 6b3b bdd6 1d3d
00000230: fa71 c2be a7cd 633d 28d9 ca38 60c6 47bd
00000240: 6eba 2e3b 8d80 ba3c 7b1c 9e3d 8412 8c3d
00000250: 2722 9a3e 15b4 a6bc 7c4e 343d ffcf eb3c
00000260: e4f7 cb3d 0fc4 92be e3bd 063d e3c5 19bd
00000270: ed7e 95be e80f 54be 2386 c2bd dfa9 193e
00000280: 9d30 2abe 123d 4b3e ec0d 45bd 762f 62be
00000290: b014 86be d055 3e3e 4d3d d6be 304b c7bd
000002a0: 13ed 193d 05ab f53d b6c5 103e 8210 a2bd
000002b0: 7337 17be a8a8 1a3e 49d1 83bd 78bd 833e
000002c0: e43e 1fba 162f 54be 80ff d5bd b058 0b3c
000002d0: 1f39 833e 0387 debd d049 493e 4160 86be
000002e0: e93f 7f3d 1d16 193d e57f 23bc 9f03 dcbc
000002f0: e7f6 9ebc 3613 d93b da8d 93bc 02d4 d1bc
00000300: 8518 5d3c 398e d7bb 3083 423e 18e3 a2be
00000310: 1cd1 4c3e 17c0 8fbe bdd8 fabd 4f3b 31be

lstm.weight_ih_l1 f4 [200, 50]
-0.24055699 -0.041044906 -0.17127761 0.10708958 0.14255832 0.08990282 0.21064217 0.049264856
0.18404666 -0.015507637 0.013877679 0.14372051 0.07828517 0.116540745 0.04185377 -0.02454254
0.0046461676 0.12244928 -0.020200355 -0.16861868 0.0065973117 0.08118688 -0.20529684 -0.013179034
0.13151419 0.35127345 -0.21706043 0.14962828 -0.00095059385 0.10148697 0.24525726 -0.1166187
0.054545186 -0.07953797 -0.0178288 -0.12868463 0.044931956 0.105876654 0.22615209 0.19620433
-0.24432795 0.03533397 0.25318325 0.25774223 0.09106323 -0.31592965 0.07748553 0.15718235
0.13743854 0.10790199 0.09705612 -0.28008547 0.4147479 -0.16106868 -0.036838636 0.14011234
-0.15550888 -0.0774808 -0.056012634 -0.22823471 -0.09403492 -0.4349376 -0.055343922 -0.005569877
-0.018633468 0.3509046 0.04963334 0.106520236 -0.13310277 -0.07211676 0.095081076 0.07705178
-0.06091952 0.12619743 0.16840142 -0.474264 0.105647095 -0.01282118 -0.18663284 -0.20064285
0.0013055493 -0.18779173 -0.02827755 0.12652417 0.18866338 -0.13545962 -0.07386977 -0.33008474
-0.04345806 0.4397903 0.4974906 -0.04778507 -0.16377802 -0.13798834 0.09700475 0.24027565
0.25435257 -0.12851043 -0.08887787 -0.046790995 0.29117906 -0.28173792 0.1956613 -0.38604164
0.035662156 0.19836177 -0.09832778 -0.11652766 0.15135244 -0.038731772 -0.20213793 0.21989027
-0.12289535 -0.10229715 -0.103930146 0.2784427 -0.043325633 0.053374257 -0.23274277 0.20582317
-0.19915248 0.22919667 0.025065716 0.020418856 0.3098128 0.27789804 0.1751433 -0.16132411
-0.05422984 -0.05352331 -0.0841832 -0.23724155 -0.035402175 0.0020050292 0.07199769 -0.3487366
0.15783559 -0.104364574 -0.07835336 -0.03625294 0.15874179 0.1099056 -0.030421866 -0.12004499
-0.249902 -0.033029873 0.10486045 0.13459213 0.20016466 -0.18771845 0.17904061 -0.31122032
0.39454484 -0.024815608 -0.1412401 0.2922659 -0.019479953 -0.0036937709 -0.008909999 0.057384714
-0.19878776 -0.18716133 -0.01873063 -0.07890605 -0.07594758 0.56253046 0.08942916 0.14308728
-0.22849433 -0.07468645 -0.08648444 0.05709066 -0.12696494 -0.23938602 0.27808434 -0.36147517
0.06744453 -0.15747133 -0.18255363 -0.023587847 0.17286514 -0.20492522 -0.14010063 0.020697735
0.27915016 -0.22109923 0.12328836 -0.31443644 -0.1139102 0.15113474 0.548101 -0.17027856
-0.24314809 -0.109329075 -0.023207447 0.04409793 0.4484356 0.025230056 -0.05770596 -0.1161397
0.13761885 -0.14652714 -0.119695954 -0.26861578 0.16087645 -0.119712085 0.045954175 0.014548416
-0.21230368 0.017635213 0.3012697 0.024304077 -0.23832658 -0.00183276 0.092124715 0.06626344
-0.15726198 0.41979095 -0.08920803 0.046616986 -0.100248925 0.10739582 0.064396925 0.051870063
0.25869676 -0.26342413 0.14917879 -0.27535206 0.09429174 -0.099532045 0.18448456 -0.13711469
-0.15795551 -0.053860918 0.19787887 -0.10130345 -0.15424907 -0.04356681 -0.19428307 0.09083875
0.03622668 -0.12459242 -0.17404649 -0.1666426 0.24573557 0.05805011 0.039506134 0.068766996
0.09404954 -0.0038967633 0.017235084 0.04875137 -0.2507559 -0.2496144 -0.00092471374 -0.020362787
00000000: 9254 76be b41e 28bd 6663 2fbe c851 db3d
00000010: cffa 113e f81e b83d 95b2 573e f2c9 493d
00000020: ba76 3c3e be13 7ebc 345f 633c 782b 133e
00000030: fa53 a03d eaac ee3d dc6e 2b3d 700d c9bc
00000040: e13e 983b b0c6 fa3d 377b a5bc 60aa 2cbe
00000050: 432e d83b 4f45 a63d 5639 52be e0ec 57bc
00000060: a8ab 063e 1dda b33e 1745 5ebe 2838 193e
00000070: 4631 79ba 67d8 cf3d b824 7b3e c9d5 eebd
00000080: c66a 5f3d cee4 a2bd b40d 92bc e7c5 03be
00000090: 920a 383d dcd5 d83d 6a94 673e cae9 483e
000000a0: 1b31 7abe 5aba 103d 3ca1 813e caf6 833e
000000b0: 5c7f ba3d 88c1 a1be bcb0 9e3d 69f4 203e
000000c0: b0bc 0c3e b8fb dc3d 5cc5 c63d 5d67 8fbe
000000d0: d659 d43e 30ef 24be 1ce4 16bd 9c79 0f3e
000000e0: b83d 1fbe 41ae 9ebd 816d 65bd 5cb6 69be
000000f0: 6195 c0bd 24b0 debe 4fb0 62bd 8483 b6bb
00000100: 37a5 98bc c5a9 b33e 544c 4b3d 4827 da3d
00000110: 184c 08be f4b1 93bd deb9 c23d 53cd 9d3d
00000120: bf86 79bd e639 013e 6c71 2c3e bbd2 f2be
00000130: 815d d83d ed0f 52bc ae1c 3fbe 5275 4dbe
00000140: f71e ab3a 7a4c 40be 52a6 e7bc 8d8f 013e
00000150: f930 413e edb5 0abe 0949 97bd de00 a9be
00000160: 1401 32bd 322c e13e 17b7 fe3e 47ba 43bd
00000170: 6db5 27be d14c 0dbe 6daa c63d d20a 763e
00000180: 803a 823e 3d98 03be 9a05 b6bd eaa7 3fbd
00000190: 6c15 953e f43f 90be 705b 483e 40a7 c5be
000001a0: 7b12 123d 591f 4b3e 1360 c9bd 0ea6 eebd
000001b0: 22fc 1a3e 35a5 1ebd 3ffd 4ebe ea2a 613e
000001c0: 8fb0 fbbd 2b81 d1bd 54d9 d4bd 0b90 8e3e
000001d0: 3876 31bd f79e 5a3d 1f54 6ebe 4fc3 523e
000001e0: a1ee 4bbe 88b2 6a3e 9e56 cd3c 7245 a73c
000001f0: c99f 9e3e a748 8e3e c458 333e 2632 25be
00000200: 1c20 5ebd 423b 5bbd 3e68 acbd 73ef 72be
00000210: df01 11bd cf66 033b 8673 933d 9b8d b2be
00000220: a79f 213e 18bd d5bd ba77 a0bd f67d 14bd
00000230: 358d 223e 3016 e13d 4737 f9bc 26da f5bd
00000240: 4fe6 7fbe 554a 07bd 13c1 d63d 85d2 093e
00000250: f7f7 4c3e 4439 40be 6c56 373e 4558 9fbe
00000260: c801 ca3e 1a4a cbbc 3fa1 10be e0a3 953e
00000270: 6c94 9fbc 3113 72bb 3ffb 11bc 3c0c 6b3d
00000280: 058f 4bbe 38a7 3fbe fa70 99bc 7f99 a1bd
00000290: 688a 9bbd ff01 103f a326 b73d 7985 123e
000002a0: 6bfa 69be 36f5 98bd c11e b1bd e5d7 693d
000002b0: 1903 02be 9c21 75be 1261 8e3e 4613 b9be
000002c0: 5c20 8a3d 2a40 21be 57ef 3abe 4d3b c1bc
000002d0: 8f03 313e ebd7 51be 8a76 0fbe 4c8e a93c
000002e0: c5ec 8e3e d667 62be 9c7e fc3d d0fd a0be
000002f0: c049 e9bd 11c3 1a3e 5950 0c3f 815d 2ebe
00000300: d0fb 78be ece7 dfbd 8b1d bebc 08a0 343d
00000310: 5a99 e53e 43af ce3c 165d 6cbd a7da edbd
00000320: f5eb 0c3e 360b 16be 2723 f5bd 0288 89be
00000330: ccbc 243e 9c2b f5bd 723a 3c3d 7b5c 6e3c
00000340: 2366 59be b977 903c 0640 9a3e 5819 c73c
00000350: e20b 74be 3939 f0ba e2ab bc3d 20b5 873d
00000360: 4909 21be d7ee d63e b3b2 b6bd 74f1 3e3d
00000370: 4f4f cdbd 57f2 db3d 89e2 833d b475 543d
00000380: e773 843e 87df 86be 53c2 183e f2fa 8cbe
00000390: 071c c13d 75d7 cbbd 85e9 3c3e cb67 0cbe
000003a0: 17bf 21be 449d 5cbd c2a0 4a3e 2f78 cfbd
000003b0: 78f3 1dbe 1d73 32bd 24f2 46be ab09 ba3d
000003c0: 6d62 143d 502a ffbd 3e39 32be 5ca4 2abe
000003d0: 1ba2 7b3e f4c5 6d3d 2fd1 213d b6d5 8c3d
000003e0: 0c9d c03d d760 7fbb 9730 8d3c 84af 473d
000003f0: 1463 80be eb9a 7fbe 7d68 72ba dccf a6bc
