pol_models/ozone_model_state.pt (torch, 650366 bytes, 16 tensors)

conv1.weight f4 [64, 300, 3]
0	0xbcd21a15	-0.025647203
1	0x3bb19c82	0.0054202685
2	0x3c2041a6	0.009781277
3	0xbc08daa9	-0.008352914
4	0x3baf69bb	0.00535318
5	0xbd165ba1	-0.036708478
6	0xbc3ab441	-0.011395515
7	0xbd055192	-0.032548495
8	0xbc22335f	-0.009899943
9	0xbcda9c8a	-0.026685972
10	0xbc963b4d	-0.018338824
11	0x3b2481b9	0.0025101735
12	0xbbc03f69	-0.005866934
13	0xbc50a21c	-0.012733962
14	0xbbeca4c3	-0.0072217896
15	0xbbecf870	-0.0072317645
16	0x3ca0b751	0.019618662
17	0xbcdcd104	-0.026955135
18	0xbc9685ec	-0.018374406
19	0x3bd3b231	0.006460451
20	0x3c6b5d59	0.0143655175
21	0x3b99d68f	0.004694767
22	0xbd1a2f6b	-0.037642878
23	0x3cd79a19	0.026318597
24	0xbcdb1b46	-0.026746403
25	0xbb5e7be9	-0.0033948368
26	0xbd030755	-0.031989414
27	0xbb8f20b8	-0.004367914
28	0x3ca9a08d	0.02070644
29	0xbd0a3f8c	-0.03375201
30	0xb934e86a	-0.00017252719
31	0x3b1b6912	0.002371375
32	0x39ffb15e	0.0004876954
33	0x3ccca5d8	0.024981424
34	0xbcbe9885	-0.023266086
35	0xbc016c60	-0.007899374
36	0x3c80412d	0.015656078
37	0xbcdc4b6f	-0.026891438
38	0xbcc9d35b	-0.024636915
39	0x3c86ac78	0.016439661
40	0xbc274248	-0.010208674
41	0x3c354faf	0.011066361
42	0x3c5d4034	0.013504077
43	0xbc0e449d	-0.008683351
44	0x3b64d1ae	0.0034915018
45	0xbca17cfa	-0.019712914
46	0xbcb78794	-0.022403516
47	0xbc925af8	-0.017865643
48	0x3c7f98c4	0.015600387
49	0xbc62a945	-0.013834302
50	0x3cc94393	0.024568355
51	0x3c1dd830	0.009634063
52	0x3c8bd7ce	0.017070677
53	0x3cb6647e	0.022264715
54	0xbd03a5a2	-0.03214038
55	0xbc8294d3	-0.015940106
56	0xbcd45796	-0.02592067
57	0xbc632285	-0.013863211
58	0x3cb405bf	0.021975396
59	0xbc2bed72	-0.010493623
60	0x3cc54402	0.02408028
61	0xbc87b452	-0.016565476
62	0x3bb330e3	0.0054684742
63	0x3cb1c4c4	0.02170027
64	0xbd201279	-0.039080117
65	0xbcb3b27a	-0.02193569
66	0x3c89b758	0.016811058
67	0xbc6dcb50	-0.0145138055
68	0xbc7e70c0	-0.015529811
69	0xbcbbcbb8	-0.02292429
70	0x3bcb7145	0.006208571
71	0xbcfe0f4d	-0.031013155
72	0x3cd522b3	0.026017522
73	0x3c881afc	0.01661443
74	0x3c833c4e	0.016019966
75	0xbc853efd	-0.016265387
76	0xbd01d5bd	-0.031697977
77	0x3ca6a49f	0.02034217
78	0x3c185873	0.009298432
79	0xbcdcc0f0	-0.026947469
80	0x3c48b582	0.012250306
81	0xb9171d9b	-0.00014411511
82	0xbd0042ba	-0.031313635
83	0x3cd61c04	0.026136406
84	0x3c050bb2	0.008120464
85	0x3c942473	0.018083787
86	0x3ca55717	0.02018313
87	0xbd0f2c70	-0.03495449
88	0xbc695d07	-0.014243371
89	0xbcd995f2	-0.026560757
90	0x3be5549f	0.006998613
91	0x3c9fd239	0.019509422
92	0x3c0bfd4c	0.008544277
93	0xbc91cbef	-0.017797438
94	0x3ce17435	0.027521232
95	0x3cc6001b	0.024169972
96	0xbcb27579	-0.021784531
97	0xbc73d009	-0.014881142
98	0x3cb057f5	0.021526316
99	0xbcb6b859	-0.0223047
100	0x3c93727e	0.01799893
101	0xbc122c3d	-0.00892168
102	0xbb3463b3	-0.0027525246
103	0xbcc3f9f7	-0.023922903
104	0x3ca04202	0.019562725
105	0xbcc57ff9	-0.024108874
106	0x3c65b703	0.014020684
107	0xbcf6fe1c	-0.030150466
108	0x3cb9d959	0.022686647
109	0xbd07af21	-0.033126
110	0x3cce4e99	0.025183963
111	0xbccc7241	-0.024956824
112	0xbc9160e4	-0.017746396
113	0xbba92ddf	-0.005162939
114	0xbd0cd837	-0.034385886
115	0xbb8dcbff	-0.0043272967
116	0xbae6a8fb	-0.0017597968
117	0xbcf6697a	-0.030079592
118	0xbc9a4e3d	-0.018836135
119	0x3cbb9420	0.02289778
120	0x3c60d1cb	0.013721894
121	0xbc5724ec	-0.013131361
122	0x3c10799f	0.008818059
123	0xba4ee5e7	-0.00078925345
124	0xbcdccded	-0.026953662
125	0xbcd376ec	-0.025813542
126	0x3c4efb93	0.012633222
127	0xbca141f1	-0.019684764
128	0x3b4600eb	0.003021295
129	0x3cc052ba	0.023476947
130	0x3c5fda8b	0.013662945
131	0x3ca8c778	0.020602927
132	0xbb4dd3ab	-0.0031406682
133	0x3c1077e2	0.008817645
134	0xbcc47ce2	-0.02398533
135	0xbd18fe26	-0.03735175
136	0xbd02b838	-0.031913966
137	0x3b5c7e0c	0.0033644466
138	0x3c116c8a	0.008875975
139	0xbc91adaa	-0.017783005
140	0x3ba822b3	0.0051310896
141	0x3c011cf6	0.00788044
142	0x3ce1c915	0.027561704
143	0x3c9982b7	0.018739088
144	0x3881fdf1	6.1984996e-05
145	0x3c3dd38b	0.01158608
146	0x3bc26a19	0.005933058
147	0x3cbbf94e	0.022946026
148	0xbccf31cf	-0.025292305
149	0xbc9002be	-0.017579433
150	0x3b074f9e	0.002064682
151	0xbca68a32	-0.020329569
152	0xbaf606da	-0.0018770352
153	0xbd0da7a3	-0.0345837
154	0xbb9b9ba3	-0.004748778
155	0xbbc3abc2	-0.005971403
156	0xbc0ccc33	-0.008593607
157	0xbd14d183	-0.03633262
158	0xbb150969	-0.0022741205
159	0xbc79106d	-0.01520167
160	0xbb80189f	-0.003909185
161	0xba99a413	-0.0011721872
162	0xbd092765	-0.033484835
163	0xbbb95dc0	-0.005656928
164	0xbb80bba7	-0.00392862
165	0xbc4b9f25	-0.01242808
166	0x3c1af6b1	0.00945823
167	0xbaa83345	-0.0012832662
168	0xbb24ac5b	-0.0025127146
169	0x3ca25703	0.019816881
170	0x3c7c5b82	0.015402677
171	0xbc79a0f4	-0.015236128
172	0xbbb6e570	-0.0055815503
173	0x3cba301a	0.022728015
174	0x3bb63cd9	0.005561453
175	0xbce20153	-0.027588522
176	0x3ca4fc28	0.020139769
177	0x3c90f85a	0.017696548
178	0xbab74255	-0.001398156
179	0xbcde96b5	-0.027171472
180	0xbbecf549	-0.0072313887
181	0xbc849252	-0.016183052
182	0xbd1e57d4	-0.03865798
183	0x3c4fe3d1	0.012688593
184	0x3c9e8050	0.019348294
185	0x3c94811e	0.018127974
186	0xbc2094fa	-0.009801144
187	0x3cce3398	0.025171086
188	0xbc8ca71d	-0.01716953
189	0xbb3e2b8c	-0.0029017655
190	0x3c133d72	0.008986818
191	0xbd04d184	-0.032426372
192	0x3cb31de6	0.021864843
193	0xbce5dcf9	-0.02805947
194	0xbcc0acdb	-0.023519924
195	0x3c6c96fb	0.014440293
196	0xbd077569	-0.033070955
197	0xbcd645de	-0.026156362
198	0x3cb46840	0.022022367
199	0x3c3693e7	0.011143661
200	0x3cc433da	0.023950506
201	0xbb0be982	-0.0021348898
202	0x3be7eef1	0.0070780446
203	0xbc59899f	-0.01327744
204	0xbbd7fd68	-0.0065914877
205	0x3c04c7b1	0.008104251
206	0xbd031095	-0.031998236
207	0x3cd93084	0.026512392
208	0x3c707312	0.014675872
209	0xbbb18df9	-0.005418536
210	0xbcd43d2a	-0.025908072
211	0x3c9bdf98	0.019027516
212	0x3c578b12	0.013155716
213	0xbcd64faa	-0.026161034
214	0xbc2455dc	-0.010030236
215	0x3addbfb3	0.0016918093
216	0xbc6bc007	-0.014389045
217	0x3c9e6cf7	0.019339068
218	0xbcb05d69	-0.021528916
219	0xbd19088f	-0.037361678
220	0xbc8aa11f	-0.016922532
221	0x3bc142cb	0.005897855
222	0xbc637cb2	-0.01388471
223	0xbd1334b9	-0.035938952
224	0xbc12966a	-0.008946994
225	0x3cb52c21	0.022115769
226	0xbc9f69bd	-0.0194596
227	0x3ad35872	0.0016124381
228	0xbcd40520	-0.02588135
229	0x3cddfb14	0.027097262
230	0xbb002258	-0.001955172
231	0x3baf2901	0.005345464
232	0x3adf394a	0.0017030623
233	0x3ccd89f1	0.02509019
234	0xbcdace2c	-0.026709639
235	0xbd1ebac5	-0.038752336
236	0xbc084965	-0.00831828
237	0xbc8b683a	-0.017017473
238	0xbd047f3c	-0.032347903
239	0xbcada885	-0.02119852
240	0x3beed8c1	0.0072890227
241	0xbca55b2c	-0.020185076
242	0x3c88f11a	0.016716529
243	0xbb8deaa5	-0.0043309503
244	0xbc440891	-0.011964933
245	0xbc932a57	-0.017964525
246	0xbd00857d	-0.031377304
247	0xbd139d11	-0.036038462
248	0x3c7dade4	0.015483353
249	0xbd0e6bbb	-0.03477071
250	0x3a03a512	0.0005021851
251	0x39e77ac4	0.0004415122
252	0xbcf2ca1a	-0.029637385
253	0xbc53c600	-0.012925625
254	0x3ba67b33	0.0050806045
255	0x3be22193	0.006900975

conv1.bias f4 [64]
0	0x3aff25ea	0.0019466255
1	0xbece66de	-0.40312856
2	0x3ca260b7	0.019821508
3	0xbcea2a1f	-0.028584538
4	0xbc0fd2aa	-0.008778254
5	0x3a77e023	0.0009455701
6	0xbe8e75d5	-0.27824274
7	0xbe1c6953	-0.15274553
8	0x3b908ccc	0.0044113155
9	0xbbbdfef6	-0.005798216
10	0x3cadaa54	0.021199383
11	0xbcf5622c	-0.029954039
12	0x3d0acddf	0.03388774
13	0xbeab7985	-0.3349115
14	0xbd0f25d2	-0.034948178
15	0xbcb690a5	-0.022285769
16	0xbcb8e6d6	-0.022571009
17	0xbe8690dc	-0.26282394
18	0xbd096b56	-0.03354963
19	0xbe903867	-0.28168032
20	0x3cd376d2	0.025813494
21	0xbdc208a9	-0.09474308
22	0xbdc03990	-0.09385979
23	0xbb8cd794	-0.00429816
24	0xbe5e6f8c	-0.2172224
25	0xbc2b1f2b	-0.010444443
26	0xbcd91eea	-0.026503999
27	0x3ca6cb8f	0.020360736
28	0xbd0955b4	-0.033529
29	0x3b949191	0.0045339544
30	0xbc95f0b0	-0.018303245
31	0xbca1d14b	-0.019753119
32	0xbe9d25a2	-0.30692774
33	0xbe33cd9b	-0.17558901
34	0x3c942d1f	0.018087922
35	0xbde4e73c	-0.11176917
36	0x3c998e06	0.01874448
37	0x3ca98eb9	0.020697938
38	0x3bf1ccc6	0.007379147
39	0xbc19c835	-0.009386112
40	0xbd1a04cd	-0.037602235
41	0xbe8f76d5	-0.2802035
42	0xbbda3b01	-0.006659866
43	0xbe90129c	-0.28139198
44	0xbd0db8b8	-0.03459999
45	0xbcf07d0e	-0.029356506
46	0xbe9d1f8c	-0.3068813
47	0xbca03af6	-0.019559365
48	0x3cb4c8b8	0.022068366
49	0xbbea9c04	-0.007159712
50	0xbc9a6b11	-0.018849881
51	0xbee4a8fc	-0.44660175
52	0xbd20bed4	-0.039244488
53	0x3b005731	0.001958322
54	0xbd048ac0	-0.032358885
55	0xbcc107fd	-0.02356338
56	0xbeabb6a4	-0.3353778
57	0xbcabb264	-0.020959087
58	0xbee5e541	-0.4490147
59	0xbc0a5055	-0.008442004
60	0xba2bf29f	-0.00065592857
61	0xbcebec94	-0.028799333
62	0xbeb65260	-0.35609722
63	0xbb98074c	-0.0046395417

conv2.weight f4 [128, 64, 3]
0	0xbd78a3dd	-0.060703147
1	0x3d0b0b05	0.033946056
2	0xbd84f2ee	-0.06491648
3	0xbd377635	-0.044790465
4	0xbb436273	-0.002981332
5	0xbbe9ce54	-0.007135192
6	0x3ce88878	0.028385386
7	0xbd33350e	-0.04375177
8	0xbd931317	-0.071813755
9	0xbd4805df	-0.048833724
10	0x3d834ca6	0.06411104
11	0xbc51e928	-0.012811936
12	0x3cd4f47b	0.025995484
13	0x3d78d43e	0.060749285
14	0x3d289f5b	0.0411676
15	0xbd29ccc5	-0.04145505
16	0x3d871998	0.065966785
17	0x3cda32c4	0.026635535
18	0xbd85681b	-0.06513997
19	0xbd4e40c6	-0.05035474
20	0x3beed775	0.007288868
21	0x3958bbbb	0.000206693
22	0xbd740bdc	-0.059581622
23	0x3c566f36	0.013088038
24	0x3d2f35fb	0.04277609
25	0xbd63f4de	-0.055653445
26	0xbd60e18d	-0.054902602
27	0x3d6f14e4	0.058369532
28	0xbc8c5a56	-0.01713292
29	0x3cc7a157	0.024368925
30	0x3cee4936	0.029087644
31	0x3d1a3b6f	0.037654337
32	0xbd701591	-0.058614317
33	0x3d14be0d	0.03631406
34	0x3ccc1f7f	0.024917362
35	0x3cbb5355	0.022866884
36	0xbd567eb7	-0.05236694
37	0xbb0eb6d9	-0.0021776466
38	0x3d766adf	0.060160514
39	0xbdc5ceab	-0.096585594
40	0x3cf1d0fb	0.029518595
41	0x3ce2aa04	0.02766896
42	0x3ceaf2ee	0.028680291
43	0x3d7e7f70	0.062133253
44	0xbd9591ab	-0.073031746
45	0xbd0f3503	-0.034962665
46	0xbd683673	-0.05669255
47	0xbd48ebff	-0.04905319
48	0x3d379a1f	0.044824716
49	0x3cdb9cf1	0.026808234
50	0x3cbaf118	0.02282004
51	0xbc61ea52	-0.0137887765
52	0xbd35c335	-0.044375617
53	0x3c89a349	0.016801493
54	0x3d70147c	0.058613285
55	0x3d5e3134	0.054246143
56	0x3d841a0c	0.064502805
57	0xbd49dad6	-0.049280964
58	0xbd92d774	-0.07170001
59	0xbd1d7b4d	-0.038447667
60	0x3d87407f	0.066040985
61	0x3d1ca2a2	0.038241036
62	0xbc92ae0b	-0.017905256
63	0xbd9eedb1	-0.0776018
64	0x3c24683e	0.010034619
65	0xbce55e5d	-0.027999097
66	0xbd1f481e	-0.038887136
67	0xbcfca91e	-0.03084236
68	0x3d5cc303	0.053896915
69	0x3d6b183f	0.05739617
70	0x3c097a29	0.008390942
71	0xbc945394	-0.01810626
72	0xbd584e9e	-0.05280935
73	0x3d2851d0	0.041093647
74	0xbd342636	-0.043981753
75	0xbd6dd453	-0.058063816
76	0xbd639c2b	-0.055568855
77	0x3d57a304	0.0526457
78	0x3d4a4234	0.049379542
79	0xbd4b7dbe	-0.049680464
80	0xbce0d663	-0.027445978
81	0xbb9c6b0a	-0.0047735022
82	0x3c2f5ad3	0.0107028065
83	0x3c7d513b	0.015461261
84	0xbc610685	-0.0137344645
85	0xbd1cf25a	-0.038317062
86	0xbce61b24	-0.028089114
87	0x3c41c015	0.011825581
88	0xbd9308d4	-0.07179418
89	0xbb8c22ec	-0.004276624
90	0x3d0e4e9c	0.034742936
91	0x3d588054	0.05285676
92	0x3d19b694	0.037527636
93	0x3a0ded46	0.00054140796
94	0xbd691b46	-0.056910776
95	0xbc8dea1a	-0.017323542
96	0xbd1632a5	-0.036669392
97	0x3d30e8c1	0.04319072
98	0xbceb89c0	-0.028752208
99	0x3ca9ee5a	0.020743538
100	0xbbee0547	-0.0072638127
101	0x3d236c0c	0.039897963
102	0x3d49a7be	0.049232237
103	0x3d60fae5	0.05492677
104	0xbd84a99c	-0.06477663
105	0x3c02b9e3	0.007978889
106	0xbc0ed351	-0.008717374
107	0xbd3b1b93	-0.045680594
108	0x3cbc3328	0.022973612
109	0x3d7a4ded	0.061109472
110	0xbc0e3009	-0.008678445
111	0x3cc12d58	0.023581192
112	0x3cff1de0	0.031142175
113	0x3d545704	0.051840797
114	0x3cbe2e66	0.023215484
115	0xbd8b3950	-0.06798041
116	0x3d142f44	0.03617789
117	0xbd69f821	-0.0571214
118	0x3ae437c0	0.0017411634
119	0x3d45ee86	0.048323177
120	0x3d291334	0.04127808
121	0x3cc6633a	0.024217237
122	0x3c9907e4	0.01868052
123	0xbd07eb07	-0.033183124
124	0xbd618ebc	-0.055067763
125	0xbda3a928	-0.07991248
126	0x3d320a7c	0.04346703
127	0xbc21f92b	-0.009886066
128	0xbd5917d2	-0.053001232
129	0x3cae9dd5	0.021315495
130	0x3d06db54	0.03292401
131	0xbc4e3c31	-0.012587593
132	0xbd7cf1ae	-0.06175392
133	0xbc80900f	-0.015693692
134	0x3d855735	0.06510774
135	0x3d8c4e19	0.068508334
136	0x3cab43a7	0.020906283
137	0xbd34de99	-0.0441576
138	0xbc8d06bb	-0.017215123
139	0xbd3272db	-0.043566566
140	0x39bc9fb0	0.0003597713
141	0xbd5f9ba9	-0.05459181
142	0xbc06ac95	-0.008219858
143	0x3d112634	0.035436824
144	0xbcd76e8a	-0.026297826
145	0x3d08f7b2	0.033439346
146	0xbd927bf0	-0.071525455
147	0xbd029824	-0.031883374
148	0x3d2a17d4	0.04152663
149	0xbc630109	-0.013855227
150	0xbd89e666	-0.06733398
151	0x3d585852	0.052818604
152	0xbc27035b	-0.010193671
153	0xbd91e972	-0.07124604
154	0xbd74a390	-0.059726298
155	0x3c8f94f0	0.017527074
156	0xbd0351c7	-0.03206041
157	0x3d346a33	0.044046592
158	0xbd5824f2	-0.05276961
159	0x3d166dc2	0.036725767
160	0xbbcb7e50	-0.006210126
161	0x3d778728	0.06043163
162	0xbceba1ce	-0.028763678
163	0x3b047980	0.0020214021
164	0xbcf57107	-0.029961122
165	0xbcb276a6	-0.021785092
166	0xbd44698c	-0.04795222
167	0x3d1bcf6d	0.038039614
168	0x3c9d0d9b	0.019171527
169	0xbda6a899	-0.08137626
170	0xbd8ab4d5	-0.06772772
171	0x3ce17a9b	0.027524283
172	0xbd8de2a1	-0.06927992
173	0x3d4babd3	0.04972441
174	0xbcb01b90	-0.021497518
175	0xbd96286c	-0.073319286
176	0x3b6f62a4	0.00365273
177	0xbc23aa8d	-0.009989393
178	0x3c2674dc	0.010159697
179	0xbd2398ba	-0.039940573
180	0xbc1db424	-0.009625468
181	0xbd361d36	-0.04446145
182	0xbd5857b1	-0.052818004
183	0x3cf8b394	0.030359067
184	0x3d59a67f	0.0531373
185	0xbd8e8600	-0.06959152
186	0xbc884f59	-0.016639398
187	0x3d066be4	0.032817736
188	0xbba7313c	-0.0051023047
189	0xbd0a411f	-0.03375351
190	0xbd19a1ab	-0.037507694
191	0x3d394f96	0.045241915
192	0x3c6201b0	0.013794348
193	0xbc3bab28	-0.011454381
194	0xbd85a6cc	-0.065259546
195	0x3c9c1f7d	0.019057984
196	0xbd6fef5c	-0.05857788
197	0xbd98ded7	-0.07464378
198	0x3d8fa100	0.0701313
199	0xbcef203c	-0.029190175
200	0x3cf7217c	0.030167334
201	0x3c0f9b88	0.008765109
202	0xbd2affa2	-0.041747697
203	0xbcb46b3e	-0.022023793
204	0xbd7370a4	-0.059433594
205	0x3d8615dc	0.06547138
206	0xbc9a9940	-0.018871903
207	0xbd81b5cc	-0.06333503
208	0xbd3fde05	-0.046842594
209	0x3ca2c1f4	0.019867875
210	0xbc014db8	-0.007892065
211	0xbd7b468d	-0.06134658
212	0x3d3f754a	0.046742715
213	0x3c23de38	0.010001712
214	0x3b4f9c78	0.0031678956
215	0xbd1abd56	-0.03777822
216	0x3d505c3c	0.05086921
217	0x3bb74980	0.0055934787
218	0x3ce174bc	0.027521484
219	0xbbbce310	-0.0057643726
220	0xbbb16830	-0.0054140314
221	0xbd1ab48a	-0.03776983
222	0x3d3e5260	0.046465278
223	0xbd4c7a82	-0.04992152
224	0x3d1c8308	0.0382109
225	0x3c2b4d68	0.010455467
226	0xbd6124d7	-0.054966774
227	0xbd3ef514	-0.046620443
228	0xbd03b747	-0.03215721
229	0xbd99439b	-0.07483598
230	0xbd2e25d3	-0.04251654
231	0x3cae23d0	0.021257311
232	0xbc386fdc	-0.011257138
233	0x3c6f153c	0.014592465
234	0xbd4759e9	-0.04866973
235	0x3d73f414	0.059558943
236	0x3d41ff54	0.04736264
237	0xbd437092	-0.047714777
238	0x3d92030a	0.07129486
239	0xbd41dd0e	-0.047329955
240	0xbbbf3880	-0.0058355927
241	0x3d1343be	0.035953276
242	0xbc7cdc68	-0.015433408
243	0xbd5da673	-0.054113816
244	0x3c2e1d17	0.010627053
245	0x3c69d4db	0.01427194
246	0x3c81cfa0	0.015846074
247	0x3c1529f0	0.009104237
248	0xbd30ca5c	-0.043161735
249	0xbdb19130	-0.086702704
250	0x3c767cdb	0.015044416
251	0xbce43465	-0.027857015
252	0xbbb8ed70	-0.005643539
253	0x3cf67204	0.030083664
254	0xbc52a99c	-0.012857821
255	0xbd12a942	-0.035805948

conv2.bias f4 [128]
0	0xbda55503	-0.08072855
1	0xbdb09e08	-0.08623892
2	0xbcb08873	-0.021549439
3	0xbc725e84	-0.014793042
4	0xbc83bb37	-0.016080482
5	0xbe7aca2f	-0.2449119
6	0xbe5a9e3e	-0.21349427
7	0xbcf72728	-0.030170038
8	0xbe6ca3ef	-0.2310941
9	0xbea5a0d1	-0.32349256
10	0x3e17a36b	0.14808433
11	0xbdea55c3	-0.11442139
12	0xbd249be2	-0.040187724
13	0xbe8f396c	-0.27973497
14	0xbd1fbc0f	-0.038997706
15	0x3e1918dd	0.14950891
16	0xbd373a03	-0.04473306
17	0xbcd35ccf	-0.02580109
18	0xbccd98b8	-0.025097236
19	0xbe77cc53	-0.24199037
20	0x3e568f04	0.20952994
21	0xbe20bcc8	-0.15697014
22	0xbda492df	-0.08035826
23	0xbd2a0ed7	-0.04151806
24	0xbc5f6475	-0.013634791
25	0xbdcc7794	-0.09983745
26	0xbe487d24	-0.19578987
27	0xbd9f04cb	-0.07764586
28	0xbb78b347	-0.0037948654
29	0xbe2c6345	-0.16834743
30	0xbe961230	-0.2931075
31	0xbe827f1c	-0.25487602
32	0xbe088e27	-0.13335477
33	0x3d65958f	0.056050833
34	0x3c80e479	0.015733944
35	0xbe4a1b82	-0.19737056
36	0xbced7607	-0.028986944
37	0xbd03d549	-0.032185826
38	0xbdfb131f	-0.122595064
39	0xbeb007f0	-0.34381056
40	0xbcea78fd	-0.028622145
41	0xbe41c502	-0.18922809
42	0x3cf3e5cd	0.029772663
43	0xbd0e5ac2	-0.034754522
44	0xbc1132c2	-0.008862199
45	0xbe92c63f	-0.28666875
46	0xbd7ff67e	-0.062490933
47	0xbda016fb	-0.07816883
48	0x3ddc8d05	0.10769085
49	0xbd9b5215	-0.07584015
50	0x3d17c264	0.03705062
51	0x3c9834ea	0.018579919
52	0xbd297144	-0.041367784
53	0xbe0f2eb3	-0.13982658
54	0x3c984602	0.01858807
55	0x3e19d239	0.150216
56	0xbe70e870	-0.23526168
57	0xbe1f5bd2	-0.1556237
58	0xbe7c292e	-0.24625084
59	0xbcf18822	-0.029483858
60	0xbcd8e244	-0.02647508
61	0xbe071ce5	-0.13194616
62	0xbe1b992a	-0.15195146
63	0x3d607ffb	0.05480955
64	0xbdbffc69	-0.09374315
65	0xbe96cf89	-0.29455212
66	0x3dc8c9b1	0.098040946
67	0xbcf482eb	-0.029847583
68	0xbd14ba02	-0.036310203
69	0xbce9df90	-0.028548986
70	0xbc5b6b3b	-0.013392265
71	0xbd076057	-0.03305086
72	0xbd1ab13d	-0.037766684
73	0xbda4561c	-0.080242366
74	0xbe95f2be	-0.2928676
75	0xbe0614fe	-0.13093945
76	0xbe3e595d	-0.18588777
77	0xbdc01e95	-0.09380833
78	0xbe953dbe	-0.29148668
79	0x3ddd3993	0.10801997
80	0xbe36c7ce	-0.17849657
81	0xbdb5e9e9	-0.088825054
82	0xbe2833af	-0.16425966
83	0x3b825e90	0.003978558
84	0xbe5d82d3	-0.21631937
85	0xbcccfdfc	-0.025023453
86	0xbe98bb92	-0.29830605
87	0x3d1bb117	0.038010683
88	0xbe86a302	-0.2629624
89	0xbe6c98ad	-0.23105116
90	0xbe956e6f	-0.29185817
91	0x3ec078b1	0.3759208
92	0xbe2d6e35	-0.16936572
93	0xbd0d27c4	-0.03446175
94	0xbe7d5fa7	-0.2474352
95	0xbe644801	-0.22293092
96	0xbe98f0c7	-0.298712
97	0xbd95a679	-0.07307143
98	0xbb3dbfc1	-0.0028953406
99	0xbe6f22e6	-0.23353156
100	0xbd2d4ec0	-0.04231143
101	0xbe54d1a1	-0.20783092
102	0xbc97361f	-0.018458424
103	0xbe732280	-0.2374363
104	0x3d4860e2	0.04892052
105	0xbc4fd044	-0.012683932
106	0xbd56a7b1	-0.052406017
107	0x3e8e8f2d	0.2784361
108	0xbe823326	-0.25429648
109	0xbdf59d66	-0.11992912
110	0xbd8e6cbb	-0.069543324
111	0xbe5f891c	-0.21829647
112	0xbe442f1e	-0.19158599
113	0x3dff2cbf	0.124597065
114	0x3daf9c01	0.08574677
115	0xbcf5f9fb	-0.030026427
116	0xbea591f4	-0.32337916
117	0xbe9c923e	-0.30580324
118	0x3c581e75	0.013190855
119	0xbded6f4b	-0.11593493
120	0xbe84ef17	-0.2596366
121	0xbd8717bf	-0.06596326
122	0xbd28e6f1	-0.041235868
123	0xbda5960e	-0.08085261
124	0xbd22d6ec	-0.039755747
125	0xbe52d5e3	-0.20589404
126	0xbeb2e30c	-0.34938848
127	0xbd5dd6ce	-0.05415993

lstm.weight_ih_l0 f4 [200, 128]
0	0x3dacac4a	0.08431299
1	0x3d8e2eaf	0.06942498
2	0x3df6d9b0	0.12053239
3	0xbc883aa3	-0.016629523
4	0xbda00c02	-0.0781479
5	0x3d9dbc5c	0.07701942
6	0xbdfa9463	-0.12235334
7	0x3cfc194c	0.030773781
8	0xbdafc031	-0.085815795
9	0xbcfcf625	-0.03087909
10	0x3e375a9d	0.1790566
11	0x3d68537a	0.056720234
12	0x3d215e62	0.03939665
13	0xbdd96435	-0.10614816
14	0xbd683ff0	-0.0567016
15	0xbd28306d	-0.041061807
16	0x3de8e0a1	0.113709696
17	0xbd140f04	-0.036147133
18	0x3e338d54	0.17534381
19	0xbe220ce2	-0.15825227
20	0xbdd7022c	-0.10498461
21	0x3dc4e546	0.09614043
22	0x3d0498a0	0.032372117
23	0x3c2de56e	0.010613782
24	0x3d9ffeb5	0.078122534
25	0x3e325ec5	0.17418964
26	0xbd170d2f	-0.036877807
27	0xbd30d92d	-0.043175865
28	0xbca0a6df	-0.01961082
29	0x3c7ba851	0.015359954
30	0xbe8e3b92	-0.27779824
31	0xbde2341b	-0.110450946
32	0xbcf20936	-0.029545408
33	0x3df0c123	0.11755588
34	0x3e116aee	0.14200947
35	0xbdeaee60	-0.11471248
36	0x3d21e89e	0.03952848
37	0x3d056d7e	0.032575123
38	0xbd77a751	-0.0604623
39	0xbe220165	-0.15820844
40	0x3d996092	0.074891225
41	0x3e23a5a6	0.15981159
42	0x3c18d54c	0.009328198
43	0xbdd2a560	-0.10285449
44	0x3d4565c9	0.048192773
45	0x3d788137	0.060670104
46	0x3d142608	0.036169082
47	0xbd35865c	-0.04431759
48	0xbe0ea675	-0.13930686
49	0xbdb272fd	-0.087133385
50	0x3e3714d8	0.17879045
51	0xbe1ce3c0	-0.15321255
52	0x3e3555b1	0.1770847
53	0xbc877681	-0.016536
54	0x3cedc3ea	0.029024083
55	0x3d9d5198	0.076815784
56	0x3dc13ad8	0.09435052
57	0xbdd28326	-0.10278921
58	0x3e0c050c	0.136738
59	0xbd4e4e5b	-0.050367694
60	0x3cf504f8	0.029909596
61	0x3d98f5ef	0.07468783
62	0xbd300e35	-0.0429823
63	0xbb9010f0	-0.0043965504
64	0xbe22e793	-0.15908651
65	0xbd3ffaac	-0.04686992
66	0x3daafca0	0.08348966
67	0x3e31564f	0.1731808
68	0xbdc17caf	-0.0944761
69	0xbe0e6b9d	-0.13908239
70	0xbd72ab2b	-0.05924527
71	0x3de354df	0.11100172
72	0x3ba8b2f5	0.0051482865
73	0xbdc3ec0d	-0.095665075
74	0xbcba1fb3	-0.022720193
75	0xbdd54604	-0.10413745
76	0x3b4bc22d	0.003109108
77	0x3c63233a	0.013863379
78	0xbd271e08	-0.040800124
79	0x3dd65cbe	0.10466908
80	0xbd0ce3f9	-0.0343971
81	0x3dd500ac	0.10400519
82	0xbdd8102e	-0.10549961
83	0x3c31e418	0.010857604
84	0xbe001ad0	-0.12510228
85	0x3c8123bd	0.015764112
86	0xbd817f1a	-0.06323071
87	0x3e45e89b	0.19327013
88	0x3d11bce0	0.035580516
89	0xbc93cc4b	-0.01804175
90	0xbd55355c	-0.05205284
91	0x37d0d9d4	2.4896966e-05
92	0xbc4a4335	-0.012345125
93	0xbd475c4d	-0.04867201
94	0xbd377be0	-0.04479587
95	0xbe473343	-0.19453149
96	0xbc013cb3	-0.007888007
97	0x3cc7f183	0.024407154
98	0x3dabae47	0.0838285
99	0x3d7a8c8b	0.06116919
100	0xbd76ffee	-0.060302667
101	0xbdb02dbb	-0.086024724
102	0x3e1a40ca	0.15063778
103	0xbbf761af	-0.0075494866
104	0x3d741247	0.059587743
105	0x3d808124	0.062746316
106	0xbc13a7a7	-0.009012139
107	0xbedaebff	-0.42758176
108	0xbc2c15ad	-0.010503215
109	0xbd5c1e53	-0.053739857
110	0x3dfd8ab8	0.12379974
111	0x3d50f4b0	0.051014602
112	0x3d4e41fe	0.050355904
113	0x3dc6f862	0.09715344
114	0xbe984e1d	-0.29747096
115	0x3d581890	0.0527578
116	0x3cd07ce2	0.025450174
117	0x3dc90409	0.09815223
118	0x3e3d5c2a	0.18492189
119	0xbd1e3c96	-0.038631998
120	0xbe0423ad	-0.12904234
121	0xbc097819	-0.00839045
122	0xbd92e53b	-0.071726285
123	0x3debf55a	0.115214065
124	0xbdceaa41	-0.10091067
125	0xbe4b5c4c	-0.19859427
126	0xbe00517d	-0.12531085
127	0xbc6b91ff	-0.01437807
128	0xbcbd2a02	-0.02309132
129	0xbc78b4ab	-0.015179793
130	0x3da63a23	0.081165574
131	0x3d3d0bf8	0.046153992
132	0xbc344ecb	-0.011005114
133	0x3d634f4a	0.055495538
134	0x3e082c5d	0.13298173
135	0xbc15b8a3	-0.009138259
136	0xbda629a4	-0.08113411
137	0x3d200b26	0.039073132
138	0x3c8ecd27	0.017431809
139	0xbd924623	-0.07142284
140	0x3d41f9fd	0.047357548
141	0x3e118464	0.1421066
142	0xbc69dba4	-0.014273558
143	0x3d945581	0.07242871
144	0x3da216a0	0.079144716
145	0x3dd0c9eb	0.10194763
146	0xbcac1522	-0.02100617
147	0x3e1ddcfd	0.15416332
148	0x3e0b3b63	0.13596873
149	0xbe19fe98	-0.15038526
150	0x3defd916	0.11711328
151	0x3d107196	0.035264574
152	0xbe0d8e0f	-0.13823722
153	0x3d990cb0	0.07473123
154	0x3c20c5b3	0.00981276
155	0xbdeb9292	-0.115025654
156	0x3defee91	0.11715425
157	0xbdfc5bfe	-0.123222336
158	0x3d881e90	0.06646454
159	0x3df5f670	0.12009895
160	0x3d130009	0.035888705
161	0x3ddf872a	0.109144524
162	0x3d763fbc	0.060119376
163	0xbdf65468	-0.12027818
164	0x3de6b2ae	0.11264549
165	0x3de300c2	0.11084129
166	0x3c592519	0.013253474
167	0x3ae83b4a	0.0017717865
168	0x3df2e7be	0.118606076
169	0xbcb215f7	-0.02173899
170	0xbe077930	-0.13229823
171	0x3e0ee620	0.13954973
172	0x3e09c9da	0.13455907
173	0x3e008ace	0.1255295
174	0x3d843ea7	0.064572625
175	0x3d42037c	0.047366604
176	0x3e43ba0f	0.19113944
177	0xbd2643ba	-0.040591933
178	0x3dbe2693	0.09284701
179	0x3dd78d69	0.10525019
180	0xbddaad6c	-0.10677609
181	0xbdb605ad	-0.08887801
182	0x3d8cf858	0.06883305
183	0x3d14529e	0.036211602
184	0x3dbef898	0.09324759
185	0xbd951509	-0.07279403
186	0x3d2dc093	0.04241998
187	0xbd078d55	-0.03309377
188	0xbc867581	-0.016413452
189	0xbde9babd	-0.114125706
190	0x3db9212f	0.090395324
191	0x3da763f4	0.081733614
192	0x3e39f6f3	0.1816061
193	0x3db6e17f	0.08929729
194	0xbda0a124	-0.07843235
195	0x3c592f4a	0.0132559035
196	0x3c88e31c	0.016709857
197	0x3dda6cad	0.106652595
198	0x3dfbdf52	0.12298454
199	0x3e26480f	0.16238426
200	0x3e13c92d	0.14432211
201	0x3db9708d	0.090546705
202	0x3dc90f94	0.098174244
203	0xbdd5c840	-0.10438585
204	0x3dcaa42f	0.09894597
205	0x3d20584e	0.039146714
206	0xbe5fb8cb	-0.21847837
207	0xbdfae325	-0.12250356
208	0xbdba2918	-0.09089869
209	0x3c0d0394	0.00860681
210	0x3d994c87	0.074852996
211	0x3c842dea	0.016135175
212	0xbdb9e54c	-0.09076938
213	0xbceeb3f8	-0.02913855
214	0xbdd7734c	-0.10520038
215	0x3d132959	0.035928104
216	0x3dd30a53	0.103047036
217	0x3d5298ff	0.05141544
218	0x3d5bbf65	0.053649325
219	0x3cf7c392	0.030244622
220	0xbdca3e67	-0.098751836
221	0xbd940502	-0.07227518
222	0x3d197f2b	0.037474792
223	0x3e18e4d9	0.14931048
224	0x3d810fa3	0.063018106
225	0xbd5518b3	-0.052025508
226	0x3d993359	0.07480497
227	0x3d7142f5	0.058901746
228	0xbb767942	-0.0037608896
229	0xbddfd191	-0.109286435
230	0xbcb520ef	-0.02211043
231	0x3d9d5d7d	0.07683847
232	0xbc2dff9a	-0.010620022
233	0x3dfc2427	0.12311583
234	0xbdd64d5b	-0.10463973
235	0x3e0f9c9f	0.1402459
236	0x3d02679f	0.031837102
237	0xbd846868	-0.064652264
238	0xbd9ab42f	-0.075538985
239	0x3c123439	0.008923584
240	0x3da66d91	0.08126367
241	0xbd990f2e	-0.074735984
242	0x3dd399d0	0.10332072
243	0xbdae5134	-0.08511582
244	0x3de9fc74	0.11425105
245	0xbe0628f1	-0.13101555
246	0xbdc29042	-0.09500171
247	0x3d3f6a30	0.046732128
248	0x3cc6ff3b	0.024291625
249	0xbdb75ded	-0.08953462
250	0xbd0e2719	-0.034705255
251	0x3d44475b	0.047919612
252	0x3db87976	0.09007542
253	0xbc6761bc	-0.014122423
254	0x3d8f8d60	0.07009387
255	0x3d392015	0.04519661

lstm.weight_hh_l0 f4 [200, 50]
0	0x3d21fc7d	0.039547432
1	0x3e33d143	0.17560296
2	0xbe060079	-0.13086118
3	0xbe235c57	-0.15953194
4	0x3e388738	0.18020332
5	0xbc01eaa5	-0.007929479
6	0xbdddf65c	-0.10838005
7	0xbc9ac963	-0.018894857
8	0x3e2ee2dd	0.17078729
9	0x3bdae4cc	0.0066801067
10	0xbcd12e91	-0.0255349
11	0xbe88bdc9	-0.26707295
12	0x3e11c24c	0.14234275
13	0xbd6c75ee	-0.057729654
14	0xbded1201	-0.115756996
15	0xbe3e573d	-0.18587966
16	0xbe246975	-0.16055854
17	0xbea531bd	-0.3226451
18	0x3d28a595	0.041173536
19	0xbea148df	-0.3150091
20	0x3d840eef	0.06448161
21	0x3dd8318d	0.10556326
22	0x3dfb7322	0.12277819
23	0x3e1e9750	0.15487409
24	0xbd766c34	-0.060161784
25	0xbd2849d3	-0.04108603
26	0x3e33367f	0.17501257
27	0xbda3dbac	-0.080008835
28	0xbddebc6c	-0.10875782
29	0x3b4066d6	0.002935817
30	0xbd2b3411	-0.0417977
31	0x3e1c7f33	0.15282898
32	0xbd90b202	-0.07065202
33	0x3bf63aaa	0.0075143175
34	0xbd54ad8e	-0.051923327
35	0xbe248b7f	-0.16068839
36	0xbd910baa	-0.07082303
37	0xbcbed465	-0.023294637
38	0x3c792ea8	0.015208878
39	0xbe10fb93	-0.14158468
40	0xbda43cd0	-0.080194116
41	0xbd01ec0d	-0.031719256
42	0xbd8547c0	-0.06507826
43	0xbd834a3a	-0.06410642
44	0x3bcb2126	0.00619902
45	0x3d2b705d	0.041855205
46	0x3da7fee8	0.082029164
47	0x3de0295a	0.10945387
48	0x3ceea8ed	0.029133284
49	0x3e65f10f	0.22455238
50	0xbea24bbf	-0.31698415
51	0xbd37b2ce	-0.044848256
52	0x3e16992b	0.14706866
53	0xbdb8ec1a	-0.09029408
54	0xbb473c80	-0.003040105
55	0xbd49e485	-0.0492902
56	0x3c83105b	0.01599901
57	0xbd45096a	-0.04810468
58	0x3dccf07a	0.10006805
59	0x3d5db1b1	0.054124538
60	0x3c096d3a	0.008387858
61	0x3e0b175f	0.13583134
62	0xbd917cc7	-0.071038775
63	0x3e4650eb	0.19366805
64	0xbd271264	-0.040789023
65	0x3cee3014	0.02907566
66	0x3c9d75c7	0.0192212
67	0xbd1a4a06	-0.03766825
68	0x3baa3775	0.0051945993
69	0xbc829421	-0.015939774
70	0x3e341452	0.17585877
71	0xbd68a838	-0.05680105
72	0x3e45418b	0.19263284
73	0x3e0cdfe1	0.13757278
74	0xbda43aa0	-0.08018994
75	0x3da8ea2f	0.08247792
76	0xbe110361	-0.14161445
77	0xbe5dad94	-0.21648246
78	0xbb872c41	-0.0041251485
79	0xbe8103aa	-0.25198108
80	0xbc67ccdb	-0.014147962
81	0xbcdc5643	-0.026896602
82	0xbe18632d	-0.14881583
83	0xbe047897	-0.12936626
84	0xbb80a96b	-0.003926446
85	0x3d149820	0.03627789
86	0xbd019db5	-0.03164454
87	0xbe0f9681	-0.14022256
88	0x3e3cd367	0.18440019
89	0x3d42c005	0.047546405
90	0xbe050d26	-0.12993297
91	0xbd9e5ed7	-0.07732933
92	0x3e58329f	0.2111306
93	0xbdf25799	-0.11833114
94	0x3e08b480	0.13350105
95	0x3e2cd079	0.16876401
96	0xbe3c986f	-0.18417524
97	0xbe5195cb	-0.20467298
98	0x3e0b3d67	0.13597642
99	0xbcb64c20	-0.022253096
100	0xbde05e07	-0.10955434
101	0x3e57ae72	0.2106264
102	0x3cb0d18b	0.021584293
103	0xbe8de825	-0.27716175
104	0xbc4e1c35	-0.012579967
105	0xbd447061	-0.047958735
106	0x3dc77b04	0.0974026
107	0x3de63c76	0.11242001
108	0x3e4498e9	0.19198956
109	0x3df8cbb1	0.12148226
110	0xbe46e52b	-0.19423358
111	0x3b9e3276	0.0048277928
112	0x3e71541f	0.23567246
113	0xbd3edf1f	-0.046599504
114	0xbdb30eb8	-0.08743042
115	0xbe4a1af2	-0.19736841
116	0xbe28669e	-0.16445395
117	0xbc276b59	-0.010218465
118	0x3dcf53c8	0.10123402
119	0xbde42398	-0.111396015
120	0x3d426859	0.047462795
121	0xbc8eb729	-0.017421322
122	0xbd128640	-0.035772562
123	0x3e17bc43	0.1481791
124	0x3dd4da53	0.103932045
125	0xbdb620e1	-0.0889299
126	0x39fc6049	0.00048136924
127	0x3e093a3f	0.13401125
128	0xbd9007ed	-0.07032762
129	0x3d4e87f6	0.05042263
130	0xbdc8dcd2	-0.09807743
131	0x3db50921	0.08839632
132	0xbd84e7cb	-0.064895235
133	0x3dfa537d	0.122229554
134	0xbe004ae4	-0.12528569
135	0x3d3e2e8b	0.046431106
136	0xbda0a52d	-0.07844005
137	0x3da62f0c	0.08114442
138	0x3e96e5c8	0.29472184
139	0x3e60a01b	0.21936075
140	0x3df49c55	0.119438805
141	0xbe41d4b0	-0.1892879
142	0xbc8502f2	-0.016236756
143	0xbd9b0298	-0.07568854
144	0xbe94e853	-0.290835
145	0xbcffa792	-0.031207833
146	0x3d53fd4b	0.05175523
147	0xbe1916f8	-0.14950168
148	0x3cda7362	0.026666347
149	0x3e6f3d26	0.2336317
150	0xbe182ff8	-0.14862049
151	0xbd41befc	-0.047301278
152	0x3dc32991	0.095294125
153	0x3dd2e87b	0.102982484
154	0x3db464c2	0.088082805
155	0x3bd18c54	0.0063949022
156	0xbdbc0534	-0.0918068
157	0xbd54878c	-0.05188708
158	0xbd0827f1	-0.033241216
159	0x3d73c9dc	0.05951868
160	0xbd06146d	-0.032734323
161	0x3de6a073	0.11261072
162	0xbd8bd236	-0.06827204
163	0xbdee2695	-0.11628453
164	0x3e205a1a	0.15659371
165	0x3d8b0a77	0.067891054
166	0x3d859cfa	0.065240815
167	0x3e45faee	0.19334003
168	0x3e427dfb	0.1899337
169	0x3e462e62	0.19353631
170	0xbd84bf32	-0.0648178
171	0xbd637e92	-0.05554063
172	0x3e1da3ac	0.15394467
173	0x3e0b669d	0.13613363
174	0xbcbaa130	-0.022781938
175	0x3e3c167b	0.1836795
176	0xbe1e57f7	-0.15463243
177	0xbc4d1200	-0.012516499
178	0x3d8820a1	0.066468485
179	0xbd3a6bc4	-0.04551293
180	0xbc5c3d72	-0.013442384
181	0xbdf106ab	-0.1176885
182	0x3dd0340d	0.10166178
183	0xbcd14798	-0.025546834
184	0xbdf13b24	-0.11778858
185	0x3e673374	0.22578222
186	0x3e306fcb	0.17230146
187	0xbe1b3284	-0.15155989
188	0x3e5bd27a	0.21467009
189	0x3d4ec0c8	0.05047682
190	0xbd2bb150	-0.041917145
191	0x3e348a3a	0.17630854
192	0x3d82022a	0.06348069
193	0xbdc1f086	-0.09469704
194	0x3d3fdd91	0.04684216
195	0x3ce21fa8	0.027602986
196	0xbe39aaa3	-0.18131499
197	0x3d59b9ed	0.05315583
198	0x3d5b0a0e	0.053476386
199	0xbe44648d	-0.19178982
200	0x3dea0ee4	0.114286214
201	0xbd7c2a3b	-0.06156371
202	0xbe1bca24	-0.1521383
203	0xbde58232	-0.112064734
204	0xbe984249	-0.29738072
205	0xbe262f00	-0.16228867
206	0x3ac67193	0.0015140049
207	0x3dd67aad	0.10472617
208	0x3d728f63	0.059218775
209	0xbe87fc96	-0.26559895
210	0x3c2052aa	0.009785334
211	0x3dbee04b	0.09320124
212	0x3e429709	0.19002928
213	0xbe48a4b1	-0.19594075
214	0xbe0ccafa	-0.13749304
215	0xbba79aec	-0.0051149037
216	0xbce831e2	-0.028344098
217	0x3d64f27c	0.055895314
218	0xbd8e2049	-0.06939752
219	0x3deb31fe	0.11484145
220	0x3d614ccd	0.055004884
221	0xbdaf8c9e	-0.085717425
222	0xbe4fc477	-0.20289789
223	0xbcf267cf	-0.029590515
224	0x3c4b0a19	0.012392544
225	0xbe45a9d6	-0.19303069
226	0xbeade8ff	-0.33966824
227	0x3d17e6a7	0.0370852
228	0x3d7e23c1	0.062045816
229	0x3dbd046a	0.092293575
230	0x3d1287b9	0.035773966
231	0x3db8b4c4	0.09018853
232	0xbd4e1d8c	-0.050321147
233	0x3e29f07f	0.16595648
234	0x3e0a0553	0.13478594
235	0xbd52c4ba	-0.051457144
236	0xbe082c51	-0.13298155
237	0x3e13726a	0.14399114
238	0x3eaf6bab	0.34261832
239	0x3e19d8ad	0.15024062
240	0xbcff4505	-0.03116084
241	0xbd998e25	-0.07497815
242	0xbe321607	-0.17391215
243	0x3e2806bc	0.16408819
244	0xb94fbd4d	-0.00019811578
245	0xbe33464e	-0.17507288
246	0xbbbc950b	-0.005755072
247	0xbd8db65c	-0.06919548
248	0x3c03e4e7	0.00805018
249	0xbd9e84f8	-0.077402055
250	0xbcdbf242	-0.026848916
251	0xbd12f317	-0.03587636
252	0x3e2976c3	0.1654921
253	0x3d765a0e	0.060144477
254	0x3d812547	0.06305938
255	0x3de3a1f1	0.11114872

lstm.bias_ih_l0 f4 [200]
0	0xbe3d803c	-0.18505949
1	0x3d6736dd	0.056448806
2	0xbddf9dc2	-0.10918762
3	0xbd8609fd	-0.06544874
4	0xbda6ed7e	-0.08150767
5	0x3d6e2039	0.0581362
6	0x3c753a92	0.0149675775
7	0x3d947ee2	0.072507635
8	0x3e4ea349	0.20179476
9	0x3db0826d	0.08618627
10	0xbe152b92	-0.14567402
11	0xbd935f70	-0.07195938
12	0x3e74a4a4	0.2389093
13	0x3e484ced	0.19560595
14	0x3df740d7	0.12072914
15	0x3da49527	0.08036261
16	0x3e02f562	0.12788919
17	0x3db630cd	0.08896027
18	0x3c2395c0	0.009984434
19	0x3dcb4e09	0.099269934
20	0x3d60f966	0.054925345
21	0xbdf2df8e	-0.11859046
22	0x3e1e99ea	0.15488401
23	0xbd0dfbfb	-0.034664135
24	0xbd8d92e1	-0.069127806
25	0x3d5e40a9	0.054260883
26	0xbbb87678	-0.005629357
27	0xbd87b477	-0.06626218
28	0x3d6dba67	0.058039095
29	0x3c24e27a	0.010063762
30	0xbe7c71f0	-0.24652839
31	0xbdb44943	-0.08803036
32	0xbd46c245	-0.048525114
33	0x3d51c563	0.051213633
34	0xbda3f26c	-0.08005223
35	0xbda82645	-0.08210424
36	0x3d8686ba	0.06568666
37	0xbdb0ba4f	-0.086292855
38	0xbe1046c8	-0.14089501
39	0x3dbf1aa1	0.09331251
40	0x3d9c8a96	0.07643621
41	0x3ca0c409	0.019624727
42	0x3e6437f6	0.22286972
43	0x3e594f90	0.21221757
44	0x3d62c6ca	0.05536536
45	0xbda26ac3	-0.079305194
46	0xbe04909c	-0.12945789
47	0x3e2bcd79	0.167776
48	0x3dfb56ab	0.1227239
49	0x3e1b1cbf	0.15147685
50	0xbddc8146	-0.107668445
51	0x3e029446	0.12751874
52	0x3d4caa40	0.04996705
53	0x3c30a015	0.010780354
54	0xbd0044ad	-0.031315494
55	0x3d77fa54	0.060541466
56	0x3dc566f6	0.09638779
57	0xbe0db28f	-0.13837646
58	0xbd81041f	-0.06299614
59	0x3e2ccfbd	0.16876121
60	0xbd791070	-0.06080669
61	0x3d832e13	0.06405272
62	0xbc22c548	-0.009934731
63	0x3e447e2c	0.19188756
64	0xbce14fc5	-0.027503857
65	0x3d4fb7ff	0.05071258
66	0x3d23c887	0.03998616
67	0x3db2774c	0.0871416
68	0x3dbb2b8b	0.091391645
69	0x3e182310	0.14857125
70	0xbddafb2d	-0.10692439
71	0xbe22ab35	-0.15885623
72	0x3e0fccf5	0.14043029
73	0x3d7212a3	0.059099805
74	0xbd455329	-0.04817501
75	0xbd5e96b3	-0.054342937
76	0x3a8d9746	0.0010802529
77	0xbe182130	-0.1485641
78	0x3de2d08d	0.11074934
79	0x3dee177c	0.11625573
80	0xbe180282	-0.14844707
81	0x3dcf1dd3	0.101131104
82	0xbda6e17b	-0.08148476
83	0x3e050191	0.12988879
84	0xbdcd4b2c	-0.100241035
85	0xbe01ead2	-0.12687233
86	0xbd928651	-0.07154525
87	0x3db883dc	0.09009525
88	0xbe1674ca	-0.14692989
89	0x3e27517a	0.16339675
90	0xbce9bf7a	-0.028533686
91	0x3e2defb5	0.16985972
92	0x3dcc324f	0.09970533
93	0x3d7d226e	0.061800413
94	0x3d2d6de7	0.04234114
95	0xbd9e37fa	-0.077255204
96	0x3aead216	0.0017915394
97	0x3be3e1a9	0.006954391
98	0xbbe95a5e	-0.0071213683
99	0x3da19b93	0.078910016
100	0xbda0a0d8	-0.078431785
101	0xbdf9b310	-0.121923566
102	0x3c49654d	0.012292218
103	0xbbfc732a	-0.0077041583
104	0xbe1c4dfb	-0.15264122
105	0xbd6a599a	-0.057214357
106	0x3e3259d3	0.17417078
107	0x3bdc8885	0.0067301416
108	0x3bdf2a86	0.006810489
109	0xbd5b583b	-0.05355094
110	0xbe0bc02e	-0.1364753
111	0x3df2ba35	0.118519224
112	0x3cb157c5	0.021648297
113	0x3ce12c98	0.027487084
114	0x3d8db928	0.069200814
115	0xbd78e724	-0.060767308
116	0xbd5b7bb6	-0.053584777
117	0xbd9aa0ba	-0.075501874
118	0xbdaa4267	-0.083134465
119	0xbd57609c	-0.05258237
120	0x3e5204ea	0.20509687
121	0x3daea926	0.08528356
122	0x3e5dfd51	0.21678664
123	0xbc93982a	-0.018016893
124	0xbd66a27e	-0.05630731
125	0x3d518ade	0.051157825
126	0x3d74692a	0.059670605
127	0xbd41afe4	-0.047286883
128	0x3e40309c	0.18768543
129	0xbe5dd9ba	-0.21665087
130	0xbbcffc94	-0.0063472483
131	0xbdbdb436	-0.09262888
132	0xbb7360c2	-0.003713653
133	0xbdb164e4	-0.086618215
134	0xbe232b0b	-0.15934388
135	0x3d8f138c	0.0698615
136	0xbe0da9f1	-0.13834359
137	0xbd796974	-0.060891584
138	0x3da9bc13	0.082878254
139	0xbe2abbe0	-0.16673231
140	0xbc9fb938	-0.019497499
141	0x3e5be974	0.21475774
142	0x3e5e6700	0.21718979
143	0x3d520a9f	0.05127966
144	0x3e372976	0.1788691
145	0x3d7343df	0.0593909
146	0xbdb844b0	-0.08997476
147	0xbdc6eea3	-0.09713485
148	0x3cd233b9	0.025659429
149	0xbe28daba	-0.16489688
150	0x3dc49b69	0.09599955
151	0x3e2e8e45	0.17046459
152	0xbdc2759f	-0.09495091
153	0x3b7a59f7	0.0038200596
154	0xbe365a63	-0.17807917
155	0xbe00032e	-0.12501213
156	0x3cf8c0ff	0.030365465
157	0xbdd95889	-0.1061259
158	0x3c9dca19	0.019261407
159	0x3d0b4248	0.033998758
160	0xbbccf33a	-0.006254581
161	0xbcfeba8b	-0.03109481
162	0x3e5453fc	0.20735162
163	0xbc612786	-0.013742333
164	0x3c578ab0	0.013155624
165	0x3df2aa7b	0.11848923
166	0xbde738d6	-0.112901375
167	0xbd7f9453	-0.062397312
168	0xbcc6c4b0	-0.02426371
169	0xbcb77005	-0.022392282
170	0xbe7140ad	-0.23559828
171	0xbdbb5357	-0.09146755
172	0xbdcff67d	-0.10154436
173	0xbe0b541f	-0.13606308
174	0x3c931a14	0.017956771
175	0x3a812f7f	0.0009856074
176	0x3d697e3e	0.05700516
177	0xbd10d39c	-0.035358056
178	0xbd5239f7	-0.05132481
179	0xbe62ff5e	-0.22167727
180	0xbe62c059	-0.22143687
181	0x3c1a68e8	0.009424426
182	0xbd2f82e2	-0.04284943
183	0x3e183201	0.14862825
184	0xbdd4fce2	-0.10399796
185	0xbde001cb	-0.10937842
186	0x3cab330e	0.020898368
187	0xbd2c3594	-0.042043284
188	0xbc8866af	-0.016650526
189	0x3dcf382f	0.10118138
190	0xbe25cfd3	-0.1619256
191	0x3d80b48e	0.06284438
192	0xbdbedbe2	-0.09319283
193	0x3de033bf	0.1094737
194	0xbcd82150	-0.026383072
195	0xbd137ff7	-0.03601071
196	0xbc2816c7	-0.010259337
197	0xbd5eede3	-0.054426085
198	0xbd7c7fff	-0.061645504
199	0x3e5eb982	0.21750453

lstm.bias_hh_l0 f4 [200]
0	0xbd847912	-0.06468405
1	0x3de2eb82	0.11080076
2	0xbe126440	-0.14296055
3	0xbc7ead25	-0.015544211
4	0xbbdf5c1e	-0.006816401
5	0x3ddceef9	0.10787768
6	0x3e4f51a8	0.20245993
7	0x3b0e6e16	0.0021733097
8	0x3d9797c3	0.07401993
9	0x3a4b59db	0.0007757225
10	0x3cf7471c	0.030185275
11	0xbdc216ac	-0.094769806
12	0x3e6c25cc	0.23061293
13	0x3de3175b	0.11088439
14	0x3e2ad145	0.16681392
15	0x3db5c065	0.08874587
16	0xbd8cbf6e	-0.0687245
17	0x3d95975b	0.073042594
18	0xbe1f4dc8	-0.15557015
19	0x3df74b61	0.12074924
20	0x3abcdab0	0.0014408436
21	0xbdc3ba4e	-0.09557019
22	0x3dfb8558	0.12281293
23	0x3da38491	0.079842694
24	0x3dd7d00f	0.10537731
25	0x3e459e9a	0.19298783
26	0x3d1e36bf	0.03862643
27	0xbd7c88b4	-0.061653808
28	0x3e86c701	0.26323703
29	0xbd004605	-0.031316776
30	0xbe177afd	-0.1479301
31	0x3e3574d4	0.17720348
32	0x3c78441a	0.015152955
33	0x3e12c6e2	0.1433368
34	0x3e16a983	0.14713101
35	0xbe1be14f	-0.15222667
36	0xbd6f8af4	-0.058482125
37	0xbd14d5d3	-0.03633673
38	0xbe632042	-0.22180274
39	0xbb76a5e7	-0.0037635507
40	0x3cd02395	0.025407592
41	0x3e11b448	0.14228928
42	0x3b332745	0.002733664
43	0x3e8ddb0a	0.27706176
44	0x3da4b684	0.080426246
45	0x3e013cc1	0.12620832
46	0x3dae5ae8	0.08513433
47	0xbc8e15bb	-0.017344346
48	0x3e0139fc	0.12619776
49	0x3df653c8	0.12027699
50	0x3d834a80	0.06410694
51	0xbdc3a777	-0.09553426
52	0x3de12a69	0.10994417
53	0x3ddff163	0.10934713
54	0xbe2608f2	-0.1621435
55	0xbd034485	-0.032047767
56	0x3e19c2a6	0.15015659
57	0xbe057ce1	-0.13035919
58	0xbdd83722	-0.10557391
59	0x3e25e3c2	0.16200164
60	0x3c8ffe0c	0.017577194
61	0x3dad0019	0.08447284
62	0x3cbd3b87	0.023099674
63	0x3e865129	0.26233795
64	0xbdbd26a2	-0.09235884
65	0x3dca1b47	0.09868484
66	0x3dbccd92	0.09218897
67	0xbd744ff0	-0.059646547
68	0xbd7d6a1b	-0.06186877
69	0x3dec9e3d	0.11553619
70	0x3c2619cd	0.010137987
71	0xbd715523	-0.058919083
72	0x3c1ebac2	0.009688081
73	0xbe110bc9	-0.14164652
74	0xbd823ab9	-0.06358857
75	0xbbc0fb2c	-0.005889317
76	0xbe45a7fe	-0.19302365
77	0x3dd468c9	0.10371549
78	0x3dedc578	0.1160993
79	0x3c5f2211	0.013618962
80	0xbe1a484b	-0.1506664
81	0xbc3004d5	-0.01074334
82	0xbdfdfcb3	-0.12401714
83	0x3cfa48a6	0.03055222
84	0x3ca08e5f	0.019599138
85	0x3db1b7bf	0.08677625
86	0xbdd83fb5	-0.10559026
87	0x3db0e901	0.08638192
88	0xbd7f36ec	-0.062308237
89	0x3e1026df	0.14077328
90	0x3df74dbe	0.12075375
91	0xbcf5505f	-0.02994555
92	0x3de0510b	0.10952958
93	0xbe0234a0	-0.12715387
94	0x3dfa8db6	0.122340605
95	0xbd93d032	-0.072174445
96	0x3deb4fdd	0.11489842
97	0x3ccc72f5	0.02495716
98	0x3e0a675a	0.13515988
99	0x3d030cb7	0.031994548
100	0xbdce43aa	-0.100715
101	0xbe4804f3	-0.19533138
102	0xbde6c239	-0.11267514
103	0xbccb8c94	-0.024847306
104	0xbd4cebab	-0.050029438
105	0xbd76e213	-0.060274195
106	0x3e8b952a	0.2726224
107	0xbdc5cb0c	-0.09657869
108	0xbb933e75	-0.0044935294
109	0xbd8f3e78	-0.06994337
110	0xbc02a7a6	-0.007974541
111	0x3dbd401c	0.092407435
112	0x3c963978	0.01833795
113	0x3e6ccdd8	0.23125398
114	0xbdb23baa	-0.08702786
115	0xbcaef240	-0.021355748
116	0xbcbd084e	-0.023075249
117	0x3d8415a3	0.064494394
118	0x3d97d779	0.07414145
119	0x3d10715f	0.03526437
120	0x3e23740e	0.1596224
121	0xbe2869fa	-0.16446677
122	0x3e5228cd	0.20523377
123	0xbe5a815e	-0.21338412
124	0x3cbe262d	0.023211563
125	0xbbc187cf	-0.005906082
126	0xba300071	-0.0006713933
127	0xbc3c46a6	-0.011491453
128	0x3df6bec4	0.120481044
129	0xbe5da80d	-0.21646138
130	0xbd820acb	-0.06349715
131	0xbd61ac3a	-0.05509589
132	0x3c913eee	0.017730203
133	0xbcbde9ea	-0.023182828
134	0xbe0a6eaa	-0.13518777
135	0xbdeb2cce	-0.11483155
136	0xbe029c11	-0.12754847
137	0x3dac351b	0.084085666
138	0xbdcf0f70	-0.10110366
139	0xbc63665b	-0.013879384
140	0xbdd06abd	-0.10176609
141	0x3da9e42d	0.08295474
142	0x3e675d2a	0.22594133
143	0x3e16248c	0.14662379
144	0x3d2556f0	0.040366113
145	0x3c1eff1b	0.009704377
146	0xbd864daa	-0.06557782
147	0x3dcc0536	0.099619314
148	0x3da742bd	0.08167026
149	0xbc3208cd	-0.010866356
150	0x3d0b3fd0	0.033996403
151	0x3c46b842	0.012128891
152	0xbe54c8e5	-0.2077976
153	0x3de48c40	0.11159563
154	0xbe208cc7	-0.15678702
155	0x3d04ab57	0.032389965
156	0xbe2aa65e	-0.16665027
157	0xbe003b15	-0.12522538
158	0x3e0361b9	0.12830247
159	0x3de17044	0.11007741
160	0xbda75857	-0.08171146
161	0x3c3695cc	0.011144113
162	0x3d220a0a	0.039560355
163	0xbd224f92	-0.039626665
164	0x3e4ea3d2	0.2017968
165	0xbc79d6e9	-0.0152489925
166	0x3e030cf9	0.12797917
167	0xbd7df387	-0.061999824
168	0xbe276bff	-0.16349791
169	0xbcd8c46e	-0.026460852
170	0xbd8f0628	-0.06983596
171	0xbe8664fa	-0.26248914
172	0xbe5b6778	-0.21426189
173	0xbcad58fe	-0.021160599
174	0xbe2d8963	-0.1694694
175	0x3e04a65a	0.12954083
176	0xbdccf4e8	-0.1000765
177	0xbc584598	-0.013200186
178	0xbdd5139d	-0.104041316
179	0xbe882d3b	-0.26597008
180	0xbd57edcf	-0.052717026
181	0x3d69d828	0.05709091
182	0xbe370921	-0.17874576
183	0x3de68df1	0.11257542
184	0xbdd193f4	-0.10233298
185	0x3b42f074	0.0029745372
186	0xbd3f9440	-0.04677224
187	0xbdcdd3cd	-0.100501634
188	0xbca9867f	-0.020694016
189	0x3e567e7d	0.20946689
190	0xbd63bad4	-0.055598095
191	0xbd733474	-0.059376195
192	0xbbd3d563	-0.0064646467
193	0x3e85f38d	0.26162377
194	0x3e0f3dc6	0.13988408
195	0x3e2def71	0.16985871
196	0x3d2b695f	0.041848537
197	0xbe252ef3	-0.16131191
198	0x3d3079a3	0.04308475
199	0x3e0399ad	0.12851591

lstm.weight_ih_l1 f4 [200, 50]
0	0x3ce36e54	0.02776257
1	0x3cac8b00	0.021062374
2	0xbe290b0c	-0.1650812
3	0xbd7c57da	-0.06160722
4	0xbe33d1b2	-0.17560461
5	0x3d72c2c3	0.05926777
6	0x3d7a6ef0	0.061140954
7	0xbe01b8bd	-0.12668128
8	0x3e11a727	0.1422392
9	0xbdccff1c	-0.10009596
10	0x3d85ab51	0.06526817
11	0xbd82c0c8	-0.06384426
12	0x3d891e14	0.0669519
13	0xbdfe8272	-0.12427224
14	0x3d3490b4	0.044083312
15	0x3b91b87c	0.004447041
16	0xbde36869	-0.11103899
17	0xbc94e960	-0.018177688
18	0xbc3ee8f2	-0.011652218
19	0x3daa279b	0.083083354
20	0x3dbecf1d	0.093168475
21	0xbda9107e	-0.08255099
22	0x3c44f500	0.012021303
23	0xbdbd81c6	-0.09253268
24	0x3df48f7f	0.11941432
25	0x3d34554a	0.04402665
26	0x3de3d7fe	0.111251816
27	0x3e3b3ec1	0.18285657
28	0xbe07d8e9	-0.13266338
29	0xbdd94c88	-0.106103
30	0x3e32029a	0.17383805
31	0x3e03c183	0.12866788
32	0x3e0f08a5	0.13968141
33	0x3e0b56ae	0.13607284
34	0x3e2d721d	0.16938062
35	0x3dac3c03	0.08409884
36	0xbd30af87	-0.043136146
37	0xbde3a8e2	-0.11116196
38	0x3d5f5aab	0.054529827
39	0xbe153cc7	-0.14573966
40	0x3d3aca0c	0.045602843
41	0xbe121c67	-0.14268647
42	0x3d03133f	0.032000776
43	0xbe162f75	-0.14666541
44	0x3d20c384	0.03924896
45	0x3cd16bc8	0.02556409
46	0xbdc4950f	-0.09598743
47	0x3dc9523b	0.09830137
48	0x3d4a8d8b	0.049451392
49	0xbd3c75da	-0.04601083
50	0x3c9bd1a9	0.019020872
51	0x3ccfb906	0.02535678
52	0xbe1c14da	-0.15242329
53	0x3c115f64	0.008872841
54	0xbd187d74	-0.037229016
55	0xbe0ea73a	-0.1393098
56	0xbe1ee7dd	-0.15518136
57	0xbe045b22	-0.1292539
58	0x3e00e452	0.12587097
59	0xbe87d817	-0.2653205
60	0xbe84a86e	-0.25909752
61	0x3c98fa8a	0.018674154
62	0x3d38cb9c	0.045116052
63	0xbde37993	-0.11107173
64	0xbdf026ca	-0.117261484
65	0xbd28dc27	-0.04122558
66	0xbe87dc4e	-0.26535267
67	0x3da65825	0.08122281
68	0xbe00a365	-0.1256233
69	0xbdaee7ef	-0.085403316
70	0x3d5ebfa7	0.054381993
71	0xbd3887fd	-0.045051564
72	0xbc3e0961	-0.011598916
73	0x3c844e1d	0.016150529
74	0x3e1e10e6	0.15436134
75	0x3ba3dcc2	0.0050006816
76	0xbd2091a3	-0.03920139
77	0xbcf9c72c	-0.03049048
78	0x3d1b637e	0.03793668
79	0x3d9775d8	0.07395524
80	0x3e289b43	0.16465478
81	0x3db1b972	0.08677949
82	0x3dbbb2e2	0.091649786
83	0xbd15d39f	-0.03657877
84	0x3d8cbc06	0.068718
85	0xbd404b69	-0.046946917
86	0xbe1f4b26	-0.1555601
87	0x3cbd3ddd	0.023100788
88	0x3e2d4e6b	0.16924445
89	0xbdef2f8a	-0.11678989
90	0x3de60eae	0.11233269
91	0x3c723027	0.014781988
92	0xbdb78eb4	-0.08962765
93	0x3e1a55cf	0.15071796
94	0xbcc271b7	-0.023735864
95	0x3ce4a983	0.02791286
96	0x3e59d4c4	0.2127257
97	0xbd5e21d4	-0.05423148
98	0xbd537230	-0.05162257
99	0x3cd2ffac	0.02575668
100	0xbbb1f2d3	-0.005430558
101	0xbc95bb4d	-0.018277789
102	0x3c8eabed	0.017415965
103	0xbd5f9056	-0.05458101
104	0xbc87d09a	-0.016578961
105	0x3bdc271c	0.0067185294
106	0x3cd8893e	0.02643263
107	0xbd9f4da3	-0.0777848
108	0xbd811bf9	-0.063041635
109	0xbe2d6487	-0.1693288
110	0x3d311ed5	0.043242294
111	0x3ca0f0ea	0.019646127
112	0x3df3b212	0.118991986
113	0xbdc573c4	-0.09641221
114	0xbe345804	-0.176117
115	0xbe80d1fa	-0.251602
116	0xbd94b4b6	-0.072610304
117	0xbe54806d	-0.20752116
118	0xbdc851ef	-0.097812526
119	0xbe33dc34	-0.1756447
120	0xbd368bc6	-0.044566892
121	0xbdcf3df3	-0.10119238
122	0xbd8d46e9	-0.06898291
123	0x3de8b6e1	0.113630064
124	0x3e2f8c9f	0.17143486
125	0xbe2b49f5	-0.16727431
126	0xbd0c0bd5	-0.03419097
127	0xbd8dd1e4	-0.06924799
128	0xbda8693a	-0.082231954
129	0x3d73cb10	0.059519827
130	0xbd8691c8	-0.06570774
131	0xbd076183	-0.03305198
132	0x3c4a12d4	0.012333591
133	0xbcd85362	-0.026406948
134	0x3e19f31a	0.15034142
135	0x3ca6d644	0.020365842
136	0xbe56367a	-0.20919219
137	0x3dcde35c	0.10053131
138	0xbdba979c	-0.091109484
139	0x3d913309	0.07089812
140	0x3d210656	0.039312683
141	0x3b2fe4b9	0.002683921
142	0xbd80806a	-0.06274493
143	0xbd9639dd	-0.07335255
144	0xba7873dc	-0.00094777136
145	0xbd1e134b	-0.038592618
146	0xbd0af9cd	-0.033929635
147	0x3d99fea3	0.07519271
148	0xbddd5784	-0.10807708
149	0xbc0480a3	-0.00808731
150	0x3d96838f	0.073493116
151	0xbe1b2796	-0.1515182
152	0x3d2df900	0.042473793
153	0x3dd1486a	0.1021889
154	0x3c9b13f3	0.018930411
155	0x3d9f8823	0.07789638
156	0xbe135119	-0.14386405
157	0x3e08c262	0.13355401
158	0xbcdd1b02	-0.026990417
159	0xbcc6f832	-0.02428827
160	0x3e2e730b	0.17036073
161	0xbd71bdbd	-0.05901884
162	0x3d8fffe0	0.07031226
163	0xbdac26ea	-0.0840586
164	0xbdfe1d2c	-0.12407908
165	0xbc7fc9bb	-0.015612061
166	0xbd90dc39	-0.07073254
167	0x3ea2ad1b	0.31772694
168	0xbd6b444a	-0.057438172
169	0xbe01f51e	-0.12691161
170	0x3d4ffcd8	0.05077824
171	0x3d069ea8	0.03286615
172	0xbc5b8c2e	-0.013400121
173	0xbe3a8d46	-0.18217954
174	0x3e12d2b1	0.14338185
175	0xbcfbd8cc	-0.030743025
176	0x3e754aae	0.2395427
177	0x3dc78e91	0.09743989
178	0x3ded09d5	0.11574141
179	0x3cdfb948	0.027310029
180	0x3de53068	0.111908734
181	0x3ce7dd65	0.028303811
182	0x3d832b5d	0.06404755
183	0xbd8efd62	-0.06981923
184	0xbc2ea1e6	-0.010658717
185	0xbd1b609a	-0.037933923
186	0xbe156e71	-0.14592911
187	0xbd93a3d3	-0.07208981
188	0xbe011967	-0.12607346
189	0xbdb2b690	-0.08726227
190	0x39aae600	0.0003259629
191	0xbc8cf39b	-0.017206004
192	0xbdc8361f	-0.09775948
193	0x3da15e40	0.07879305
194	0x3d328fc1	0.043594126
195	0xbde2b16b	-0.11068996
196	0xbe5ae48f	-0.2137625
197	0x3e180c8e	0.14848539
198	0x3daeddd3	0.08538403
199	0xbc62ac34	-0.013835002
200	0x3e2f4fbb	0.17120259
201	0x3dad2663	0.08454587
202	0xbd8fda71	-0.07024086
203	0xbc913816	-0.01772694
204	0xbe20cc77	-0.15702997
205	0xbccf8663	-0.025332635
206	0xbddcdbf0	-0.10784137
207	0x3d159673	0.036520433
208	0x3a5a8777	0.0008336226
209	0xbe1a0474	-0.15040761
210	0x3d6a9e9d	0.05728017
211	0x3db5b0a2	0.08871581
212	0x3cc432af	0.02394995
213	0xbd988415	-0.07447068
214	0xbe3770d2	-0.17914131
215	0xbd703fbe	-0.05865454
216	0xbe232dd5	-0.15935452
217	0x3e386500	0.18007278
218	0x3c455bf4	0.012045849
219	0xbdec93c5	-0.11551622
220	0xbe1d1ec7	-0.15343772
221	0x3d9bc006	0.07604985
222	0xbcf21686	-0.029551756
223	0xbc66e19d	-0.014091876
224	0xbda3aba5	-0.07991723
225	0xbbca83c7	-0.00618026
226	0x3dd69e11	0.104793675
227	0xba4bc850	-0.00077736843
228	0xbdbfcd5a	-0.093653396
229	0xbd82103d	-0.063507535
230	0xbd218986	-0.039437793
231	0x3deaf9a0	0.114733934
232	0x3d8780d2	0.066163674
233	0xbbe6927a	-0.0070365043
234	0x3e005867	0.12533723
235	0x3c1ae16b	0.009453158
236	0x3d6a309b	0.05717526
237	0x3d854cd4	0.065087944
238	0xbd485781	-0.048911575
239	0xbe53f019	-0.20697059
240	0x3d8dbc8b	0.06920727
241	0xbbd392e3	-0.0064567192
242	0x3d91dc9b	0.07122155
243	0x3e599f3b	0.21252148
244	0xbe12eb1e	-0.14347503
245	0xbdebeb63	-0.11519506
246	0x3de7ba14	0.113147885
247	0x3c46f14d	0.0121424915
248	0xbdaad838	-0.08342022
249	0x3cab4634	0.020907499
250	0x3e2552b4	0.1614483
251	0x3d7f18b4	0.062279418
252	0xbca2d309	-0.01987602
253	0xbd00d421	-0.031452302
254	0x3d8d56d4	0.06901327
255	0xbdba296d	-0.090899326
