pol_models/pm10_model_state.pt (torch, 650353 bytes, 16 tensors)

conv1.weight f4 [64, 300, 3]
-0.008207481 0.009779615 -0.03361509 -0.029348787 -0.017702317 0.0031033347 -0.0054165577 0.02169164
-0.0070036897 0.004064175 -0.014827133 -0.012324866 -0.036419712 -0.026863147 -0.019341076 -0.002827589
0.00918257 0.01644649 -0.027665319 -0.019486079 0.0077857897 0.020197222 -0.014820725 0.018403742
-0.012537308 -0.0020050332 0.024195721 -0.038317908 -0.029539343 -0.014584415 -0.017762069 0.023915637
-0.027566995 -0.02260011 -0.030760964 -0.037333332 -0.023687977 0.024346054 0.01111449 0.01153987
-0.0029223575 -0.021161407 0.00081337604 -0.036126018 -0.030140603 -0.022140265 0.016053975 0.014209619
-0.019652301 -0.006169012 0.017172031 0.029277261 0.009321581 0.0011268555 0.017665213 -0.024409382
0.00033326494 -0.030839808 -0.028122403 -0.023471633 0.010291706 0.008568507 -0.02380554 0.0047273026
0.013276229 -0.010000364 -0.0037940976 0.0027178533 0.016309412 0.023753515 -0.033971526 -0.018684274
0.004719816 0.018279372 0.021831471 0.024257204 0.0016263784 -0.034948964 -0.0021865165 -0.02613308
-0.037133183 0.02173414 0.017164273 -0.0395228 0.0014215834 -0.010479173 -0.011320615 -0.019754995
0.008248541 -0.023707919 0.007671721 0.012249803 0.019884435 0.0072871554 -0.038310636 -0.027636725
0.011774695 0.0020104463 -0.030149464 -0.0245437 0.026065087 0.016309796 -0.01974919 -0.013513326
-0.03797099 -0.005255587 -0.029850382 -0.03142174 -0.010903923 -0.0040188055 -0.020119505 0.015158082
-0.02497088 0.025003795 0.017487142 -0.033437695 -0.013027559 -0.0031058232 0.000114510956 0.0038439254
0.0057720644 -0.00521616 -0.022256607 0.00851728 -0.039447904 -0.025871525 -0.015653193 -0.023449944
-0.017653428 -0.03205229 -0.0118624605 0.0031012397 -0.026782343 -0.006716281 0.019491887 -0.01067362
-0.0069091287 -0.009453524 -0.0035201383 0.010844466 0.022176825 0.016414102 0.026861522 -0.006492135
-0.03414997 -0.019966967 0.01921133 -0.005523022 -0.021936739 -0.03176496 -0.03596981 -0.03304797
-0.012472352 0.013125507 0.013013938 -0.0381106 0.015589176 -0.031223534 -0.011530209 -0.018858688
-0.01144335 -0.0123378765 -0.037378594 -0.036232755 -0.011585911 -0.004658486 -0.020293169 0.006312592
-0.034828648 -0.007084918 0.02368335 -0.018946115 0.024806872 0.0059209685 -0.035388973 0.015721384
-0.010067731 -0.019871818 0.020506993 -0.03322649 -0.004033506 -0.014519823 0.017604094 0.0044255713
0.011172101 0.005973154 -0.012949848 -0.011844102 -0.033367034 0.010823096 0.019283801 0.016599303
-0.028272081 -0.0032260406 -0.027381936 -0.023938974 -0.025754087 0.005217468 -0.028116727 -0.00901132
-0.005066354 0.016651664 -0.030054333 -0.026971936 -0.024296518 0.018397031 -0.016262896 0.01882131
0.0025390806 -0.0034247953 -0.005083918 -0.011446388 9.4013085e-05 -0.012864418 -0.0055137854 -0.0018149613
-0.031163055 -0.022621721 0.020672373 -0.032173797 -0.007518092 0.026657322 0.0037701498 -0.007809685
-0.03552979 0.01137482 -0.028865911 -0.0147338025 -0.016001364 -0.009800086 -0.005470637 0.023263624
-0.00014592838 0.026096962 0.015417067 -0.025909279 0.010938047 -0.028493563 -0.01917253 0.0036170182
0.0029143991 0.017000325 -0.017207626 -0.005161657 0.012036954 -0.038454127 0.019510332 -0.03216137
-0.003480022 -0.010288404 -0.022242008 -0.0008361984 0.02341957 -0.0139319375 -0.02336527 -0.017482648
00000000: ac78 06bc ae3a 203c faaf 09bd de6c f0bc
00000010: 7304 91bc 5161 4b3b 617d b1bb abb2 b13c
00000020: 357f e5bb c52c 853b 81ed 72bc 3cee 49bc
00000030: d62c 15bd 1a10 dcbc 2d71 9ebc 124f 39bb
00000040: 7d72 163c caba 863c 61a2 e2bc 45a1 9fbc
00000050: f01f ff3b a574 a53c a0d2 72bc 72c3 963c
00000060: 4869 4dbc e066 03bb 1b36 c63c 3df3 1cbd
00000070: 7efc f1bc 78f3 6ebc c281 91bc baea c33c
00000080: 2ed4 e1bc de23 b9bc 6bfe fbbc d6ea 18bd
00000090: 4a0d c2bc 6071 c73c 8d19 363c b911 3d3c
000000a0: 0685 3fbb b05a adbc be38 553a e0f8 13bd
000000b0: 6de9 f6bc 805f b5bc a083 833c 76cf 683c
000000c0: ddfd a0bc 6c25 cabb 5cac 8c3c ded6 ef3c
000000d0: 8bb9 183c ffb2 933a a3b6 903c 2ff6 c7bc
000000e0: 10ba ae39 c4a3 fcbc f460 e6bc 9547 c0bc
000000f0: 8b9e 283c ec62 0c3c d603 c3bc 7de7 9a3b
00000100: 8a84 593c 91d8 23bc 65a6 78bb 031e 323b
00000110: 519b 853c bb96 c23c ba25 0bbd c30f 99bc
00000120: b0a8 9a3b 9fbe 953c ead7 b23c 0bb7 c63c
00000130: 342c d53a a526 0fbd a94b 0fbb 0a15 d6bc
00000140: f718 18bd cc0b b23c 179c 8c3c a9e2 21bd
00000150: 6c54 ba3a d6b0 2bbc 1a7a 39bc 3ad5 a1bc
00000160: e324 073c 1c37 c2bc 0f63 fb3b 66b3 483c
00000170: afe4 a23c 17c9 ee3b 9deb 1cbd 6a66 e2bc
00000180: a6ea 403c b1c1 033b 02fc f6bc df0f c9bc
00000190: 7386 d53c 1f9c 853c 0ec9 a1bc ff66 5dbc
000001a0: 7887 1bbd 0f37 acbb ca88 f4bc 15b4 00bd
000001b0: 5ea6 32bc 2fb0 83bb a9d1 a4bc 9b59 783c
000001c0: bb8f ccbc c2d4 cc3c 3241 8f3c f7f5 08bd
000001d0: 8b71 55bc 118b 4bbb 9a25 f038 5eea 7b3b
000001e0: 9623 bd3b 52ec aabb 7d53 b6bc 108c 0b3c
000001f0: 2094 21bd 85f0 d3bc 203b 80bc 191a c0bc
00000200: ec9d 90bc 4349 03bd c45a 42bc 2b3e 4b3b
00000210: a566 dbbc 4014 dcbb 73ad 9f3c 68e0 2ebc
00000220: f965 e2bb f4e2 1abc 1fb2 66bb fdac 313c
00000230: 2cac b53c de76 863c b20c dc3c fabb d4bb
00000240: d7e0 0bbd c491 a3bc 1461 9d3c 77fa b4bb
00000250: adb4 b3bc fa1b 02bd 1455 13bd 4f5d 07bd
00000260: d658 4cbc 5e0c 573c 6a38 553c dc19 1cbd
00000270: be69 7f3c 7fc8 ffbc 34e9 3cbc 897d 9abc
00000280: e47c 3bbc ce24 4abc 4c1a 19bd cc68 14bd
00000290: d5d2 3dbc 37a6 98bb dc3d a6bc dcd9 ce3b
000002a0: 7ca8 0ebd 9a28 e8bb 9603 c23c e234 9bbc
000002b0: c837 cb3c af04 c23b 07f4 10bd 22ca 803c
000002c0: 20f3 24bc 39ca a2bc 48fe a73c 8018 08bd
000002d0: 802b 84bb 8de4 6dbc 7636 903c 6204 913b
000002e0: 300b 373c 73ba c33b 992b 54bc c40d 42bc
000002f0: dfab 08bd 5b53 313c 10f9 9d3c 43fb 873c
00000300: da9a e7bc fb6b 53bb 1550 e0bc ab1b c4bc
00000310: 3cfa d2bc 4bf7 aa3b 0d55 e6bc 37a4 13bc
00000320: a803 a6bb 1269 883c 8134 f6bc 40f4 dcbc
00000330: 7e09 c7bc 5fb5 963c c439 85bc 262f 9a3c
00000340: b466 263b 8872 60bb ff96 a6bb a289 3bbc
00000350: e428 c538 48c5 52bc fcac b4bb ffe3 edba
00000360: aa49 ffbc 3051 b9bc 1c59 a93c acc8 03bd
00000370: 545a f6bb 7560 da3c 9e14 773b 63e8 ffbb
00000380: af87 11bd 745d 3a3c 3478 ecbc 0c66 71bc
00000390: 4b15 83bc 8a90 20bc 0843 b3bb 5b93 be3c
000003a0: 5a04 19b9 4cc9 d53c de97 7c3c b23f d4bc
000003b0: 7f35 333c 556b e9bc b60f 9dbc 7f0b 6d3b
000003c0: 81ff 3e3b 4444 8b3c 02f7 8cbc 1e23 a9bb
000003d0: a536 453c 1382 1dbd 22d4 9f3c a4bb 03bd
000003e0: 1511 64bb b290 28bc df34 b6bc 5334 5bba
000003f0: 66da bf3c c842 64bc 8668 bfbc c537 8fbc

conv1.bias f4 [64]
0.0023416928 -0.1571245 -0.01142687 0.0034440756 -0.031069862 0.007835398 -0.013470694 0.007047305
-0.15627986 -0.10973318 0.03723783 -0.17510931 -0.06167594 -0.17215268 -0.038556106 0.009817845
-0.02777669 -0.02220106 -0.16432562 -0.008918448 -0.002280205 -0.019167827 -0.03097224 0.01415461
-0.0027122146 0.0664381 -0.09464493 0.15132155 -0.036054548 0.0134759005 -0.13028638 -0.012543516
0.012253408 -0.030329058 0.0027952788 -0.028129596 -0.10705723 0.018682735 0.007287479 -0.013004473
0.006982897 -0.13990515 0.039673824 -0.053512592 0.028371986 -0.017458621 0.009643194 -0.026459757
-0.035102967 -0.36020538 -0.032888792 -0.023063928 0.014100383 -0.08828819 -0.05645594 -0.033286694
-0.0067333225 0.023021666 0.027161377 -0.013668289 0.021114198 0.0036367772 -0.026685815 -0.020038564
00000000: 1677 193b 3fe5 20be c437 3bbc 00b6 613b
00000010: 3986 febc 0b60 003c 30b4 5cbc 14ed e63b
00000020: d407 20be cabb e0bd b286 183d db4f 33be
00000030: e99f 7cbd cb48 30be 02ed 1dbd 07db 203c
00000040: f18b e3bc ffde b5bc fa44 28be af1e 12bc
00000050: 7e6f 15bb d905 9dbc 7fb9 fdbc bde8 673c
00000060: 69bf 31bb b310 883d 33d5 c1bd 09f4 1a3e
00000070: efad 13bd 06ca 5c3c cb69 05be 5283 4dbc
00000080: 85c2 483c a574 f8bc ff30 373b 0a70 e6bc
00000090: d240 dbbd 890c 993c cecb ee3b b710 55bc
000000a0: c9d0 e43b 4c43 0fbe 0581 223d 0530 5bbd
000000b0: 5e6c e83c 6205 8fbc 7dfe 1d3c 22c2 d8bc
000000c0: 21c8 0fbd d76c b8be 66b6 06bd 90f0 bcbc
000000d0: 4b05 673c 70d0 b4bd 583e 67bd a157 08bd
000000e0: 34a3 dcbb ef97 bc3c 8981 de3c f6f0 5fbc
000000f0: aff7 ac3c ff56 6e3b 369c dabc ea27 a4bc

conv2.weight f4 [128, 64, 3]
-0.063228704 0.01382512 -0.0258626 -0.019675324 -0.009567939 -0.08142547 0.06423855 -0.06217303
-0.04282189 -0.04931404 -0.015352324 0.015464261 -0.056083944 -0.042443424 -0.041677173 0.012834088
-0.021756293 -0.03186557 -0.04757111 0.032462195 -0.0029274293 -0.02420021 -0.018970829 0.0141833825
0.0067273523 0.036374595 0.019632468 -0.03707333 0.0024137627 -0.0015377261 -0.020657562 0.05130628
0.026828354 0.05421978 -0.05066053 -0.00748673 0.019952033 -0.070048645 0.012475465 -0.03309337
-0.02231271 -0.04872941 -0.008207857 -0.077186875 -0.03271877 0.063971855 -0.06991683 0.016850993
-0.06602595 0.009903974 0.054976217 -0.042654164 -0.071601525 0.0037790115 0.042895477 0.04282293
-0.019164853 -0.012141605 -0.07932434 -0.06130596 0.03778701 0.061677977 -0.055692215 0.014182352
-0.01078494 -0.07859934 0.029109137 0.019512914 0.03150022 -0.011155859 -0.017935602 0.060901295
-0.016188072 -0.07800283 -0.053380582 -0.0080348365 -0.047165032 -0.06450661 -0.063780785 -0.074731685
-0.08044349 0.010478042 -0.046867307 -0.026138011 -0.040161453 0.059342593 0.053467914 -0.06328548
-0.068967044 -0.057959486 -0.047559112 -0.015467135 0.0149333915 -0.072286576 -0.092069015 -0.023819234
0.0053636413 -0.064444035 -0.033024844 -0.08152115 -0.04811089 -0.03849721 0.029766142 0.024448903
-0.008769844 -0.054315068 0.0101352185 0.051517256 -0.032071088 0.025663285 0.03685352 -0.06651439
0.044660915 -0.074494354 0.072111994 0.008558407 -0.04434026 0.047558255 0.048349902 -0.066182874
-0.0061269593 0.030829415 -0.029448979 -0.0078507885 0.004263089 0.011897357 0.037924442 -0.07976197
-0.042783104 -0.0194365 -0.0148899 -0.062294476 0.040670462 0.035184227 -0.06059265 0.005583645
-0.07188583 0.061028868 0.014169881 0.053578798 -0.034003213 -0.05536687 0.013599938 0.039562162
-0.06739743 -0.048909154 -0.043911066 -0.10758439 -0.07132603 -0.033538043 -0.036040135 -0.02785445
-0.043882433 0.025391644 -0.06393919 0.021453882 -0.019452782 0.0034093666 0.04452498 -0.045967825
-0.08689102 -0.055635914 -0.01056512 -0.0056307497 0.019121693 -0.019071179 -0.011253907 0.04274351
0.054980114 -0.001929358 0.010071558 -0.0739226 0.00010942315 -0.007525271 -0.005624725 0.052806955
8.146125e-05 -0.03798889 -0.023598364 0.048352305 0.003344547 -0.05850628 0.047235742 -0.05657496
0.011953185 -0.006168596 -0.07447026 -0.029170344 0.03767427 -0.022800215 -0.06605134 -0.056259915
0.040002845 0.031122351 -0.03755121 -0.024946108 -0.10564858 -0.00238209 -0.015623387 0.017610636
-0.05548371 -0.0073827133 -0.03325994 -0.037352733 -0.038787767 -0.012385522 0.02449264 -0.027507607
-0.018644737 0.021435624 -0.0030770074 -0.00061076996 -0.022061422 0.004609642 -0.078314215 0.04398092
-0.06668808 -0.020798195 -0.072338276 -0.097391166 -0.049436614 -0.047433328 0.015007113 -0.07235343
-0.0041536433 -0.10182767 0.0021019792 -0.042844098 -0.07960257 -0.083423264 0.037456885 -0.06670956
0.003423761 0.039888926 -0.016344994 -0.058166847 0.017463783 0.057280086 0.025354747 0.025804007
0.030452963 -0.027319496 0.017845064 -0.03136801 0.047891982 -0.051198654 -0.08032049 -0.027539933
-0.028510721 0.050839886 -0.056754455 0.02919091 0.0004501972 -0.024749134 -0.05780407 0.014451389
00000000: 0d7e 81bd c282 623c cedd d3bc 252e a1bc
00000010: d8c2 1cbc 66c2 a6bd 808f 833d 26a9 7ebd
00000020: 0266 2fbd 85fd 49bd 5088 7bbc d05d 7d3c
00000030: 47b8 65bd 28d9 2dbd afb5 2abd 1146 523c
00000040: 413a b2bc 7985 02bd edd9 42bd 14f7 043d
00000050: 1dda 3fbb 853f c6bc b668 9bbc 6b61 683c
00000060: 1f71 dc3b 87fd 143d 45d4 a03c 34da 17bd
00000070: 3830 1e3b 878d c9ba 0c3a a9bc 8926 523d
00000080: 23c7 db3c 8f15 5e3d 6a81 4fbd 3e53 f5bb
00000090: 7272 a33c aa75 8fbd e565 4c3c ea8c 07bd
000000a0: 25c9 b6bc 7d98 47bd 3f7a 06bc 2714 9ebd
000000b0: 1e04 06bd ad03 833d 8e30 8fbd 180b 8a3c
000000c0: 9d38 87bd 4744 223c be2e 613d 22b6 2ebd
000000d0: d2a3 92bd 4ba9 773b 2bb3 2f3d 1967 2f3d
000000e0: 9cff 9cbc 95ed 46bc cd74 a2bd f51b 7bbd
000000f0: 8dc6 1a3d 0ca2 7c3d 851d 64bd 195d 683c
00000100: 51b3 30bc b1f8 a0bd 4976 ee3c 8cd9 9f3c
00000110: 6006 013d 10c7 36bc afed 92bc a373 793d
00000120: d99c 84bc f3bf 9fbd 99a5 5abd 8ca4 03bc
00000130: 1f30 41bd 0b1c 84bd 809f 82bd ed0c 99bd
00000140: 8ebf a4bd 18ac 2b3c eff7 3fbd 621f d6bc
00000150: 5680 24bd 3811 733d 2c01 5b3d d19b 81bd
00000160: 983e 8dbd ed66 6dbd 58cd 42bd de69 7dbc
00000170: 2fab 743c fc0a 94bd ae8e bcbd 8e20 c3bc
00000180: 7cc1 af3b 3cfb 83bd 0f45 07bd 90f4 a6bd
00000190: ed0f 45bd 40af 1dbd 20d8 f33c 1149 c83c
000001a0: 64af 0fbc 7a79 5ebd 300e 263c c203 533d
000001b0: f95c 03bd cf3b d23c b7f3 163d b238 88bd
000001c0: 5dee 363d 7f90 98bd 74af 933d 9038 0c3c
000001d0: 229e 35bd 72cc 423d 8c0a 463d e38a 87bd
000001e0: a9c4 c8bb f88d fc3c fc3e f1bc 98a0 00bc
000001f0: 62b1 8b3b 22ed 423c a956 1b3d 3e5a a3bd
00000200: 563d 2fbd 4b39 9fbc c4f4 73bc 7e28 7fbd
00000210: 1296 263d 561d 103d 0030 78bd 02f7 b63b
00000220: e138 93bd 68f9 793d ca28 683c 7175 5b3d
00000230: f446 0bbd 5fc8 62bd 46d2 5e3c ef0b 223d
00000240: aa07 8abd f754 48bd 17dc 33bd 3455 dcbd
00000250: 6213 92bd 305f 09bd d29e 13bd 042f e4bc
00000260: 11be 33bd 2302 d03c 8df2 82bd 0dc0 af3c
00000270: 715b 9fbc ae6f 5f3b d35f 363d c248 3cbd
00000280: ebf3 b1bd 7ce2 63bd 5319 2dbc 2782 b8bb
00000290: 19a5 9c3c 293b 9cbc 4f62 38bc d213 2f3d
000002a0: d432 613d 83e2 fcba 2d03 253c bb64 97bd
000002b0: 1b7a e538 8c96 f6bb 9d4f b8bb 1b4c 583d
000002c0: 2dd6 aa38 3d9a 1bbd 5b51 c1bc 110d 463d
000002d0: 3030 5b3b 48a4 6fbd 447a 413d 25bb 67bd
000002e0: 4bd7 433c ef21 cabb dd83 98bd a5f6 eebc
000002f0: 5650 1a3d 84c7 babc ed45 87bd cc70 66bd
00000300: 06da 233d 4df4 fe3c 4ccf 19bd c85b ccbc
00000310: 485e d8bd d71c 1cbb 3cf9 7fbc 2e44 903c
00000320: e342 63bd b0ea f1bb 933b 08bd 2eff 18bd
00000330: ecdf 1ebd a5ec 4abc caa4 c83c a257 e1bc
00000340: d9bc 98bc c399 af3c 9ea7 49bb 141c 20ba
00000350: 28ba b4bc 7b0c 973b 3463 a0bd 5625 343d
00000360: c393 88bd fa60 aabc 1726 94bd 0575 c7bd
00000370: 0c7e 4abd 7349 42bd 65e0 753c 092e 94bd
00000380: 491b 88bb 078b d0bd 5cc1 093b 4b7d 2fbd
00000390: ac06 a3bd d1d9 aabd 646c 193d 069f 88bd
000003a0: 2e61 603b 9262 233d f0e5 85bc 5c40 6ebd
000003b0: 3510 8f3c 869e 6a3d c2b4 cf3c ed62 d33c
000003c0: 7e78 f93c 23cd dfbc d02f 923c be7b 00bd
000003d0: 622a 443d aeb5 51bd 127f a4bd 6d9b e1bc
000003e0: 518f e9bc 7c3d 503d 5c77 68bd c621 ef3c
000003f0: 7208 ec39 b2be cabc f6c3 6cbd 85c5 6c3c

conv2.bias f4 [128]
-0.06502417 0.044059847 -0.12237525 -0.042827405 -0.14617871 -0.13470884 -0.123784885 -0.05294685
0.006972727 0.04056526 -0.082345575 -0.0067151827 -0.13590369 0.04110353 -0.03340682 0.036388177
-0.0042827465 -0.07375557 -0.17903037 -0.053984247 -0.058192138 -0.090926245 -0.091760166 -0.030092817
-0.071016945 -0.062500514 -0.08773133 0.03397215 -0.06244801 -0.054543972 -0.022410873 -0.07710066
-0.027593432 0.06567353 -0.039872732 -0.072305754 -0.034341812 -0.028778506 0.025925921 -0.057741616
0.0204538 -0.06017216 -0.16863029 -0.09076416 -0.04646663 0.010692159 -0.093700394 0.037806302
-0.16798572 -0.15806422 -0.043623496 -0.0050041955 -0.04058594 -0.0059275404 -0.0073740967 0.027671298
-0.0511053 -0.020289209 -0.017855449 -0.028640965 -0.060482576 0.021658462 0.011463235 -0.005597071
-0.16579694 0.120011896 -0.03423692 -0.07601682 0.17690809 -0.06966216 -0.032215603 -0.074954234
0.01709575 -0.053748235 -0.07241969 -0.037826274 -0.057087984 -0.079251744 0.032978635 -0.0340071
0.07381993 -0.065787636 -0.09477074 -0.17171694 -0.037594944 -0.016683815 -0.10820971 -0.048114646
-0.074998215 -0.060630605 -0.015494455 -0.072462745 0.030386683 -0.059685532 0.121408254 -0.04469893
-0.0060501806 -0.04486736 -0.08887943 0.04230377 0.17165925 -0.022894192 -0.0590155 -0.04537284
-0.10930197 -0.024093099 -0.0121867405 -0.073097564 -0.09121685 -0.09088701 -0.102773435 -0.08892501
-0.045026015 -0.09073942 -0.039857015 -0.10761565 0.11486914 -0.07583866 -0.10172574 -0.014617295
-0.03810138 -0.18624637 -0.049215943 0.01656811 0.1918697 -0.04176864 -0.008541096 -0.04658284
00000000: 642b 85bd 1978 343d e09f fabd ca6b 2fbd
00000010: dfaf 15be 1df1 09be ee82 fdbd ccde 58bd
00000020: 797b e43b c227 263d cca4 a8bd 090b dcbb
00000030: 562a 0bbe 2d5c 283d 97d5 08bd c50b 153d
00000040: 4856 8cbb 290d 97bd bd53 37be 961e 5dbd
00000050: e15a 6ebd 8a37 babd c1ec bbbd 3685 f6bc
00000060: 5571 91bd 4500 80bd 7cac b3bd 6226 0b3d
00000070: 7cc9 7fbd 8069 5fbd 0297 b7bc f3e6 9dbd
00000080: 9f0b e2bc d87f 863d 9751 23bd 0a15 94bd
00000090: 00aa 0cbd e7c0 ebbc 9962 d43c 7982 6cbd
000000a0: ba8e a73c 1577 76bd 6bad 2cbe 8fe2 b9bd
000000b0: cb53 3ebd 2a2e 2f3c fee5 bfbd c8da 1a3d
000000c0: 7304 2cbe 96db 21be 8dae 32bd 3cfa a3bb
000000d0: 713d 26bd d03b c2bb 68a2 f1bb ebae e23c
000000e0: cb53 51bd 8e35 a6bc 9745 92bc 75a0 eabc
000000f0: 94bc 77bd 166d b13c 4bd0 3b3c a267 b7bb
00000100: acc6 29be ccc8 f53d 033c 0cbd b5ae 9bbd
00000110: 6527 353e 09ab 8ebd 82f4 03bd 9b81 99bd
00000120: 630c 8c3c 1c27 5cbd c650 94bd b9ef 1abd
00000130: 17d5 69bd bd4e a2bd 9b14 073d 074b 0bbd
00000140: e72e 973d abbb 86bd 2917 c2bd 91d6 2fbe
00000150: 28fd 19bd 7fac 88bc 0d9d ddbd dd13 45bd
00000160: aa98 99bd cc57 78bd 74dc 7dbc 5967 94bd
00000170: 7eed f83c d178 74bd e4a4 f83d 3a16 37bd
00000180: 9840 c6bb d6c6 37bd 6b06 b6bd b846 2d3d
00000190: 71c7 2f3e 9a8c bbbc 3dba 71bd dfd8 39bd
000001a0: b6d9 dfbd e45e c5bc e5aa 47bc 2db4 95bd
000001b0: e6cf babd f822 babd e17a d2bd 511e b6bd
000001c0: 336d 38bd 97d5 b9bd 1c41 23bd 9865 dcbd
000001d0: 8340 eb3d 4d51 9bbd 9655 d0bd 617d 6fbc
000001e0: 3110 1cbd 5eb7 3ebe a896 49bd d8b9 873c
000001f0: 7e79 443e 9815 2bbd f4ef 0bbc a6cd 3ebd

lstm.weight_ih_l0 f4 [200, 128]
0.0777434 0.102781825 0.04184971 0.0434258 0.07448024 0.119025014 0.1370931 -0.012335559
0.10081834 -0.012457369 0.09740717 0.10436843 0.055599976 -0.05893635 0.10898308 -0.012914868
0.019681143 -0.08640869 -0.14776604 -0.04683122 0.024979346 -0.106712095 -0.037279926 0.09351658
-0.09517323 0.019688733 0.12488735 -0.23446538 -0.04891967 -0.033415716 -0.019429738 -0.03435873
-0.04251582 -0.14038694 0.10503077 0.04905705 0.041237503 -0.10357452 -0.021591209 -0.03429325
0.12329347 -0.14452776 -0.065261744 -0.10399705 -0.16417015 -0.064222634 0.119848005 0.10267996
0.021581538 -0.06787758 -0.10682816 -0.030391727 -0.0072804904 0.06428148 -0.041521154 0.12190284
0.076863006 0.025795257 -0.1235267 0.06382799 0.08157311 -0.09948108 0.05291524 -0.16535154
0.0683884 -0.01187339 0.046238534 0.14883167 0.30765477 0.08026118 -0.08103791 0.016755335
0.036461294 0.045562252 -0.039421897 -0.045027923 0.05679623 -0.057621658 0.015035477 -0.09551247
0.122985 -0.0060941814 -0.18151833 0.07387109 -0.14025536 -0.027277311 0.17923877 0.094887674
0.065169506 0.028905049 -0.09485856 -0.07130573 0.12765634 0.12539625 0.40634772 0.030002788
-0.19582295 -0.12394114 0.06547008 0.13635333 -0.086987585 0.016908148 -0.0034597141 0.08152531
0.04101689 -0.061273143 -0.11010857 -0.0736126 0.115180254 -0.00012405154 0.15478082 -0.12508632
0.06542113 -0.057381827 -0.010559277 0.13702467 0.008390003 -0.011624517 -0.012357454 0.088036455
-0.059384704 0.15831652 0.09321104 -0.092610806 0.21275125 0.059227716 0.17796381 -0.056522563
-0.057171557 -0.09302258 -0.16980655 0.02987654 -0.069939144 0.09515654 0.028748123 -0.035419185
-0.21540038 -0.08251488 -0.08288969 0.10133464 0.018945599 -0.07270521 -0.17891803 0.10444729
-0.13114074 0.07618792 -0.123030804 -0.044353895 0.08671434 0.10922528 -0.17110854 0.049064253
-0.002269251 -0.018564355 0.087448396 -0.10476217 0.1339545 0.01845144 0.048882306 -0.06696649
0.13948481 0.116948076 0.10801777 0.06300298 -0.118719794 0.13724656 -0.024942676 0.10540746
-0.041732416 0.03631197 0.14294544 -0.0782027 -0.018168258 -0.10429002 0.09109284 -0.07687491
0.078862704 -0.19795784 -0.1506921 -0.10759562 -0.026670737 0.022977047 -0.004349611 0.063821785
-0.15394272 -0.1919519 0.09521496 -0.16765703 0.009042735 -0.12443154 -0.0022611264 0.014193352
0.04243844 -0.13525173 -0.12766393 0.08416322 0.061338525 -0.017967882 -0.10393028 0.05185382
-0.030853001 0.050216462 -0.0057151327 -0.09001789 -0.05149908 -0.04321849 -0.018552093 7.676919e-05
-0.14054802 -0.0008142586 -0.21593419 -0.046008483 -0.19690284 0.074361436 0.08604122 0.13948444
0.08218017 -0.16965508 0.0953203 -0.13067392 -0.19446254 -0.043828424 -0.02205544 0.101130284
-0.050968852 0.05934124 -0.10054033 -0.02373729 -0.09835059 -0.06877506 0.07598343 -0.13277197
-0.05806957 0.04138105 0.10726406 -0.07327703 0.12671223 -0.067656636 0.09550917 -0.1652786
0.05103487 0.15534785 0.16603237 0.06646973 -0.022752205 -0.060543887 -0.07609845 -0.17747498
-0.15949175 -0.061009914 -0.040905055 -0.1836691 0.0029277762 -0.0132495565 0.052173164 0.11505309
00000000: ef37 9f3d 477f d23d 9a6a 2b3d 40df 313d
00000010: 1989 983d 63c3 f33d 2262 0c3e 161b 4abc
00000020: d979 ce3d fe19 4cbc 697d c73d 1ebf d53d
00000030: cdbc 633d 3e67 71bd 8532 df3d e298 53bc
00000040: 593a a13c 0af7 b0bd fb4f 17be 18d2 3fbd
00000050: 7ca1 cc3c df8b dabd d6b2 18bd 9f85 bf3d
00000060: 2fea c2bd 444a a13c f0c4 ff3d b117 70be
00000070: fe5f 48bd ebde 08bd 1d2b 9fbc bdbb 0cbd
00000080: 1225 2ebd 98c1 0fbe 5f1a d73d 0cf0 483d
00000090: a8e8 283d e11e d4bd 0ce0 b0bc 1477 0cbd
000000a0: 4981 fc3d 16ff 13be f3a7 85bd 68fc d4bd
000000b0: 381c 28be 2887 83bd df72 f53d df49 d23d
000000c0: c4cb b03c 6703 8bbd b9c8 dabd 12f8 f8bc
000000d0: 2e91 eebb 02a6 833d 1612 2abd 32a8 f93d
000000e0: 5a6a 9d3d 9350 d33c 91fb fcbd 40b8 823d
000000f0: cd0f a73d bdbc cbbd a7bd 583d ea51 29be
00000100: 380f 8c3d 9b88 42bc 9e64 3d3d 5467 183e
00000110: ed84 9d3e f95f a43d 34f7 a5bd 7c42 893c
00000120: 7058 153d 7c9f 3a3d db78 21bd 336f 38bd
00000130: 2aa3 683d b004 6cbd 5c57 763c 0b9c c3bd
00000140: 8fdf fb3d b3b1 c7bb f1df 39be ba49 973d
00000150: 1a9f 0fbe ab74 dfbc 5e8a 373e 7854 c23d
00000160: 9777 853d 48ca ec3c 3445 c2bd bd08 92bd
00000170: 58b8 023e e067 003e cf0c d03e 68c8 f53c
00000180: d085 48be dad4 fdbd 2d15 863d 35a0 0b3e
00000190: 8c26 b2bd f582 8a3c 5fbc 62bb bef6 a63d
000001a0: 5401 283d 8cf9 7abd 9a80 e1bd 34c2 96bd
000001b0: a0e3 eb3d d513 02b9 dd7e 1e3e a116 00be
000001c0: 83fb 853d 3509 6bbd d100 2dbc 3250 0c3e
000001d0: 3976 093c c274 3ebc eb76 4abc 754c b43d
000001e0: 603d 73bd ba1d 223e 6ee5 be3d bcaa bdbd
000001f0: 77db 593e c398 723d 253c 363e 3484 67bd
00000200: b92c 6abd 9f82 bebd c5e1 2dbe a5bf f43c
00000210: 413c 8fbd 6fe1 c23d 2f81 eb3c b513 11bd
00000220: eb91 5cbe 90fd a8bd 12c2 a9bd 8988 cf3d
00000230: cd33 9b3c 78e6 94bd 4a36 37be 76e8 d53d
00000240: c249 06be 6a08 9c3d 93f7 fbbd 6eac 35bd
00000250: 4a97 b13d 81b1 df3d 1437 2fbe 99f7 483d
00000260: b7b7 14bb 4614 98bc 2518 b33d 8c8d d6bd
00000270: 5e2b 093e 7927 973c d038 483d ba25 89bd
00000280: 1bd5 0e3e 7982 ef3d 6c38 dd3d b507 813d
00000290: 5d23 f3bd 5d8a 0c3e 9554 ccbc dedf d73d
000002a0: 9cef 2abd dcbb 143d 4a60 123e bd28 a0bd
000002b0: 99d5 94bc 0296 d5bd e28e ba3d 9870 9dbd
000002c0: c582 a13d 76b5 4abe 084f 1abe 185b dcbd
000002d0: 977c dabc 5c3a bc3c 2e87 8ebb ffb4 823d
000002e0: 29a3 1dbe 0a8f 44be 1000 c33d 49ae 2bbe
000002f0: fb27 143c f7d5 febd 682f 14bb 3c8b 683c
00000300: eed3 2d3d 6e7f 0abe 55ba 02be c45d ac3d
00000310: 1b3e 7b3d 6131 93bc 66d9 d4bd ac64 543d
00000320: 6fbf fcbc c7af 4d3d 0246 bbbb 4d5b b8bd
00000330: b3f0 52bd df05 31bd 8ffa 97bc 25ff a038
00000340: d2eb 0fbe f873 55ba da1d 5dbe 6473 3cbd
00000350: e6a0 49be cf4a 983d 6136 b03d 02d5 0e3e
00000360: 144e a83d 10ba 2dbe 4a37 c33d 62cf 05be
00000370: 3021 47be 6f85 33bd 9cad b4bc 651d cf3d
00000380: b7c4 50bd cd0f 733d 17e8 cdbd b574 c2bc
00000390: 096c c9bd f0d9 8cbd 339d 9b3d 60f5 07be
000003a0: 5cda 6dbd 2d7f 293d 42ad db3d 4412 96bd
000003b0: dac0 013e 908f 8abd 509a c33d cb3e 29be
000003c0: f109 513d 8213 1f3e 6404 2a3e 4821 883d
000003d0: d562 babc defc 77bd 81d9 9bbd 00bc 35be
000003e0: ce51 23be 88e5 79bd 0f8c 27bd c113 3cbe
000003f0: efdf 3f3b ab14 59bc 87b3 553d f4a0 eb3d

lstm.weight_hh_l0 f4 [200, 50]
0.028923579 0.037249044 -0.046103097 -0.009355772 0.08522488 -0.008542877 0.023697814 -0.06943441
0.13000733 -0.009963549 -0.2661364 0.15186049 0.082209446 -0.18149611 0.00581183 -0.09748919
-0.08446674 0.057104684 0.03617325 -0.20423046 -0.24547659 0.08897119 -0.047171615 0.09703729
0.09124811 0.010453491 0.094305135 0.018457925 0.122799784 -0.1722141 -0.1364922 -0.0638888
-0.21328175 -0.014635767 0.24699754 0.2588265 -0.110634826 0.00040928277 -0.1537141 -0.056340337
-0.12889849 0.054549124 -0.119894244 0.035112757 -0.21103439 0.018202934 -0.042661794 0.09090288
0.13486277 0.06927723 0.03440268 -0.030105831 -0.015156059 0.16582909 -0.035962276 0.09312171
0.13841118 0.090799436 -0.078340195 0.07440782 -0.13626653 -0.0032124855 0.09382304 -4.5247518e-05
0.26986045 0.27194223 0.13124704 -0.1020848 -0.021377545 -0.14113566 -0.2004946 -0.040363863
0.13911307 -0.07108711 0.033266414 0.305135 -0.18484755 0.09280815 -0.23302896 0.16400562
0.21809623 0.3570728 -0.26108733 -0.16695493 0.031474557 0.07518514 0.08778036 0.0056156483
0.22655392 0.13126974 0.11964584 -0.034418136 0.4562656 -0.17304802 -0.3073285 -0.007125544
-0.35368943 0.22319822 -0.1593316 0.05397059 0.04933546 0.17481004 -0.03575553 0.11468813
0.0081046745 -0.09033623 -0.086617894 -0.04744804 -0.17027304 -0.012738967 0.19795729 0.05846004
0.15802483 0.061131164 0.05532254 -0.04979183 0.15262845 -0.35592744 0.036544956 0.012782317
0.15486579 -0.057257503 0.11870734 -0.008462372 0.014740357 -0.02413255 0.062970564 -0.06630113
0.004629325 0.04212192 -0.12377371 0.18928048 0.026422909 0.10778529 0.1977853 0.22802451
0.11532488 -0.108916596 -0.15564953 -0.17563464 -0.18220547 -0.13309088 0.10465112 0.11592273
0.11206388 -0.16511005 0.14440693 -0.0071880994 0.10708044 -0.13550518 0.12289295 -0.030058991
0.08260633 0.066560015 0.22657351 0.014219071 0.05648922 0.16025299 -0.10629984 0.058176763
-0.05076128 -0.18125544 0.084852204 -0.0815395 -0.032953173 -0.34059507 -0.12166365 0.21059404
-0.098073706 -0.0020384851 0.07437245 0.18772887 0.18136339 -0.037960805 0.27172494 0.014292455
0.16340183 -0.08697818 0.19634596 -0.018171046 -0.2127969 0.01819737 -0.031699404 0.0801389
0.06895021 -0.014092848 -0.02859339 0.021644086 0.037736252 -0.008155858 0.122802585 -0.025500422
-0.36811706 -0.098888196 0.112346664 -0.21402512 0.15713237 -0.27961105 0.07276361 0.037411302
0.13976046 0.09332624 0.15672567 -0.17057905 -0.048611306 0.18266146 0.09627833 0.06825635
0.067319155 0.15995632 0.032637645 -0.057411037 -0.107799545 -0.11932721 0.0054147462 -0.043785397
0.045352977 -0.03894493 0.07871431 -0.23497708 0.13421367 0.1899057 -0.12477262 -0.10202901
-0.044322923 -0.040391926 0.16718295 -0.052893158 -0.06633789 0.16154285 0.10015066 0.054223105
0.16479854 0.147222 -0.19210878 -0.0068821902 0.18006203 -0.06857725 -0.23742265 0.13064142
-0.09490469 0.26854947 -0.16719732 0.15192705 -0.055035263 -0.1331225 -0.058057554 0.10798738
-0.114682466 0.13305604 -0.1368677 -0.024784958 0.10612405 0.061789386 0.058753077 0.06816487
00000000: 24f1 ec3c 7492 183d 9ad6 3cbd f448 19bc
00000010: 628a ae3d 6cf7 0bbc eb21 c23c a133 8ebd
00000020: a420 053e 273e 23bc 0843 88be 5181 1b3e
00000030: 6d5d a83d 1eda 39be 2a71 be3b 6aa8 c7bd
00000040: e6fc acbd 9ae6 693d 672a 143d ca21 51be
00000050: 375e 7bbe 8736 b63d 0637 41bd 7dbb c63d
00000060: 4ae0 ba3d 1e45 2b3c 0d23 c13d 1335 973c
00000070: 747e fb3d e558 30be 9cc4 0bbe 22d8 82bd
00000080: 8866 5abe dbca 6fbc ecec 7c3e e884 843e
00000090: 8394 e2bd 0195 d639 3b67 1dbe 20c5 66bd
000000a0: f7fd 03be e76e 5f3d 1d8b f5bd 65d2 0f3d
000000b0: 6619 58be 521e 953c 22be 2ebd 4a2b ba3d
000000c0: 7719 0a3e 38e1 8d3d d3e9 0c3d 81a0 f6bc
000000d0: 1e51 78bc 1acf 293e 2e4d 13bd 98b6 be3d
000000e0: a9bb 0d3e 0ef5 b93d d370 a0bd 2163 983d
000000f0: 7489 0bbe 9088 52bb 4b26 c03d 27c8 3db8
00000100: 262b 8a3e 033c 8b3e a065 063e d611 d1bd
00000110: f61f afbc de85 10be 754e 4dbe 9454 25bd
00000120: a873 0e3e 1e96 91bd 5d42 083d a83a 9c3e
00000130: ad48 3dbe 3312 be3d 259f 6ebe 17f1 273e
00000140: 9e54 5f3e 3fd2 b63e 3dad 85be 3cf6 2abe
00000150: 77eb 003d abfa 993d 30c6 b33d 7903 b83b
00000160: c0fd 673e 936b 063e e108 f53d 08fa 0cbd
00000170: a59b e93e 8033 31be 295a 9dbe 657d e9bb
00000180: c816 b5be 138e 643e d327 23be 4410 5d3d
00000190: fb13 4a3d 6701 333e 6474 12bd 9ce1 ea3d
000001a0: 78c9 043c 3402 b9bd b964 b1bd e058 42bd
000001b0: 0e5c 2ebe 1ab7 50bc 51b5 4a3e cb73 6f3d
000001c0: 43d1 213e ac64 7a3d e399 623d 85f2 4bbd
000001d0: a24a 1c3e 1f3c b6be 2ab0 153d ec6c 513c
000001e0: 2395 1e3e d886 6abd d51c f33d c3a5 0abc
000001f0: 8a81 713c a0b1 c5bc b6f6 803d e3c8 87bd
00000200: 98b1 973b 0988 2c3d 127d fdbd bed2 413e
00000210: db74 d83c 89be dc3d 3b88 4a3e 427f 693e
00000220: 732f ec3d aa0f dfbd 9762 1fbe 91d9 33be
00000230: 1294 3abe fa48 08be 5453 d63d e568 ed3d
00000240: bf81 e53d 9c12 29be 69df 133e 268a ebbb
00000250: fd4c db3d dfc1 0abe 4daf fb3d 463e f6bc
00000260: 822d a93d 9e50 883d e302 683e 1bf7 683c
00000270: 3e61 673d 5c19 243e bbb3 d9bd c24a 6e3d
00000280: 0feb 4fbd 079b 39be fec6 ad3d 2efe a6bd
00000290: e8f9 06bd 7a62 aebe cb2a f9bd f7a5 573e
000002a0: deda c8bd 1b98 05bb 9550 983d ff3b 403e
000002b0: 53b7 393e ca7c 1bbd 881f 8b3e e72a 6a3c
000002c0: cf52 273e 9e21 b2bd ea0e 493e 72db 94bc
000002d0: 6ee7 59be a712 953c 3cd7 01bd dd1f a43d
000002e0: c535 8d3d b0e5 66bc af3c eabc f04e b13c
000002f0: 5491 1a3d 26a0 05bc ec7f fb3d 43e6 d0bc
00000300: d779 bcbe e585 cabd 0216 e63d 6729 5bbe
00000310: 4fe7 203e 2e29 8fbe 1605 953d 983c 193d
00000320: 5e1d 0f3e d421 bf3d b27c 203e 46ac 2ebe
00000330: a61c 47bd 9b0b 3b3e 932d c53d fcc9 8b3d
00000340: a0de 893d 97cb 233e 0daf 053d d627 6bbd
00000350: 02c6 dcbd d361 f4bd 2f6e b13b 5158 33bd
00000360: 0bc4 393d b884 1fbd f834 a13d d59d 70be
00000370: 4f6f 093e a476 423e ca88 ffbd 96f4 d0bd
00000380: f48b 35bd 0172 25bd 0232 2b3e 7fa6 58bd
00000390: 29dc 87bd 7d6b 253e ca1b cd3d 0c19 5e3d
000003a0: f3c0 283e 5dc1 163e 2ab8 44be ff83 e1bb
000003b0: 2e62 383e 3b72 8cbd ec1e 73be ddc6 053e
000003c0: 645d c2bd 517f 893e c635 2bbe c492 1b3e
000003d0: a86c 61bd 4451 08be c2cd 6dbd 7d28 dd3d
000003e0: a4de eabd d83f 083e 0c27 0cbe d309 cbbc
000003f0: 9157 d93d de16 7d3d 11a7 703d 069a 8b3d

lstm.bias_ih_l0 f4 [200]
-0.031505004 0.018922156 0.2215087 -0.29041326 0.1107653 -0.048140936 0.36826733 -0.09252423
-0.04959096 -0.0019113638 0.101843216 0.15329859 -0.0950044 -0.1123117 -0.021887679 0.1646378
-0.058304485 -0.101606786 -0.019918993 0.11244474 -0.2074551 -0.22496402 0.23142274 -0.14679629
-0.090249225 0.33032593 -0.11289159 -0.034356967 -0.21925855 -0.04488336 0.056765225 0.10491405
0.07486686 -0.10297321 -0.05088362 0.35461932 -0.1054618 0.35207167 0.018676423 -0.11142676
-0.005843102 -0.040723927 0.0048525524 -0.20441201 -0.0399705 0.16564873 -0.079458214 -0.23836307
-0.053270098 0.27378812 -0.21167791 -0.04634084 0.10641665 -0.2628408 -0.11133971 -0.18143632
0.028399818 -0.05135548 -0.1334392 -0.045183662 -0.036935624 0.1818768 -0.029266847 -0.13263844
-0.13735534 0.034162465 -0.16786541 -0.062165935 -0.09633402 -0.20549369 -0.16251905 -0.23275796
-0.01876899 0.044456005 0.07325305 0.040111538 -0.22956942 0.010093404 -0.08828298 0.0073082424
0.05484195 0.07772233 -0.1949235 0.016106967 -0.47938573 0.011039764 -0.1718374 0.10287672
-0.028797427 -0.17708339 -0.09232347 -0.014189393 -0.037979305 -0.1246174 0.0068907295 -0.2873207
-0.042303447 -0.16664228 -0.1659426 0.1075617 -0.06420921 0.39350423 0.13115379 -0.10299459
0.1253542 0.055201598 0.034399617 -0.009280084 0.055471186 -0.21532293 0.08909794 0.03600215
-0.056700047 -0.10795625 -0.15652473 -0.049014542 -0.100170605 -0.16778554 0.06201134 -0.0802477
0.08412957 0.04594399 0.12032511 0.1424234 -0.19630787 -0.10963543 0.048629094 -0.13234013
-0.04141508 -0.023720281 -0.06818359 -0.17777333 0.088663734 0.08919598 0.08340666 0.066905
0.03397853 0.11681386 -0.2275643 0.036870673 -0.17394173 -0.046934575 -0.03396747 -0.041653957
0.08196929 0.18222885 0.025800806 -0.15032165 0.14097385 -0.06737651 -0.12504154 0.033611275
0.00049592607 -0.2631417 0.08599905 -0.15255205 0.117228664 -0.152116 0.010158723 0.10737972
-0.04807088 0.0053790924 0.10751027 -0.037970833 -0.2386034 0.10216499 -0.023094783 -0.074011326
-0.19171424 0.21893372 -0.16057453 -0.2239331 0.19508354 -0.3216086 -0.09414266 0.24386285
-0.15561019 0.20051414 -0.3237624 0.043440312 0.07606256 -0.18988736 0.26303256 -0.22276671
0.08783136 0.17538355 -0.08843756 0.24467644 0.11371462 0.15767553 -0.022264637 0.14241616
0.10134112 -0.034649666 0.03717134 0.025403712 -0.22698042 -0.09439066 -0.13340841 0.01816242
00000000: 640b 01bd a302 9b3c 2dd3 623e 0cb1 94be
00000010: ebd8 e23d 6e2f 45bd 898d bc3e 587d bdbd
00000020: e41f 4bbd ba86 faba 2d93 d03d 4efa 1c3e
00000030: ab91 c2bd ad03 e6bd ca4d b3bc d096 283e
00000040: afd0 6ebd 3817 d0bd 282d a3bc 6e49 e63d
00000050: 1c6f 54be f85c 66be 15fa 6c3e c451 16be
00000060: 96d4 b8bd 7b20 a93e b533 e7bd e4b9 0cbd
00000070: 5085 60be 9dd7 37bd a782 683d 2ddd d63d
00000080: cc53 993d 9ee3 d2bd 586b 50bd aa90 b53e
00000090: 5bfc d7bd bd42 b43e 4cff 983c b733 e4bd
000000a0: 7e77 bfbb 22ce 26bd 2902 9f3b 6251 51be
000000b0: 1bb8 23bd d29f 293e fdba a2bd 7315 74be
000000c0: bf31 5abd f52d 8c3e 18c2 58be e5cf 3dbd
000000d0: f9f0 d93d 1293 86be 1306 e4bd 71ca 39be
000000e0: bca6 e83c 205a 52bd 49a4 08be 8112 39bd
000000f0: cf49 17bd e93d 3a3e 07c1 efbc 5fd2 07be
00000100: e1a6 0cbe f1ed 0b3d e9e4 2bbe b5a1 7ebd
00000110: c54a c5bd f06c 52be 656b 26be 1a58 6ebe
00000120: 6dc1 99bc 8017 363d b205 963d ff4b 243d
00000130: 3f14 6bbe ce5e 253c b5cd b4bd fb79 ef3b
00000140: f4a1 603d e32c 9f3d 079a 47be c2f2 833c
00000150: 0c72 f5be 20e0 343c 25f6 2fbe 08b1 d23d
00000160: 95e8 ebbc 5955 35be 1614 bdbd a17a 68bc
00000170: 3090 1bbd 6837 ffbd a1cb e13b b31b 93be
00000180: 6146 2dbd 46a4 2abe dbec 29be 4f49 dc3d
00000190: 1e80 83bd 6379 c93e 2e4d 063e d4ee d2bd
000001a0: da5c 003e 121b 623d 9de6 0c3d 7e0b 18bc
000001b0: c135 633d 9d7d 5cbe fb78 b63d fe76 133d
000001c0: 4f3e 68bd 2b18 ddbd 0548 20be 79c3 48bd
000001d0: 3f26 cdbd f9cf 2bbe 9aff 7d3d e858 a4bd
000001e0: 204c ac3d c42f 3c3d 036d f63d 71d7 113e
000001f0: ee04 49be 8a88 e0bd 4d2f 473d 2c84 07be
00000200: dca2 29bd 0951 c2bc d7a3 8bbd 360a 36be
00000210: 5595 b53d 62ac b63d 1cd1 aa3d 7d05 893d
00000220: 122d 0b3d 1b3c ef3d 9e06 69be b405 173d
00000230: c81d 32be 783e 40bd 7921 0bbd 579d 2abd
00000240: 84df a73d 339a 3a3e 365c d33c ebed 19be
00000250: 735b 103e b2fc 89bd e40a 00be faab 093d
00000260: 0901 023a 82ba 86be 4520 b03d 9b36 1cbe
00000270: 9515 f03d 4cc4 1bbe c670 263c e6e9 db3d
00000280: f9e5 44bd 1943 b03b 582e dc3d 4e87 1bbd
00000290: 7354 74be e13b d13d 4531 bdbc 4093 97bd
000002a0: bd50 44be 2930 603e a66d 24be b84e 65be
000002b0: fbc3 473e e2a9 a4be decd c0bd 2fb7 793e
000002c0: 4758 1fbe 9453 4d3e 2fc4 a5be 78ee 313d
000002d0: b0c6 9b3d d571 42be 34ac 863e f51c 64be
000002e0: eee0 b33d bf97 333e c01e b5bd 768c 7a3e
000002f0: 36e3 e83d b275 213e 5464 b6bc 8bd5 113e
00000300: ef8b cf3d cfec 0dbd fa40 183d 721b d03c
00000310: 8e6d 68be e44f c1bd 379c 08be 5bc9 943c

lstm.bias_hh_l0 f4 [200]
-0.12605853 0.18373996 0.21987192 -0.15151364 -0.06951149 -0.03620048 0.332416 0.019170398
-0.061754085 0.06599841 0.012882174 0.013604742 0.07819374 -0.041139156 -0.2213789 -0.040020432
0.13699527 0.07791836 -0.0046183974 -0.014708077 -0.082815304 -0.008951789 0.080798484 -0.14139341
-0.031927653 0.39698243 -0.2365572 -0.008625992 -0.21988761 -0.147918 -0.12318045 0.06841199
0.16337135 0.058033895 -0.013156195 0.24005094 -0.25583372 0.47084904 -0.1227833 0.008895936
0.027098652 -0.021464325 -0.03290838 -0.12884046 -0.05341093 -0.028350856 -0.26320362 -0.13574915
-0.24345095 0.24326338 -0.2384796 -0.035682682 -0.110636234 -0.016779201 -0.11729481 -0.2965556
0.074451625 -0.00066273526 -0.11621238 0.027831055 -0.017439744 0.2093467 -0.059351705 0.057633005
-0.10053294 0.015932802 -0.12855694 -0.07499127 -0.22844756 -0.2582191 -0.18511802 -0.008828222
-0.016662488 0.012467616 -0.033689268 -0.07577131 -0.27197182 -0.1076042 -0.111144066 -0.14771003
-0.11671846 -0.09864032 -0.07883737 -0.07039333 -0.23955384 -0.010350958 -0.05387228 0.081074916
-0.13983184 -0.0685093 0.035834733 -0.11120612 -0.17050037 0.02573324 -0.12686706 -0.15889268
-0.05234703 -0.0366235 -0.20599145 0.004397422 0.070849985 0.273953 0.04523341 -0.0070227273
-0.08443785 0.017887244 -0.021972219 0.053776287 -0.0059740697 0.007382724 0.050317597 0.022526018
-0.033689775 0.06585449 -0.015901024 -0.05645776 -0.028901033 -0.08763261 -0.024396578 0.041304193
0.03277472 0.13841423 0.118291035 0.14793715 -0.23878875 -0.09382657 0.04447472 0.037460674
0.04574889 -0.104048565 -0.256502 -0.19739306 0.1646651 0.12896101 -0.091911055 -0.05714881
0.04805879 0.14681175 -0.07219384 0.0033226782 -0.23604982 0.06980932 -0.1611868 -0.022959378
0.21760108 0.12795587 0.13388662 0.045605183 0.1888936 0.028219461 -0.020319458 -0.025026971
-0.02429939 -0.37985724 0.0371697 -0.13750623 0.018182905 -0.006163388 -0.14014578 0.17356138
0.12040692 -0.044692144 0.06819945 -0.10258827 -0.25656205 0.16456056 -0.08253117 -0.06953503
-0.077674404 0.23992647 -0.10186258 -0.07341774 0.13920175 -0.14404117 -0.07849623 0.27827483
-0.22479273 0.07216213 -0.1670855 -0.034492098 0.08536894 -0.19106643 0.2182852 -0.18199983
0.07244406 0.16681188 -0.116832115 0.2305871 0.0666426 0.09557291 -0.13447846 0.1994054
-0.024868377 -0.018090269 -0.0018228142 0.054440066 -0.13493498 -0.2455368 -0.071248114 0.032563075
00000000: 7d15 01be 5426 3c3e 1b26 613e 6426 1bbe
00000010: 0a5c 8ebd f446 14bd 6e32 aa3e 3d0b 9d3c
00000020: daf1 7cbd 2d2a 873d c10f 533c 6ce6 5e3c
00000030: 0a24 a03d 8881 28bd 26b1 62be 77ec 23bd
00000040: 7d48 0c3e a993 9f3d ed55 97bb 25fa 70bc
00000050: 129b a9bd 86aa 12bc ad79 a53d 6fc9 10be
00000060: 92c6 02bd 4841 cb3e 0d3c 72be 0854 0dbc
00000070: 382a 61be d177 17be 0846 fcbd 961b 8c3d
00000080: d24a 273e f3b4 6d3d 158d 57bc eacf 753e
00000090: a3fc 82be 2013 f13e d075 fbbd 43c0 113c
000000a0: fefd dd3c f4d5 afbc f0ca 06bd c1ee 03be
000000b0: 6bc5 5abd 0e40 e8bc a0c2 86be d301 0bbe
000000c0: 354b 79be 091a 793e ff33 74be 0128 12bd
000000d0: 4095 e2bd 8974 89bc 4338 f0bd 23d6 97be
000000e0: 187a 983d 69bb 2dba c200 eebd f4fd e33c
000000f0: cbdd 8ebc fb5e 563e c61a 73bd 9610 6c3d
00000100: 37e4 cdbd 8285 823c 6ea4 03be 0695 99bd
00000110: 28ee 69be 4b35 84be 948f 3dbe 3fa4 10bc
00000120: c57f 88bc f944 4c3c c2fd 09bd fd2d 9bbd
00000130: e43f 8bbe 975f dcbd 809f e3bd 4c41 17be
00000140: 170a efbd f003 cabd 7d75 a1bd 612a 90bd
00000150: 9a4d 75be 1197 29bc 2ea9 5cbd 9b0a a63d
00000160: 1430 0fbe 9b4e 8cbd 71c7 123d 09c0 e3bd
00000170: a697 2ebe 84ce d23c 70e9 01be c3b4 22be
00000180: d769 56bd 8602 16bd 6cef 52be 4018 903b
00000190: cc19 913d 9143 8c3e ab46 393d e81e e6bb
000001a0: c0ed acbd 4588 923c 15ff b3bc 8644 5c3d
000001b0: 21c2 c3bb c7ea f13b d319 4e3d 7c88 b83c
000001c0: 4afe 09bd b8de 863d dd42 82bc 4140 67bd
000001d0: dcc1 ecbc ba78 b3bd 55db c7bc 962e 293d
000001e0: c93e 063d 76bc 0d3e 9242 f23d d67c 173e
000001f0: 0a85 74be 2528 c0bd 202b 363d 5d70 193d
00000200: 3063 3b3d 6a17 d5bd 3b54 83be 6821 4abe
00000210: f89d 283e 5b0e 043e dd3b bcbd df14 6abd
00000220: 4bd9 443d d255 163e 5dda 93bd 4ac1 593b
00000230: 0bb7 71be 30f8 8e3d 270e 25be 4e15 bcbc
00000240: d1d2 5e3e dd06 033e 9319 093e 80cc 3a3d
00000250: 536d 413e 802c e73c fe74 a6bc 5d05 cdbc
00000260: 840f c7bc a67c c2be 413f 183d 6fce 0cbe
00000270: 51f4 943c 3ff6 c9bb 6082 0fbe 13ba 313e
00000280: e797 f63d 1c0f 37bd 27ac 8b3d cd19 d2bd
00000290: 1a5c 83be 9082 283e 1a06 a9bd 6268 8ebd
000002a0: c213 9fbd 49af 753e 549d d0bd 0a5c 96bd
000002b0: e78a 0e3e 877f 13be a2c2 a0bd 0a7a 8e3e
000002c0: 1130 66be bdc9 933d 7618 2bbe 9647 0dbd
000002d0: e9d5 ae3d eba6 43be 2886 5f3e 2a5e 3abe
000002e0: 8d5d 943d bcd0 2a3e ad45 efbd 061f 6c3e
000002f0: ea7b 883d bbbb c33d b9b4 09be ee30 4c3e
00000300: c4b8 cbbc 0b32 94bc 7feb eeba 8cfc 5e3d
00000310: 652c 0abe 006e 7bbe 88ea 91bd dc60 053d

lstm.weight_ih_l1 f4 [200, 50]
-0.10129673 -0.06207331 0.13885497 0.031075193 0.027422175 0.15045904 -0.19598444 0.33284286
0.048416294 0.09442499 -0.00070000126 -0.1438743 0.1812465 -0.061156537 0.11937976 -0.05475445
0.1735917 0.13856712 0.14597711 -0.0725626 -0.08116819 0.035470262 -0.29647776 -0.01505199
0.0467091 0.16567327 -0.21451227 -0.005482736 0.2797276 0.13383426 0.18940975 -0.09834009
-0.027250735 0.038717616 0.084096104 -0.11609594 -0.033016693 -0.17011528 -0.07607523 -0.013573161
0.006041462 0.23550272 -0.14475523 0.09242295 -0.074475445 -0.28952223 0.1672908 0.20308346
-0.10268721 0.15360588 0.008769092 -0.25003266 0.2808333 -0.06452833 -0.078584984 0.13040277
-0.2163527 0.19178087 -0.07833035 0.23019011 -0.14951694 -0.17841162 0.24205159 -0.03123293
0.143577 -0.034506623 0.16320616 0.10540667 0.100263245 -0.24396129 -0.12758827 0.23732427
-0.22686034 0.0066094785 0.1770791 -0.22069679 0.043430306 0.1663008 0.01739575 0.0018783543
0.094060615 -0.19138424 -0.021741666 0.11463737 0.10544937 0.0349809 -0.012027843 -0.38892746
-0.045695316 0.019899864 0.19604449 0.20014279 -0.12701394 -0.116560474 0.02907117 -0.16425854
0.026656007 -0.05091651 -0.15023418 0.29790938 -0.11788219 -0.023154974 0.22951749 -0.040453676
0.1888615 -0.120262906 0.0034326725 -0.026282586 -0.05867779 0.06059375 0.045012 -0.16089156
0.26408708 -0.15885739 0.18420145 0.066043526 0.2778933 -0.12746857 -0.16484156 0.21829332
-0.5871724 -0.008215153 -0.058021683 -0.19399792 0.16786247 -0.032615934 -0.041993 -0.38368493
0.062235914 0.26954886 -0.062112063 0.05647572 -0.009412964 -0.04207419 0.010181706 -0.20276289
0.43255723 0.24178836 -0.07872639 -0.039614458 0.012472009 0.12517768 -0.119846195 0.09799433
-0.28530672 -0.26964065 -0.10822102 0.14609401 -0.1588452 -0.0049964804 0.13156864 -0.044533554
0.3107325 0.09037556 0.1845062 0.10304584 0.047828447 0.10273851 0.004774926 -0.1765372
0.0075599486 5.9691258e-05 0.020153116 -0.11115969 -0.06744302 -0.17006318 0.11774023 -0.1986887
0.08352087 0.15641929 -0.21215028 0.018134682 -0.021537822 -0.14765674 0.0045363684 -0.23724739
-0.083146706 -0.502449 -0.15570107 0.07655931 0.10473388 -0.07199653 -0.23196758 0.084273756
-0.061081756 -0.17606708 0.13041335 0.26121607 0.10229185 -0.078156784 0.098426 0.011046521
-0.064213976 -0.029533843 -0.1392539 -0.38669422 -0.087474525 0.294314 -0.22794487 -0.19573575
0.06114135 -0.071531355 0.04175929 0.0044005713 0.21823315 -0.1446017 0.07744258 0.26117265
-0.13956298 0.1401939 0.10868559 -0.48071292 0.06366333 -0.11502529 0.21428351 -0.14967476
-0.11578745 0.24433857 0.060494687 0.3465077 -0.2501726 0.0058132657 0.05322502 -0.071919106
0.27023402 -0.12314917 -0.061060246 -0.45111245 0.030651141 0.024449535 0.17569044 0.006793924
0.18824284 0.032971594 -0.022954479 -0.34922966 0.1246968 0.40004608 0.024499733 0.11224473
-0.021500856 -0.11001733 -0.087523594 0.067331135 -0.23597232 -0.09559681 0.24025446 -0.04472792
-0.14267011 -0.1872817 -0.15283741 -0.11512636 0.16648409 -0.0036286558 0.23353505 0.06518217
00000000: a974 cfbd 9540 7ebd ff2f 0e3e 6791 fe3c
00000010: 78a4 e03c ef11 1a3e 25b0 48be 616a aa3e
00000020: 2a50 463d e461 c13d 4a80 37ba c953 13be
00000030: af98 393e 477f 7abd 607d f43d 3446 60bd
00000040: 06c2 313e 8ae4 0d3e 067b 153e b39b 94bd
00000050: 823b a6bd 4449 113d efcb 97be 9f9c 76bc
00000060: 0b52 3f3d 41a6 293e 1ba9 5bbe 86a8 b3bb
00000070: 7538 8f3e d90b 093e a1f4 413e 8766 c9bd
00000080: ef3c dfbc 5d96 1e3d 943a ac3d b5c3 edbd
00000090: 833c 07bd b332 2ebe 55cd 9bbd f761 5ebc
000000a0: 75f7 c53b a027 713e b73a 14be 3e48 bd3d
000000b0: 9586 98bd 423c 94be 484e 2b3e 1cf5 4f3e
000000c0: ac4d d2bd dc4a 1d3e 3dac 0f3c 4804 80be
000000d0: 62c9 8f3e 6e27 84bd 2af1 a0bd 4e88 053e
000000e0: 908b 5dbe 3462 443e aa6b a0bd f5b6 6b3e
000000f0: f81a 19be 89b1 36be 5fdc 773e 34dc ffbc
00000100: d905 133e d156 0dbd 841f 273e 74df d73d
00000110: d156 cd3d fdd0 79be 80a6 02be 2205 733e
00000120: 144e 68be 5394 d83b 3954 353e 57fe 61be
00000130: fae3 313d c24a 2a3e 8881 8e3c 1d33 f63a
00000140: daa2 c03d 3bfa 43be 941b b2bc ffc6 ea3d
00000150: d7f5 d73d 2248 0f3d 6e10 45bc 8021 c7be
00000160: 032b 3bbd 0a05 a33c e3bf 483e 3bf2 4c3e
00000170: f10f 02be 42b7 eebd aa26 ee3c 6433 28be
00000180: b35d da3c d58d 50bd fdd6 19be 9487 983e
00000190: 386c f1bd 80af bdbc a206 6b3e c1b2 25bd
000001a0: e964 413e 664c f6bd b0f6 603b 944e d7bc
000001b0: 1f58 70bd 2731 783d 815e 383d c2c0 24be
000001c0: 6c36 873e 83ab 22be 4e9f 3c3e d441 873d
000001d0: 0848 8e3e 1f87 02be 3acc 28be 4988 5f3e
000001e0: ee50 16bf d998 06bc 25a8 6dbd 64a7 46be
000001f0: 24e4 2b3e 4998 05bd da00 2cbd 5a72 c4be
00000200: 16eb 7e3d 4f02 8a3e 3869 7ebd 1653 673d
00000210: d538 1abc fc55 2cbd 2cd1 263c 13a1 4fbe
00000220: 2478 dd3e 5e97 773e 4d3b a1bd c542 22bd
00000230: 6657 4c3c 942e 003e ec71 f5bd 40b1 c83d
00000240: b913 92be 570e 8abe fba2 ddbd ab99 153e
00000250: 51a8 22be 84b9 a3bb eeb9 063e d168 36bd
00000260: 5518 9f3e d216 b93d 31ef 3c3e b309 d33d
00000270: c3e7 433d 9168 d23d fc76 9c3b 2bc6 34be
00000280: 72b9 f73b 005d 7a38 2618 a53c b1a7 e3bd
00000290: 911f 8abd 0b25 2ebe ca21 f13d 0d75 4bbe
000002a0: fd0c ab3d 612c 203e ec3d 59be 2f8f 943c
000002b0: 1670 b0bc 5433 17be d1a5 943b fbf0 72be
000002c0: d248 aabd 7fa0 00bf 1a70 1fbe 21cb 9c3d
000002d0: b77e d63d eb72 93bd e988 6dbe b897 ac3d
000002e0: dd30 7abd ee4a 34be 148b 053e 1dbe 853e
000002f0: 647e d13d aa10 a0bd 9293 c93d 78fc 343c
00000300: 9e82 83bd f5f0 f1bc 9398 0ebe c9fc c5be
00000310: d825 b3bd 53b0 963e 616a 69be f46e 48be
00000320: 5a6f 7a3d 087f 92bd ca0b 2b3d ab32 903b
00000330: 8378 5f3e 7812 14be 379a 9e3d 6cb8 853e
00000340: 99e9 0ebe fd8e 0f3e 8d96 de3d 0120 f6be
00000350: ec61 823d 6192 ebbd 236d 5b3e 5744 19be
00000360: f821 edbd e433 7a3e 47c9 773d 7569 b13e
00000370: 9f16 80be 357d be3b 7b02 5a3d 534a 93bd
00000380: 1d5c 8a3e a235 fcbd 4f1a 7abd 36f8 e6be
00000390: 1a18 fb3c 644a c83c 32e8 333e 919f de3b
000003a0: bbc2 403e 390d 073d 080b bcbc 3bce b2be
000003b0: 0961 ff3d d7d2 cc3e aab3 c83c 91e0 e53d
000003c0: 9022 b0bc c450 e1bd 923f b3bd e8e4 893d
000003d0: baa2 71be 43c8 c3bd 4405 763e a034 37bd
000003e0: 1d18 12be c6c6 3fbe 6981 1cbe 5ec7 ebbd
000003f0: ce7a 2a3e bece 6dbb d023 6f3e 3b7e 853d
