pol_models/pm2_5_model_state.pt (torch, 650366 bytes, 16 tensors)

conv1.weight f4 [64, 300, 3]
000000 8c e5 16 3c db 78 ce 3b 51 cf 98 3d ed 10 8e bd
       0.009210002 0.006301028 0.074614175 -0.06936822
000010 ef 8f a4 bc d9 d6 90 bc 9c 78 5f bc d9 38 10 bd
       -0.020088164 -0.017680572 -0.013639595 -0.035210464
000020 4e e0 05 3c 55 0b 94 bd a6 10 fe 3a 54 06 01 3d
       0.008171154 -0.07228724 0.0019383624 0.031500176
000030 e6 74 31 bd 00 a3 0a bc d4 39 ca bc d3 35 c8 bb
       -0.043324374 -0.008461714 -0.024685778 -0.006109932
000040 5c 8e 83 3c 2d b7 13 3d b4 99 5b 3c d7 b9 ea bb
       0.016059093 0.036063362 0.013403345 -0.007163267
000050 40 23 a9 3c ce 3d 13 bd 26 fa 80 bc 27 df 2d 3d
       0.020646691 -0.035947613 -0.01574428 0.042449143
000060 f1 e9 02 bd e0 3e 98 3c b2 5a 31 3d b8 9f 7b bc
       -0.031961385 0.018584669 0.043299384 -0.015357904
000070 13 46 70 bc 1d 17 0e 3d 3f f6 f1 bc 67 91 62 bd
       -0.0146651445 0.03469001 -0.029536365 -0.055314448
000080 af 07 b5 3b e2 c4 5d bd d2 ca f0 bc ff 3c 93 bb
       0.0055245976 -0.05414284 -0.029393587 -0.0044933553
000090 c6 2a 6b bc ce 49 18 bd e2 f6 eb ba d6 6d ef bb
       -0.01435346 -0.03717976 -0.0018002654 -0.0073067946
0000a0 e7 4f 00 bd c8 f1 8d 3c 2b f3 9d bd 42 aa 97 bd
       -0.0313262 0.017327204 -0.07712396 -0.07405521
0000b0 bb b0 ba bc dd ea 63 bc ad cd f4 bc 02 de 2e 3d
       -0.02278935 -0.013910976 -0.02988323 0.042692192
0000c0 02 47 57 bc 1a 84 48 bd 09 c4 3b 3d 5e c9 b0 bc
       -0.013139488 -0.048954107 0.04584125 -0.021580394
0000d0 a2 a5 0b bc 68 42 05 3d 75 78 99 3b da 04 10 bc
       -0.008523377 0.032534033 0.004683549 -0.008790219
0000e0 c7 8b 9d 3d 6e b8 d1 bc 3d 15 b1 3b af cc b4 3c
       0.07692676 -0.025600638 0.005404143 0.022070257
0000f0 3c 23 89 3c a1 76 19 bb 78 59 5e 3d 41 75 a0 ba
       0.016740434 -0.0023416656 0.054284543 -0.0012241976
000100 95 4c e7 bb 5b 8b d9 3c e2 ab a7 bc b6 b6 23 bd
       -0.00705869 0.026555708 -0.020467702 -0.03996917
000110 46 79 42 bc 91 c0 33 3c 6e ee 42 3d 33 21 aa 3d
       -0.011869734 0.010971204 0.047590666 0.083071135
000120 79 bc 7b bd 6a 61 61 bd 47 d6 05 bd 67 7a 53 bd
       -0.06145904 -0.055024542 -0.032675054 -0.051630404
000130 80 63 8d bc ca b2 e1 3c e0 d9 b8 bd be 4f 4d bd
       -0.01725936 0.027551074 -0.09025931 -0.050124876
000140 59 f0 4d bd 9e 59 93 3c 96 d9 34 3d 29 e3 95 3d
       -0.05027804 0.017987069 0.04415282 0.07318718
000150 cb 15 35 bd ff 43 a4 bd 53 35 eb bc 7e 1c 8f bd
       -0.044210237 -0.08020782 -0.02871195 -0.06987856
000160 7e 11 9c bc f4 ab 6b 3c c8 7f 49 bd b0 a1 6e bc
       -0.01905131 0.014384259 -0.049194127 -0.0145649165
000170 55 33 71 3c fc 7f 22 bd 1a c9 ca bc c0 0b 2b bc
       0.014721711 -0.039672837 -0.024754096 -0.010439813
000180 0b 6e 50 bc e0 fc 32 bd 62 49 51 3c 25 55 d6 bc
       -0.012721549 -0.04369819 0.0127738435 -0.026163647
000190 90 2b 6c bb c3 3a 40 3c ba 40 28 bd d2 d4 1e 3c
       -0.0036036707 0.01173276 -0.041077353 0.009694295
0001a0 47 de b4 bc 36 1a e3 bb 65 01 f1 bc 5e 38 08 3d
       -0.022078646 -0.006930615 -0.02941961 0.03325688
0001b0 a4 da 04 3c 4c 96 f1 bb 7c a1 8b 3d fa 17 60 3b
       0.008108769 -0.007372653 0.0681791 0.0034193979
0001c0 20 4c f1 bb 46 03 2e 3d 20 2e ef bc 8e 6a e8 3c
       -0.007363811 0.04248359 -0.029196799 0.028371122
0001d0 5f 2c ea 3d 48 8f 27 bd 54 a0 22 bd cf fa 06 3d
       0.11434244 -0.040908128 -0.039703682 0.032954033
0001e0 cf f9 bc bc 64 39 b4 3c cc 69 9e 3d 1f 8a 34 bd
       -0.023068337 0.022000022 0.07735023 -0.044077035
0001f0 a6 44 0d bc 4d 8f 51 3c 60 5f 10 bd 9b f8 e2 bb
       -0.008622324 0.012790513 -0.035247207 -0.0069266087
000200 aa b5 a2 3d c7 97 15 bd 5e 75 ed 3b 30 8c e1 3c
       0.07944806 -0.0365217 0.0072466573 0.027532667
000210 bd b8 ea 3a 6a ad 19 bc 59 cb 64 bd 61 fe 8b bd
       0.001790784 -0.009379724 -0.05585799 -0.06835628
000220 1f 8b 5b bd 0e 89 ad bc d1 00 2c 3c 19 a7 9e bc
       -0.053599473 -0.021183517 0.0104982415 -0.019366788
000230 60 4b 01 3d f6 22 59 bd f9 7b 55 bc 1a 6d 23 3d
       0.031566024 -0.053011857 -0.013030046 0.03989897
000240 8b 5e d1 bc 86 23 26 bc 8d 1a 59 3d 0c 27 0e bd
       -0.025557777 -0.010140305 0.053003836 -0.034705207
000250 ab bf 3b bd a7 b5 90 bc 74 40 af 3c 38 d2 8f bb
       -0.045837086 -0.017664744 0.021393038 -0.0043890737
000260 1a 21 a5 3d 90 44 41 bc 6b 05 fe 3b 2b f5 a7 3c
       0.08062954 -0.011796132 0.0077521107 0.020502647
000270 d1 77 b0 bc 9c a7 a2 3c cf 87 a3 3c 40 9c 31 bd
       -0.021541508 0.019855313 0.01996222 -0.043361902
000280 cd ba 49 bb a9 49 95 3c 5c d0 55 bd 1d f0 2c 3c
       -0.0030781508 0.0182236 -0.05220066 0.010555294
000290 02 ff b0 3c a3 ab a0 3c b5 7e de 3c e1 27 0c ba
       0.021605972 0.019613093 0.027160028 -0.00053465186
0002a0 68 73 ff bc f1 12 ea bc 9c 97 22 3d e3 48 59 bc
       -0.03118296 -0.028573485 0.039695367 -0.013262006
0002b0 94 c0 1c bc 61 83 31 bc 6d 7f ec 3b a3 2d cc bb
       -0.009567399 -0.010834546 0.007217339 -0.0062310263
0002c0 e5 a3 88 bc fd d9 69 bd 1c 3f 2d 3c f4 41 1b 3c
       -0.016679714 -0.057092655 0.0105741285 0.009476174
0002d0 68 81 ae 3c 11 66 c0 3c e9 b2 a1 3d c0 f7 30 bd
       0.02130194 0.023486169 0.078954525 -0.043205023
0002e0 1d 61 89 3c 63 e0 f0 3b 6f 09 ee bb e0 12 e7 bb
       0.01676994 0.0073509677 -0.007264308 -0.0070518106
0002f0 ad 33 cb 3d 56 8d 10 bd 42 e3 14 3d 40 0c 24 3d
       0.09921966 -0.03529104 0.036349542 0.040050745
000300 2e 92 82 bc e9 66 0d bc a2 52 85 bc a5 b2 77 3b
       -0.015938845 -0.008630493 -0.016274754 0.003779569
000310 8b b8 1f 3c 33 0e 70 3c 8e d1 32 bb 05 b0 8b 3d
       0.009748588 0.014651823 -0.002728555 0.068206824
000320 5b d4 d7 3d 0c 88 1b bd b4 e7 d6 3b f3 e7 0b 3d
       0.105385505 -0.03797154 0.006558383 0.03415675
000330 f7 3c 04 bd 8d 91 53 bd 2b b7 4d 3b 4e d9 19 bd
       -0.032284703 -0.05165248 0.0031389694 -0.037560754
000340 53 6c d3 bb 68 14 10 3d 5e 12 38 bc a3 2e 96 3c
       -0.0064521222 0.03517571 -0.011234848 0.018332785
000350 54 5e 02 3d ee ed 3c bd 9c 5a 93 bd c6 50 7e bd
       0.03182824 -0.046125345 -0.07195017 -0.06208875
000360 0b da fa bc 52 d2 25 3c ec be 31 3d 56 b2 95 bc
       -0.03062155 0.010120945 0.043394968 -0.018273514
000370 94 9d 84 bc 78 ce 1a bb d8 f0 dd 3c 7b 82 a6 3c
       -0.01618842 -0.00236216 0.027092382 0.02032589
000380 06 e2 54 3c 80 00 66 3c 26 04 c5 3c c3 7e 9f 3d
       0.012993341 0.014038205 0.02404983 0.0778785
000390 78 75 99 bd 83 6f 7a bd be 1e 7b bc 4f 69 3e bd
       -0.074931085 -0.061141502 -0.015327154 -0.04648715
0003a0 ef eb 9a bc 88 b6 bd bc e2 4b 5d bc f8 d5 cd bc
       -0.01891133 -0.023158327 -0.013506861 -0.025126442
0003b0 4f 9c 23 3b 27 78 0e bd 74 8e 6c bc f3 22 23 bc
       0.0024964993 -0.034782555 -0.01443826 -0.009957063
0003c0 df b0 3a bd a3 af 1c ba c7 8c a5 3c b6 23 17 bc
       -0.045578834 -0.00059770996 0.02020873 -0.009224823
0003d0 f8 8f a9 bc 83 3d 02 bc 5c 77 0c bd 1a 13 bc ba
       -0.020698532 -0.007949236 -0.034293517 -0.0014348954
0003e0 19 4c 66 3d 98 2a ab 3c bb f2 f6 3b e0 30 12 3b
       0.056224916 0.020894334 0.00753626 0.0022306964
0003f0 91 38 2a bd 2f bf 2d 3c d1 4b 10 3d 10 1b 65 bd
       -0.041557852 0.010604664 0.035228554 -0.055934012

conv1.bias f4 [64]
000000 29 99 a6 be 53 56 8e bc 02 47 7b bd ee 4b ae ba
       -0.32538727 -0.017375147 -0.061347015 -0.0013297775
000010 da 1d 22 be 3c 6a d2 bc ac e3 c1 bb bc 84 57 3d
       -0.158317 -0.025685422 -0.005917033 0.05261682
000020 6b 01 a0 3c c8 98 35 bb e3 50 db bc 12 ba 49 be
       0.019531926 -0.0027709473 -0.026771968 -0.19699886
000030 47 53 0c bd 34 9c 80 bc f9 c4 15 3c 40 01 87 3c
       -0.034259107 -0.015699483 0.0091412 0.016480088
000040 3a fd 40 be 90 84 27 3c 30 d0 15 bd dc e9 eb bc
       -0.18846598 0.010224476 -0.036575496 -0.028798036
000050 cd 7a 26 3c d4 6c d7 bc a7 a7 92 3c 6d 44 93 3c
       0.010161114 -0.02629701 0.017902208 0.017976964
000060 1c 38 c6 be c3 f5 00 3c 1e 26 58 3c 27 54 98 3c
       -0.38714683 0.007871094 0.013192682 0.018594814
000070 0f c0 35 bd 7e 28 db bd 26 f2 40 bc df bd 44 3c
       -0.044372614 -0.10701083 -0.011776483 0.012008159
000080 de 20 6f be e9 3f 0e 3c 92 a2 82 bc 10 1f 56 bc
       -0.23352382 0.00868223 -0.01594666 -0.013068929
000090 d8 62 b5 be de 45 31 bd c6 7a 26 3c f1 11 d8 bc
       -0.35426974 -0.04327952 0.010161107 -0.026375743
0000a0 ea 5b 6a bc 1f 3d 98 be 3e 51 41 bd 90 f5 9a 3c
       -0.014304141 -0.29734132 -0.04719662 0.018915921
0000b0 5d fc ee bc 36 ec 3e be 28 ac 0f bd ad ec 7e bd
       -0.02917307 -0.18644795 -0.03507629 -0.06223743
0000c0 5a f5 af be e6 1e f2 bc 52 dd 8b 3c a5 ec 14 bd
       -0.34366876 -0.02955575 0.017073307 -0.036358494
0000d0 a7 51 82 bc bf f5 c7 3b 32 e5 93 3c a3 3a 3a bc
       -0.015908075 0.0061022933 0.018053625 -0.011366519
0000e0 a2 ef d0 3a 97 cd b3 3c 20 c3 a7 bd 78 a8 40 be
       0.0015940557 0.021948619 -0.08191514 -0.18814266
0000f0 17 df 04 bd 15 75 a7 be d8 cd 8c be 99 b3 80 3e
       -0.032439318 -0.32706514 -0.27500796 0.25137022

conv2.weight f4 [128, 64, 3]
000000 9c aa 2f bd 87 e5 fe bc d9 3e 03 3d 55 0b 09 bc
       -0.042887315 -0.031115307 0.032042358 -0.008364518
000010 e8 3b 37 bd f3 7c 33 3d 45 7c 90 bd a2 d2 b1 3c
       -0.044734865 0.043820333 -0.070549525 0.021706883
000020 36 5d 39 3c e0 1a ab 3c 40 77 78 3c 82 21 d4 bc
       0.011313727 0.020886838 0.01516515 -0.025894884
000030 9d 41 90 bd a9 26 6b 3c 98 59 ec 3c 1e fc 59 bd
       -0.07043765 0.014352479 0.028851315 -0.053218953
000040 39 9f 70 3c cc ec 86 3c 97 7f 70 3d 71 1a 65 bd
       0.014686399 0.016470335 0.05871543 -0.05593342
000050 83 c1 ab ba ee 4a 00 3c c1 ce 61 bd c7 4d 4c bd
       -0.0013103936 0.007830365 -0.055128817 -0.04987886
000060 a7 6c e9 3c b7 04 d5 3b 9f c0 84 3d ef 83 3b bd
       0.028494192 0.006500806 0.06482052 -0.04578012
000070 69 4d 79 bd ff e5 3a bd 21 8a a5 bd 32 c1 55 bd
       -0.06086484 -0.045629498 -0.080829866 -0.0521862
000080 3b a3 7c bd 3b ae a6 bd ce 2c ca bd 04 0b be bc
       -0.061679106 -0.081387006 -0.09871827 -0.023198612
000090 ac e9 98 3d 90 4a b8 bc cc 77 92 bc e7 28 1e 3c
       0.074664444 -0.022496492 -0.01787939 0.009653307
0000a0 da 77 7e 3d 5d 79 6f bb 37 6f 4b bd c3 87 55 3d
       0.062126018 -0.0036540844 -0.04966661 0.052131426
0000b0 c4 74 84 bd 5d fe 73 3d 35 0e 6a bc 09 9e c5 bc
       -0.06467584 0.05956875 -0.014285614 -0.024123209
0000c0 ce ec a9 bd 1d 7b b9 bc 39 09 de 3c 71 4e 95 bd
       -0.0829712 -0.022641713 0.027104007 -0.07290352
0000d0 91 78 51 3d a4 9e 56 3d 51 dd 0c 3d 85 0b 89 3b
       0.05114037 0.052397385 0.03439075 0.0041822814
0000e0 c7 38 80 bd 30 bb 3a 3d 60 73 5b bc c7 23 1e 3c
       -0.062608294 0.045588672 -0.013394207 0.009652085
0000f0 59 b6 76 bd 0f 87 0e bd 40 b1 cf 3c b2 08 c3 bc
       -0.060232494 -0.03479677 0.025353074 -0.023807857
000100 c7 eb 86 3d 12 11 a1 ba fe b9 a9 bc 93 b8 b6 bb
       0.0658794 -0.0012288413 -0.02071857 -0.005576202
000110 c7 56 87 bd 19 95 ba 3c 01 d8 5c bd 1b 14 04 bd
       -0.06608348 0.022776173 -0.053916935 -0.032245737
000120 eb c6 9f bd 76 ec 37 bd e4 5c 6d bd eb f2 14 3b
       -0.078016125 -0.04490324 -0.057949916 0.0022727798
000130 b0 17 87 3d fc 68 25 bd 70 1e 3f bd 59 bf ad bc
       0.06596315 -0.040383324 -0.046659887 -0.021209406
000140 e7 4e 6c bd bf d1 10 3d 3b b5 80 bd 26 4a 74 bc
       -0.057692435 0.03535628 -0.06284567 -0.0149102565
000150 aa 9f ba 3c d4 94 03 3c 59 1f d5 3c 64 f3 66 bd
       0.022781212 0.008031089 0.026015924 -0.05638446
000160 63 37 b5 bd f3 b4 84 bd a6 4c 83 3d 28 e9 51 bc
       -0.08848455 -0.06479826 0.06411104 -0.012811936
000170 8e ea 02 3d 7d af 94 3d 91 30 59 3d 2c d0 f2 bc
       0.03196197 0.07260034 0.053024832 -0.02964028
000180 0e 55 b8 3c 64 fc 8b bc c4 a1 81 bd 28 38 b4 bc
       0.022501495 -0.017088123 -0.063296825 -0.021999434
000190 38 ee 03 3d ea 0c 0f 3d 47 b0 5b bd f5 1e 95 3a
       0.032209605 0.034924425 -0.053634908 0.0011377024
0001a0 ab 97 cc 3c 49 17 5c bd 28 55 56 bd ce ed 78 3d
       0.024974665 -0.053733144 -0.052327305 0.060773663
0001b0 7f 96 11 bd 39 c4 2f 3b 00 0b 10 3c b2 62 32 3d
       -0.035543915 0.0026819839 0.008791685 0.043551154
0001c0 52 25 58 bd ee 2a 2d 3d b7 80 fb 3c c0 7a ef 3c
       -0.052769966 0.04227727 0.030701024 0.029233336
0001d0 2b 2b 84 bc c4 9b ea 3c 07 de 90 3d de 24 8b bd
       -0.016133865 0.028638728 0.07073598 -0.06794141
0001e0 8f d4 75 3d d1 13 64 3d 54 87 25 3d 87 8f 73 3d
       0.060017165 0.05568296 0.040412262 0.05946305
0001f0 67 5d a0 bd c8 6e 2a bd 03 56 60 bd cf 74 3e bd
       -0.07830315 -0.041609555 -0.054769527 -0.046498116
000200 87 86 23 3d f7 e1 de 3c 8e c6 c2 3c c1 44 e5 bb
       0.039923217 0.027207358 0.023776319 -0.0069967215
000210 dd 00 ce bc 98 9b 03 3d cc 31 90 3d 73 85 54 3d
       -0.025146896 0.032130808 0.07040748 0.05188508
000220 27 09 75 3d a4 f6 11 bd 1e ed 37 bd 79 78 4f bc
       0.05982318 -0.035635605 -0.044903867 -0.012663
000230 3d 77 95 3d e7 fd e3 3c b8 6e 0c bd 64 53 b8 bd
       0.072981335 0.027831031 -0.034285277 -0.090002805
000240 2a c5 49 bb 02 b7 1d bd 74 1f 31 bd 19 03 ce bc
       -0.0030787685 -0.038504608 -0.043242887 -0.025147961
000250 9e 8b 83 3d a6 cb 77 3d db 83 a5 3c e1 50 ce bb
       0.06423114 0.06049695 0.020204475 -0.0062962626
000260 b6 31 d4 bc 59 a7 88 3d 20 3f c3 bc 83 dd 4d bd
       -0.02590261 0.06672544 -0.023833811 -0.05026008
000270 93 09 36 bd c9 16 83 3d 41 df 77 3d 40 37 1c bd
       -0.044442724 0.0640083 0.060515646 -0.038138628
000280 63 25 a7 bc 80 50 58 3b cc c4 b1 3c b5 86 db 3c
       -0.02040357 0.0033006966 0.021700285 0.026797632
000290 ab cb 17 bb 00 da 11 bd f8 1b cd bc 7e b2 3d 3d
       -0.0023162167 -0.03560829 -0.02503775 0.0463128
0002a0 f0 1b 34 bd 36 8d ea 3a a7 2e fa 3c cf 7a 70 3d
       -0.043971956 0.0017894867 0.030539824 0.05871087
0002b0 8b 81 31 3d b6 5f aa 3b a6 f7 84 bd 52 d8 f1 bc
       0.043336432 0.005199398 -0.06492548 -0.029522095
0002c0 79 50 e0 bc 83 3f ec 3b 2e 1a 60 bd af 60 8b 3b
       -0.027382122 0.0072097196 -0.054712467 0.004253469
0002d0 53 e4 a3 3c 3c 5c 83 3d 70 9f 79 3d d3 93 f0 3c
       0.020006334 0.06414077 0.060943067 0.029367363
0002e0 8e b2 a6 bd 3a 02 ed 3c f3 47 0e bb 21 7d 50 bd
       -0.08139525 0.028931726 -0.0021710366 -0.050900582
0002f0 85 5d 64 3c 08 b9 51 3d fc 58 a9 bc a7 4f 91 3b
       0.013938312 0.05120185 -0.020672314 0.004434544
000300 7f 98 94 bd a9 4a a3 bd f6 64 47 be c4 9b 8f bd
       -0.07255649 -0.07973225 -0.19472107 -0.07012132
000310 2b 5d 06 3d 21 f8 69 bd e0 15 8b 3b 0b 85 b7 3d
       0.032803696 -0.0571214 0.004244551 0.08960923
000320 ab 01 83 bd 90 40 f7 3c a4 d3 c9 3c 20 ef 2b bb
       -0.063968025 0.030182153 0.02463705 -0.002623506
000330 26 69 c7 bd 01 42 03 be da 03 95 3c 2d 51 13 bc
       -0.09736852 -0.12818147 0.018190313 -0.008991522
000340 81 11 55 bd 34 f7 4f 3d 53 ab 5c 3d f0 82 be 3b
       -0.052018646 0.05077286 0.053874325 0.005813949
000350 aa 7e 64 bd 0e a8 1c 3d 94 90 41 3e 60 06 57 3e
       -0.05578486 0.038246207 0.18902808 0.20998526
000360 d1 e0 84 3c d2 dc 47 bd 00 c0 a2 ba b1 0e 00 bd
       0.016220482 -0.048794575 -0.001241684 -0.03126401
000370 97 0d ef 3a 42 3c 47 bd 3c 17 80 bc f7 fe d9 3c
       0.0018238303 -0.04864145 -0.015636079 0.026610835
000380 b1 c0 aa bc b3 15 f2 3c d7 96 e1 bd c5 95 6c be
       -0.020843836 0.029551363 -0.110150985 -0.23104008
000390 3b d8 18 3d 5c 28 94 bc 60 a8 7b bd 44 94 5c 3d
       0.03731559 -0.018085651 -0.06143987 0.053852335
0003a0 7d 1c 12 bc 7a 03 36 bd 77 8e 1d bd 78 b1 35 3d
       -0.008917925 -0.04443691 -0.038465943 0.0443587
0003b0 0d f8 14 bd 64 99 0f 3d b7 8b 7e bd c2 6d 16 3d
       -0.036369372 0.035058394 -0.06214496 0.036725767
0003c0 3e 96 63 bd 8e 85 b0 3b 01 33 e2 bb 4b 80 94 3a
       -0.055563204 0.0053870147 -0.006903053 0.0011329738
0003d0 90 4c 0f bd fa b0 81 bc d0 7e 2d bd 96 31 34 3d
       -0.034985125 -0.01583146 -0.042357266 0.0439926
0003e0 ba 66 31 3d 47 ff 73 bd 32 81 53 bd d4 e9 08 3d
       0.04331086 -0.059569623 -0.051636882 0.03342612
0003f0 8f e5 84 bd 6e f5 5a 3d 48 0f 59 3c 83 ad 2f bd
       -0.06489097 0.053456716 0.013248272 -0.042890083

conv2.bias f4 [128]
000000 57 25 82 bd 1a 48 55 3e cb 93 60 3e 94 53 81 bd
       -0.06354778 0.20828286 0.21931379 -0.063147694
000010 8d d3 eb bd 76 43 df bd 22 95 55 be 29 76 81 be
       -0.115149595 -0.10901539 -0.20857671 -0.25285462
000020 a3 8a 5a be f5 89 ae bd bb 84 2e be 4a 09 2c be
       -0.21341948 -0.08522407 -0.1704282 -0.16800418
000030 97 e5 4f 3e 52 24 61 be 11 ae 40 bd a9 c4 ae bd
       0.20302425 -0.21986511 -0.047041003 -0.08533604
000040 4f 7f a8 bd 7f 1c 2b bd ff cf da bd 11 9e cc bb
       -0.08227407 -0.041775223 -0.10684203 -0.006244429
000050 21 96 6a be b5 be cf bd 22 c6 22 bd 17 b0 5a bd
       -0.22908832 -0.10143796 -0.039739735 -0.05339059
000060 30 0e f2 bd 60 b3 0a be 46 0d 91 bd 34 c7 93 bd
       -0.11819112 -0.13544989 -0.0708261 -0.07215729
000070 53 06 53 bd db 75 11 be a4 54 8e 3e 1c f4 62 be
       -0.051519703 -0.14205115 0.2779895 -0.22163433
000080 dc 2f 9d be 69 e3 79 bd 7d 76 f3 bc 41 97 a6 be
       -0.30700576 -0.06100789 -0.029719586 -0.32537273
000090 50 87 8e 3e ea fd 9f bd 55 72 7a bd cc 8a ce 3d
       0.2783761 -0.07812102 -0.06114419 0.10085067
0000a0 86 88 98 bc 7d aa 16 be 05 86 32 be db 36 eb bd
       -0.018619787 -0.14713474 -0.17433937 -0.11485072
0000b0 71 54 6f 3e e7 c1 54 bc 80 88 6b 3e 44 53 3e be
       0.23372056 -0.012985683 0.2300129 -0.18586451
0000c0 6d ed 53 bd 8d d4 5b bd 9d 4d a7 be ae 8a bc bd
       -0.0517401 -0.0536695 -0.32676402 -0.092061386
0000d0 4e b6 25 bd c8 52 81 be 5c db aa bd a1 44 68 bd
       -0.040457062 -0.2525847 -0.08342621 -0.056706075
0000e0 c6 92 09 be b4 bc 5e be 27 98 4d bd 06 39 f5 bd
       -0.13434896 -0.21751672 -0.050193932 -0.11973767
0000f0 8c de b4 bd 50 77 99 bc 68 c1 f0 bd 82 30 82 be
       -0.0883151 -0.01873365 -0.11755639 -0.25427634
000100 e1 ca 8c bd 84 e7 0c be a4 98 b4 bd 57 04 5f be
       -0.068746336 -0.13760191 -0.088181764 -0.21779
000110 a4 27 87 3e cb 09 c7 3d 5b 9b 41 bd 9a 26 d9 bd
       0.2639743 0.09718665 -0.0472673 -0.10603066
000120 38 61 fe 39 c6 26 81 bd 4e 9d 9d be 51 32 8f be
       0.0004851909 -0.063062236 -0.30784076 -0.27968076
000130 4c 65 62 be a9 54 99 bd ba 7e 2a be 8f e5 d7 bd
       -0.22108954 -0.07486851 -0.16649905 -0.10541832
000140 ce c7 c3 bd 49 94 3f be 52 e9 35 bd 42 13 39 bd
       -0.09559594 -0.1870891 -0.044411965 -0.04518438
000150 b8 88 5e bd 6d bc b5 be 8d c9 08 be 4c 8f f5 bc
       -0.054329604 -0.3549532 -0.13358136 -0.029975556
000160 3e 25 8f bd c7 98 3b bd de 40 02 be ec e9 73 be
       -0.06989525 -0.045799997 -0.12720057 -0.23819703
000170 e6 6c 7b bd 4a 54 a5 be 4e 32 78 be 2c f6 5a bd
       -0.06138315 -0.3229087 -0.2423794 -0.053457424
000180 bf d8 84 bd 98 2a 97 3d e8 ae 85 3e 18 c5 de bd
       -0.064866535 0.07381171 0.26110005 -0.108774364
000190 8a 29 a9 bd 34 a3 c4 bd c8 cc 15 be 65 e3 b4 bd
       -0.08259876 -0.09601441 -0.14628899 -0.088324346
0001a0 4d 44 c3 bd 4c 3f bc be 93 52 81 bd 66 87 9a bd
       -0.09534512 -0.36767042 -0.06314578 -0.075453565
0001b0 66 89 9a be cc 6d 5a be e0 98 9b bd 09 d0 d6 bd
       -0.30182952 -0.21330947 -0.07597518 -0.10488898
0001c0 75 40 25 3e 55 0a 85 3e 58 17 6e 3e 19 b6 30 be
       0.1613787 0.25984445 0.23251092 -0.17256965
0001d0 f1 cb 8f be 94 8a 33 3d cb d3 97 3b 6f c2 a7 bd
       -0.28085282 0.04383333 0.004633402 -0.08191382
0001e0 eb 90 9e bd f3 4f 4f 3e 97 1d de 3d 7a a3 18 be
       -0.07742485 0.20245342 0.108454876 -0.14906111
0001f0 05 eb d8 bd 14 be 9e be e6 c8 f8 bd ff f0 05 be
       -0.105917014 -0.31004393 -0.12147693 -0.13080214

lstm.weight_ih_l0 f4 [200, 128]
000000 cc 0f 20 3c 5b d9 5f 3d b7 cc b3 bc ee 14 87 bd
       0.009769391 0.054650646 -0.021948202 -0.06595789
000010 ff 9d 9a 3d 0e ce ff bd e9 c9 df 3a 60 4e 9a bc
       0.075496666 -0.12490474 0.0017073724 -0.0188362
000020 02 76 ed 3c cb 0e 06 3e 72 2c 29 be 18 d4 7a 3d
       0.028986935 0.1309158 -0.16520861 0.061237425
000030 0f e2 5f 3d 3c 5d b1 bd 9f 78 ad bd 80 c8 4d 3c
       0.054658946 -0.08660361 -0.08470272 0.01256001
000040 22 c2 9d bd 58 64 c7 bd bd b8 75 3e 4a 4d 38 bd
       -0.077030435 -0.09735936 0.23996253 -0.044995584
000050 ff 13 26 bd ab 29 6c 3c dd c9 fe 3d 52 44 2e bd
       -0.040546414 0.014414231 0.12440846 -0.042545624
000060 b1 82 41 bd 0b 2f e9 3d c2 d7 90 bd 48 fb 02 3e
       -0.047243778 0.11385926 -0.070724025 0.12791169
000070 54 f5 ba 3d bc 91 ce bd cd 89 29 be e8 52 39 3e
       0.09128824 -0.100863904 -0.16556473 0.18098032
000080 cd 52 1a 3e 8d 85 a3 3d 35 2f 61 3e c5 bd 24 3e
       0.15070648 0.07984457 0.21990664 0.16088016
000090 f8 7a 00 3e 2a ba e2 3d 51 55 df bc 10 df 4a 3e
       0.12546909 0.11070664 -0.027262362 0.19811654
0000a0 8a ab 27 3e b1 af d7 3d 0d 2e 69 3d 39 27 9a bd
       0.1637403 0.10531557 0.056928683 -0.075270124
0000b0 32 05 30 3e 73 af a7 bc 6f fa 82 3d b5 9a 7c 3d
       0.17189482 -0.020469403 0.06395423 0.061670978
0000c0 65 ae 94 3c 6b 2b 6e be 07 67 ff 3c 40 3f 65 3c
       0.018149564 -0.2325875 0.031177057 0.013992131
0000d0 84 7d c3 3d 40 4d 85 3e 9f dc 33 3c 6b 29 19 3d
       0.095454246 0.260355 0.010977893 0.037393015
0000e0 8e 9d c5 3a 5a c6 c6 bd e2 57 73 bd d9 fe ba bc
       0.0015076862 -0.09705801 -0.059409983 -0.022826599
0000f0 85 a7 ee bc ee 7d 48 be 94 55 8f bd 33 55 7d 3d
       -0.029132614 -0.19579288 -0.069987446 0.06184883
000100 77 aa c4 3c ce 24 1a 3e 93 c4 b3 3d 9b 6b 09 3e
       0.024007065 0.15053102 0.08777728 0.13419954
000110 86 3a 09 3d d6 48 95 3d 11 b3 00 be 57 95 c7 3d
       0.033503078 0.07289283 -0.12568308 0.09745281
000120 d4 04 4a bd 04 74 b4 bc 49 7f 3f 3d 4f fe 91 3d
       -0.04932101 -0.022027977 0.046752248 0.07128584
000130 24 ac b0 bd a9 8e 09 3e 84 0e 4a 3d 86 90 fd bc
       -0.08626583 0.13433327 0.04933025 -0.030952703
000140 df 89 16 3e 94 24 f4 3c bf b4 0e 3e 74 1e 98 3d
       0.14701031 0.029802598 0.13936137 0.074276835
000150 f9 68 a0 bd f2 c9 b5 3d 49 68 91 bd 33 b0 33 bd
       -0.07832522 0.08876409 -0.07099969 -0.04386921
000160 62 1b 95 bd 6b a9 6b 3e d8 f5 23 3e 87 f5 b8 bd
       -0.072806135 0.23013847 0.1601175 -0.090312056
000170 6c 9c a5 3d 2b e8 ad bd 78 7e 5a bc b7 cd 9c 3d
       0.08086476 -0.08491548 -0.013335817 0.076564245
000180 47 87 81 3d 8a a2 d7 3d f7 98 12 3e 71 cd 5f bd
       0.0632463 0.10529049 0.14316164 -0.054639284
000190 ec 49 81 bd 41 c2 7a 3d b9 06 4d 3d 57 cd bb 3d
       -0.063129276 0.06122041 0.05005524 0.09170025
0001a0 3e f8 fd 3d d3 7e e3 3d 4e 2c f0 3b 18 ac 82 bd
       0.12400864 0.11108174 0.0073295003 -0.063804805
0001b0 d2 e8 c1 3d 5a aa e6 3c a4 eb fe bd 66 41 56 bc
       0.09468235 0.028157402 -0.12447289 -0.013077116
0001c0 b6 45 f6 bd 66 99 27 be 77 87 5a be 74 cf 9c 3d
       -0.12025015 -0.1636711 -0.21340738 0.07656756
0001d0 d6 1f 4d 3d 14 e3 f6 3d e0 c5 d1 3d 8b cc cb bd
       0.05007919 0.120550305 0.1024282 -0.09951123
0001e0 10 7f d5 3c 00 2c 22 3e c4 93 4e bd ce 68 3b bc
       0.026061565 0.15837097 -0.05043389 -0.011438562
0001f0 85 b0 c2 bc 8d 1f 2e 3d be 95 b9 3d a7 28 44 bd
       -0.023765812 0.042510558 0.09061764 -0.04789033
000200 5e 67 6c bd df 10 da b8 71 0d 48 3e 36 bc 0d be
       -0.057715766 -0.000103981925 0.19536377 -0.13841328
000210 62 75 67 3d 4b d7 c9 bb 49 47 d7 bb 38 93 ac 3c
       0.05650843 -0.006159698 -0.006569777 0.021066293
000220 ba e7 88 3d 9d a6 b5 bd 43 22 28 bb 99 2d a3 3d
       0.06684823 -0.088696696 -0.0025655187 0.079676814
000230 69 dc 85 3e db 62 1c bc b7 55 09 bd 5e 1f 24 3a
       0.26144722 -0.009545053 -0.03352901 0.00062607776
000240 91 08 8f bd b7 f9 1f bd 3b 11 3e 3c 74 fb b2 3d
       -0.06984056 -0.039056506 0.011600788 0.08739367
000250 1d 8d 40 be f7 ee 1e be c4 6c 7e 3d cb 61 e8 3d
       -0.1880383 -0.15520845 0.062115446 0.113467775
000260 e6 17 0a be cb c2 b0 bd c5 40 14 3d cd ed 70 bc
       -0.13485679 -0.08630904 0.03619458 -0.014705134
000270 0f af 03 3e 38 e2 d2 bc 5e ee 0c 3e d0 e2 4a 3d
       0.12859748 -0.025742635 0.13762805 0.04953271
000280 82 f6 9a 3c 77 f5 17 3e 74 2c e1 bd dd 11 82 bd
       0.018916372 0.14839731 -0.10994807 -0.063510634
000290 b4 ad 9d bd ae f3 c7 3c 42 39 0b 3b 33 11 b1 3d
       -0.07699147 0.024408188 0.0021243845 0.086458586
0002a0 61 80 49 3d 66 87 d0 3d 34 05 cf 3d 40 3f e3 3d
       0.049194697 0.10182075 0.10108414 0.11096048
0002b0 58 61 0f 3d 99 33 39 bd 62 cf 78 3d 23 87 2e be
       0.035004944 -0.045215223 0.06074465 -0.17043738
0002c0 4c 86 61 bd d4 6a 19 bd 75 0e 55 3d e1 1e b2 3b
       -0.055059716 -0.037455395 0.05201574 0.00543581
0002d0 f1 53 b0 bd d6 8d 87 3d 0f 61 13 3e 13 60 54 bc
       -0.086097606 0.0661885 0.14392494 -0.012962359
0002e0 cd 01 e0 bb 22 af 6c 3d a7 84 c2 bd 3e 4a 6f 3b
       -0.006836152 0.057784207 -0.09497958 0.0036512758
0002f0 e0 9e 71 3d c4 52 df bd ad 41 ab bc cb 4b 8b bd
       0.058989406 -0.10904458 -0.02090534 -0.06801566
000300 43 af b6 3d 13 b3 a6 3d 9d b8 56 be b3 38 58 3d
       0.08920147 0.081396244 -0.20968862 0.052788448
000310 2d cb 91 be bf aa 1a 3e 1d 0d fc 3d 36 3b 4d 3c
       -0.28475323 0.15104197 0.12307189 0.012526324
000320 0c bd c5 bd 4e 77 2b bd 68 28 59 bd 20 ce 51 3d
       -0.096551985 -0.041861825 -0.05301705 0.051221967
000330 2d ec ff bd 46 f5 a7 bd 82 e4 61 bd 8d b3 c6 bd
       -0.12496219 -0.08201079 -0.055149563 -0.09702215
000340 84 44 53 bc 3f ab 10 bd 6e f7 d4 3d 51 59 4c bd
       -0.012894753 -0.035319563 0.10398756 -0.049889866
000350 d1 ea 21 bc 4b a9 69 3d be ac 69 bd 3e c3 01 3d
       -0.009882645 0.057046216 -0.057049505 0.031680338
000360 60 e1 98 bd 05 97 a4 bd a5 2d c3 3c 50 5d a3 bd
       -0.07464862 -0.08036617 0.023825476 -0.07976782
000370 aa 85 0c 3c b5 b6 c0 3d 35 42 a0 3c 16 d5 e9 3d
       0.00857679 0.094098486 0.01956282 0.11417596
000380 a8 1a aa 3d cd cd 90 3e 7e 4d ae 3d 56 fa 71 3c
       0.083058655 0.28282014 0.08510874 0.014769157
000390 10 f6 d5 3d ff 8d 45 be 49 8d 1c bc 37 7d 71 3c
       0.10447323 -0.19292448 -0.009555169 0.014739326
0003a0 36 17 5e bd f5 fb cd 3d 28 c1 03 3d 83 05 e0 bc
       -0.054221354 0.100578226 0.03216663 -0.027346378
0003b0 5e a3 8b 3d 6b 3e 1e be 82 45 0f bd 62 ec 14 3d
       0.06818269 -0.15453498 -0.034978397 0.036358245
0003c0 c2 ae bd 3d 4b 93 04 3e f9 cf 98 3e 93 0e 51 be
       0.09261848 0.12946813 0.2984617 -0.20415716
0003d0 de 7c c7 bd 14 da 9f bd 28 14 c2 3d d7 8f 91 3d
       -0.097406134 -0.07805267 0.09476501 0.071075134
0003e0 7c 11 16 3e 00 81 05 bd ed 11 9c bb d8 16 96 bc
       0.14655107 -0.032593727 -0.004762879 -0.01832144
0003f0 7b eb 87 3d 0b 7c 2c 3c fb 5e e9 3d 92 7c e9 3c
       0.06636711 0.010527621 0.11395069 0.028501783

lstm.weight_hh_l0 f4 [200, 50]
000000 e5 a7 d8 3e 66 0c 1a bd c2 3f 37 3e 42 4e 4b be
       0.42315593 -0.03760948 0.17895415 -0.19854072
000010 3c 18 11 3e 77 e6 b9 be 7f 07 25 be d5 c1 9e be
       0.14169401 -0.36308643 -0.16116141 -0.31007257
000020 6f 01 8a 3c 5f 01 ff 3d 76 6e e8 3d 10 ff e7 be
       0.016846387 0.124514334 0.11349194 -0.45311785
000030 5b 9a 03 3e e2 fa ad bd 5b ad 56 3e cc 57 88 be
       0.1285185 -0.08495118 0.20964567 -0.26629484
000040 43 1d a2 3e 53 0a 03 be 3b 74 13 be 42 02 1d 3e
       0.3166295 -0.12796907 -0.14399807 0.15332893
000050 d7 78 4e be fb ee 3d be 16 c2 a8 3d ae 05 31 3e
       -0.20163284 -0.18548195 0.08240144 0.17287323
000060 cc 41 83 ba 0d ab a8 3d bc 9a 8f 3d 6c bd 12 3d
       -0.0010014116 0.0823575 0.07011935 0.035825178
000070 22 db 4b 3e c6 7a 58 be f6 d4 a5 3e 19 86 49 bd
       0.19907811 -0.21140584 0.3238904 -0.04920015
000080 43 bf 01 bd 68 17 84 bb 09 dc 08 3e 77 6c f9 3d
       -0.031676542 -0.0040311106 0.13365187 0.12178891
000090 5a 3b eb 3c 27 f6 10 be 47 d1 32 3d 26 3b 45 3e
       0.028714824 -0.141564 0.043656614 0.19260845
0000a0 29 04 3b bd e8 de f3 3d 37 48 bd bd 00 5c a2 b9
       -0.045658264 0.1190775 -0.092422895 -0.00030967593
0000b0 a8 90 12 3d 78 ad 24 bd 7c c8 e9 3d 13 b3 66 bd
       0.035782486 -0.040204495 0.114151925 -0.056323122
0000c0 bd 37 02 3d b2 7d 08 3e 8f 3d af 3c 70 2d 97 bc
       0.031791437 0.13329199 0.021391658 -0.018454283
0000d0 81 98 e8 3d eb 92 ce bd cf ec 32 3c 89 26 d9 3b
       0.11357213 -0.10086616 0.010920717 0.006626908
0000e0 f0 ec 3c be 15 9c 4b 3e df 36 81 3d 57 6a 53 3d
       -0.1844976 0.1988376 0.06309294 0.051615085
0000f0 6d 67 02 3e 74 30 3b 3a 72 61 ae 3d 22 16 91 3c
       0.12734766 0.0007140704 0.0851468 0.017710749
000100 c5 a0 93 3b bc cb 05 be 5c 45 be 3d 08 be 1e bc
       0.004505249 -0.13066 0.09290573 -0.009688862
000110 7b 97 0b bc 4c ab f2 3d 1d b5 f2 3b a1 e4 49 be
       -0.0085200025 0.118490785 0.0074068443 -0.19716121
000120 c9 95 4d be 76 b7 a0 bd 04 73 00 bd 2c c3 81 3d
       -0.2007667 -0.078474924 -0.031359687 0.06336054
000130 5b 04 13 bd b3 45 36 3e cf 22 1d 3e ee 5d 5c be
       -0.035892826 0.17800026 0.1534531 -0.21520206
000140 7b f8 e1 3d 92 14 2d bd 4c 85 21 be f8 d7 5f be
       0.11033722 -0.042255946 -0.15773505 -0.2185973
000150 17 9e 68 3e 5b 85 b1 3d 10 a5 f5 3c 1c 19 9c bd
       0.22716556 0.08668014 0.029985934 -0.07621977
000160 28 66 57 3d 83 35 4e 3e 58 c5 ec bd dc fe 49 bd
       0.05258766 0.201376 -0.11561078 -0.04931532
000170 b6 fe c8 bc 71 ed a2 bc 92 dc 4b 3e ae df 87 bc
       -0.024535518 -0.019888612 0.1990836 -0.016586151
000180 28 c6 b4 bd ec 86 8a be 42 7e 4c bc 9a 18 0a be
       -0.08826858 -0.27056062 -0.012481274 -0.13485947
000190 bd a5 69 3e 71 05 83 3e 07 2d 62 bd 3a 83 98 3d
       0.2281713 0.2559009 -0.055218723 0.074469045
0001a0 62 92 7e be 99 a1 49 3e 89 27 79 3d aa f7 74 be
       -0.24860528 0.19690551 0.06082872 -0.23922601
0001b0 7a 32 e1 bd 4b 04 39 3e 15 36 e4 bd 92 e3 a0 3b
       -0.10995956 0.18068044 -0.11143128 0.004909941
0001c0 d6 b6 17 be e2 0e f0 bd fb 84 0c 3d e9 87 c8 3d
       -0.1481584 -0.11721589 0.034306508 0.09791548
0001d0 d1 6e 7a 3d d1 64 99 bc c9 84 12 bb d8 91 09 3d
       0.06114084 -0.01872483 -0.0022356978 0.033586353
0001e0 89 1c 63 bd 51 3d 6f 3e ce 03 e8 bd 35 87 c5 bd
       -0.055447135 0.23363234 -0.11328851 -0.09644929
0001f0 d2 e0 55 3e 9f 69 31 3e 10 0c b5 3d c6 ca 9e 3c
       0.20886543 0.17325447 0.08840191 0.0193838
000200 47 da cd 3d 92 ac 06 3e df 85 d2 bd e7 c6 0d be
       0.10051399 0.13151768 -0.1027944 -0.13845406
000210 26 c5 11 3d 76 a0 fa bc 83 60 df bc b4 64 d3 bd
       0.035588406 -0.030594092 -0.0272677 -0.10321942
000220 19 bf 30 bd 4c 34 16 3e ee 4c 1a 3e 37 a4 fc 3d
       -0.043150995 0.14668387 0.15068409 0.12336009
000230 e8 a8 f9 3d ec 33 0c bd 56 4d f6 bd ed 62 40 3d
       0.121904194 -0.034229204 -0.120264694 0.046969343
000240 70 ec 17 bd 6e f0 06 3e 58 6d 0e 3d 08 d4 9a 3d
       -0.03709072 0.13177654 0.034772247 0.07559973
000250 f3 f2 7c bd dd 97 11 3d d9 c1 d5 3e ab fc fa bd
       -0.061755132 0.03554522 0.41749457 -0.12255224
000260 47 ce a4 3d dd 50 c5 3c e2 6f 4e bd 54 f5 cc bd
       0.08047157 0.02408641 -0.05039967 -0.1000773
000270 e2 b7 da bd 4f e9 77 3e 02 06 89 bc 6d 4d c4 3c
       -0.10679604 0.24210094 -0.016726498 0.0239627
000280 8a df a3 3d ad 83 80 be 50 6e 1e be e8 b5 30 be
       0.08001621 -0.2510046 -0.15471768 -0.17256892
000290 28 55 36 3e 18 cd 15 be 0c 96 37 3e 7a c4 81 be
       0.17805922 -0.14629018 0.17928332 -0.25345212
0002a0 a2 b7 d5 3d 4f 33 90 bd 37 e3 5b be ba 70 6c be
       0.10435416 -0.07041036 -0.21473394 -0.23089877
0002b0 bd d8 33 3d 31 c2 13 bd 72 77 41 bb 8a 19 4a 3e
       0.04390787 -0.036073867 -0.0029520658 0.19736305
0002c0 d5 64 a9 bd 61 4d 25 bd fe fb 83 bd 80 ef 05 be
       -0.08271185 -0.040356997 -0.06444548 -0.13079643
0002d0 9d b6 99 3d 58 b3 83 bd 25 4c a2 3c a5 9a 06 be
       0.07505534 -0.064306915 0.0198117 -0.1314493
0002e0 78 ca 03 3e 42 d6 f4 3d 28 f2 8c 3e 07 2f 05 3e
       0.12870204 0.11954929 0.275285 0.13006221
0002f0 b7 41 04 3e 92 90 3c 3e 56 bd 47 be 7c d5 9c 3d
       0.12915693 0.18414524 -0.1950582 0.076579064
000300 88 84 c6 3d d7 e7 1a be 6c e5 0a 3e 61 1c 9b bd
       0.09693247 -0.15127502 0.1356408 -0.07573772
000310 f1 db 4f be 34 96 59 3d 26 2d d4 3d 6d 94 3c be
       -0.20298745 0.05312176 0.10360174 -0.18415995
000320 a9 a5 b6 3b 30 0a 27 be c5 25 18 be 64 2b f5 3c
       0.0055739474 -0.1631248 -0.14858158 0.029927917
000330 39 b3 4b 3d 84 d9 ed 3d ac b9 ff 3d 33 b9 53 3e
       0.049731467 0.116137534 0.12486586 0.20676117
000340 49 2b 83 bd 86 a1 1b 3e 58 2d 18 bd ed 6a 14 3e
       -0.0640474 0.15198335 -0.03715262 0.14493914
000350 fb 4b db bd 59 8f a0 bb a4 55 32 be 23 f7 61 3d
       -0.107078515 -0.004899901 -0.17415482 0.05516733
000360 dd 08 43 3d ce cd 31 bd 16 3c 97 3c 75 8f 94 3e
       0.047615875 -0.04340916 0.018461268 0.290157
000370 c1 93 21 3e 55 95 b3 bd 4a cb 46 be da b4 1f bd
       0.1577902 -0.08768717 -0.19413486 -0.038990833
000380 80 16 3b be 49 c4 b7 bc 85 41 06 3e 60 7f 85 bc
       -0.18270302 -0.022432463 0.13110931 -0.016296089
000390 6a 18 4a 3e 04 df 8b 3c 11 da 0a bc 24 99 f8 3d
       0.19735876 0.017074116 -0.008474843 0.12138584
0003a0 28 16 1c be 90 ba 41 be 28 3d 2a 3e 5e 52 64 3c
       -0.15242827 -0.18918824 0.16624892 0.0139356535
0003b0 20 3a ee bc 43 b3 3e bc 58 88 16 3e 2d 18 ae 3c
       -0.02908045 -0.011639419 0.14700449 0.021251762
0003c0 22 82 7e 3d c0 d3 7f 3c 2f cf 07 3e 9a 8f c0 bd
       0.062135823 0.01561445 0.13262628 -0.0940239
0003d0 41 78 a1 3e 2a fc 3a 3c 6c c5 a2 3d 0e f5 49 bd
       0.3153706 0.01141266 0.079478115 -0.049305968
0003e0 44 35 40 3c 27 4c ed 3d 0d aa 94 bd 70 42 95 3d
       0.0117314495 0.115867905 -0.07258997 0.072880626
0003f0 64 b8 ef bb c4 e4 19 3e df 11 10 3c b1 94 09 3c
       -0.0073156822 0.15028673 0.008793323 0.008397267

lstm.bias_ih_l0 f4 [200]
000000 5c 12 98 bd 7c b9 1b be 93 24 78 3d 7c 84 f2 bd
       -0.07425377 -0.15207475 0.060581755 -0.11841676
000010 65 21 2f be 92 a4 2e bc 36 2e 52 bd d6 7c a0 3e
       -0.17102583 -0.010659354 -0.0513136 0.31345242
000020 8e 6a 5d 3e 5e 2c ff bd bf 75 fc 3d 7c 5c a3 bd
       0.21622679 -0.12459634 0.12327146 -0.07976624
000030 5d 19 9e 3c 69 bf e6 bd 4e 62 a6 bd ea bc 00 be
       0.019299204 -0.11266977 -0.08124219 -0.12572065
000040 0f dc 6a bd 58 01 9c 3d ed c5 81 be 4e 1c a0 bd
       -0.05733877 0.07617444 -0.25346318 -0.07817899
000050 a6 61 0f 3d 77 83 84 bd 07 33 98 3d bf 03 92 bd
       0.035005234 -0.064703874 0.07431608 -0.07129621
000060 3b a2 90 be 52 5d 4c be 91 79 16 3e 3c c1 42 be
       -0.28248772 -0.19957474 0.14694811 -0.19019026
000070 56 e1 ae bd a4 ae ca bd a7 ec 35 bd d7 e7 8f 3e
       -0.08539073 -0.09896591 -0.044415142 0.28106567
000080 06 45 17 3e c5 d9 14 3e 4f 0b 2f 3c 78 53 90 3d
       0.14772424 0.14536197 0.0106838485 0.070471704
000090 5b fc e3 3e b4 84 98 bd a7 c8 ae be 6e 33 b4 bd
       0.4452847 -0.07447186 -0.3413746 -0.08798872
0000a0 dc 3e 44 be 46 b9 ee 3d a1 88 17 3e b5 64 42 be
       -0.19164604 0.11656432 0.14798214 -0.18983729
0000b0 0e cd 1b be 82 df 41 bd 1e b1 8c be 97 05 c5 bc
       -0.15214941 -0.047332294 -0.2747888 -0.024050517
0000c0 40 46 22 3c 40 2b 60 3c ca 8e 64 3d 44 2d 0a 3b
       0.009904444 0.013682187 0.055800237 0.002108411
0000d0 3b c7 02 3e fa 47 93 bd 08 7e 8d be fb 61 41 be
       0.12771313 -0.07191463 -0.27635217 -0.18885033
0000e0 6f d0 86 bd 3d 07 81 be ff 46 64 be 77 53 8a be
       -0.06582724 -0.25200835 -0.22292708 -0.27016804
0000f0 67 59 17 be d4 8e 4f 3d d5 fa e2 3b 34 e2 24 bc
       -0.14780198 0.05067332 0.006926874 -0.010063697
000100 3d d0 41 bc 92 fb 79 be 50 07 64 be b7 56 a0 3d
       -0.011829433 -0.24412373 -0.22268414 0.078290395
000110 1c e1 86 bd bb 0e 15 be 91 15 e7 bd 4c fe 39 be
       -0.06585905 -0.145564 -0.1128341 -0.18163413
000120 28 e2 08 be b8 7c 80 bc 15 ea d7 bd d1 92 f5 bd
       -0.13367522 -0.01568447 -0.105426945 -0.11990894
000130 bd 42 e3 be 10 14 1f 3d 61 75 ef bb 6f 97 af 3c
       -0.44386855 0.038837492 -0.007307694 0.021434514
000140 33 6a 88 be 2f 28 48 be 01 5a 6a 3c 9f b0 42 be
       -0.26643524 -0.19546579 0.014303685 -0.19012688
000150 11 c5 c1 bd 3c 90 43 be 50 c8 7c be f5 36 f8 bc
       -0.094614156 -0.1909799 -0.24685788 -0.030299643
000160 22 f2 95 3e 09 03 ff 3c d7 1c 14 be 1d b5 ba bd
       0.29286295 0.031129377 -0.14464127 -0.09116576
000170 25 be aa bd 46 01 3d 3d 93 0f ef bd b2 d5 ad 3c
       -0.083370484 0.046143793 -0.116728924 0.021220062
000180 61 d1 f4 3d ab 3c db bd 2b 5b 80 bb b3 5f c7 3c
       0.11953998 -0.10704931 -0.003917118 0.024337625
000190 c1 ea a9 3d 9f 09 ff bd 36 c3 03 3e 4a 3c 82 bd
       0.08296729 -0.12453007 0.12867436 -0.063591555
0001a0 54 9d e3 bd ff ae ed bd 77 5e 40 be cf ed c7 bd
       -0.11113992 -0.116056435 -0.18786035 -0.09762155
0001b0 2d 8c 3a be 54 80 b0 3d ee 71 56 be 5f d6 55 be
       -0.18217535 0.08618227 -0.20941898 -0.20882557
0001c0 62 8f 3c 3e b3 d5 51 bd 3f f4 cb 3c a4 f7 96 bd
       0.18414071 -0.05122919 0.024896739 -0.073714525
0001d0 8d 0e 72 3d 25 11 4b 3d d3 e7 1d bc e9 04 ee 3c
       0.059095908 0.049576897 -0.009637791 0.029055076
0001e0 e6 65 89 3d 11 c3 00 be 49 ab 5e 3d 50 1a 27 bd
       0.06708889 -0.12574412 0.05436257 -0.040796578
0001f0 a2 19 b8 bd 4c d6 25 be 56 92 17 be 11 c7 24 3e
       -0.08989264 -0.16195029 -0.14801916 0.16091563
000200 da 39 13 bc b7 04 a5 3c 66 1f 15 bd c0 e4 16 3d
       -0.008985961 0.02014385 -0.036406897 0.036839247
000210 75 84 01 3e 1d 1d f4 bd df 99 f3 3d 98 88 07 3e
       0.12648185 -0.119196154 0.11894583 0.132357
000220 c8 31 57 3d f5 df 07 be 6c e5 ed bd 28 0d 12 3c
       0.05253771 -0.13269027 -0.116160244 0.0089142695
000230 eb 82 c4 bd ed 89 07 3e 52 1b 11 3d a7 3a b9 3d
       -0.09595283 0.13236208 0.035426445 0.0904439
000240 fa e0 a0 3c ff fa 94 3d d0 ba e8 3d cc e0 2f bd
       0.019638527 0.07274436 0.11363757 -0.042938992
000250 05 c2 0e 3e f6 67 1b 3e e2 e5 66 bd fc 9b 62 be
       0.139412 0.15176377 -0.056371577 -0.22129816
000260 60 f9 7e bd 3f 58 9a 3b c5 22 af bd a4 b8 16 be
       -0.06224954 0.004710227 -0.08551554 -0.14718872
000270 9a 17 46 3e a7 86 4d 3e a8 84 0e 3e 02 0d 56 3d
       0.19344941 0.20070897 0.13917792 0.0522585
000280 e9 cb 95 bd 12 10 a1 3d a7 05 27 3b e5 3d f3 bd
       -0.073142834 0.07864393 0.0025485547 -0.1187704
000290 38 6c 18 be a4 b0 8d be e1 c0 70 be 4c fc ac 3d
       -0.14885032 -0.2767383 -0.23511077 0.08446559
0002a0 bc fa 91 be c8 5f 9c 3c 76 ff bc bd 4d 35 21 3d
       -0.28511608 0.01908864 -0.09228413 0.039357472
0002b0 4f e9 82 bd 35 d6 09 bd a1 35 2b be b4 da 12 be
       -0.06392156 -0.03365155 -0.16719677 -0.14341241
0002c0 a0 1a ac 3d fd 99 e0 bc f1 9e 01 be 8d 51 c3 bc
       0.08403516 -0.027417177 -0.12658288 -0.023842597
0002d0 87 91 79 be e9 a8 c4 3c bc d6 a4 bd a7 9a 87 bd
       -0.2437192 0.024006324 -0.0804877 -0.066212945
0002e0 99 ba 63 be 5a 45 4f bd aa f0 27 3e c2 07 6a be
       -0.2223915 -0.05060325 0.164004 -0.22854522
0002f0 8e ea 9b bc 0f 7a 3f be c8 3c 91 be dd 0a f1 3d
       -0.019032743 -0.18698905 -0.28366685 0.1176965
000300 39 0f ae 3d 94 ed 67 be 4e da bc bc e9 3e 3c be
       0.08498997 -0.22649223 -0.023053315 -0.18383373
000310 61 fb 4e be b1 56 4e be 34 e5 32 be e2 19 00 be
       -0.20213081 -0.20150258 -0.17470247 -0.12509874

lstm.bias_hh_l0 f4 [200]
000000 da 2b ef 3d 6a f0 a5 3c ad 33 55 3d 63 5f b0 bd
       0.11678286 0.02025624 0.052051235 -0.086119436
000010 81 cc b7 bd 37 b2 a7 bd 5c 6e 1b 3e dd af ec 3d
       -0.08974553 -0.08188289 0.15178818 0.11556981
000020 3d b9 60 3e 8b 68 0d be 85 61 45 bd f0 18 8b 3d
       0.21945663 -0.13809411 -0.048188705 0.06791866
000030 cb 39 70 3d c4 7f 1a be b1 d1 2b be e8 77 a1 bd
       0.058648866 -0.15087801 -0.1677921 -0.078841984
000040 2d c0 99 be fc 76 80 bd 54 83 ce bd 51 b8 d3 bd
       -0.3002943 -0.062726945 -0.100836426 -0.1033789
000050 7e 5e 89 bc 66 ff 4c 3e ca b2 ae 3d e1 73 15 be
       -0.01676869 0.20019302 0.08530195 -0.14594986
000060 63 42 a5 bd be ab 21 bd 27 58 c5 3c e8 fe 55 be
       -0.08069303 -0.039470427 0.024089886 -0.2089802
000070 a1 5e b6 bd de 34 31 be 5d e1 0b 3c dc 09 8e 3e
       -0.08904768 -0.17305323 0.0085376175 0.27741897
000080 b1 5f 36 3d 7a b2 85 3c 3d 2a 64 be 4c af dd bd
       0.044524852 0.016320456 -0.22281738 -0.10824451
000090 f3 fa f5 3e df d7 16 be 3b a7 70 be 2f d0 e4 bd
       0.48043022 -0.14730786 -0.23501293 -0.1117252
0000a0 15 f1 19 bb 9b e6 b0 3d 2a 58 48 3e 6d df e7 bd
       -0.0023489643 0.086377345 0.19564882 -0.11321912
0000b0 18 6c ea bd a2 c5 64 bb 65 bc 97 be e4 57 11 be
       -0.114463985 -0.0034907837 -0.2963592 -0.14193684
0000c0 a9 24 32 3d 6f 5e af bd ec 38 2e be 1f 34 fe bc
       0.043491993 -0.08562934 -0.17013901 -0.031030713
0000d0 a6 16 21 3e ab db 30 be 9f d4 05 be bf da 06 be
       0.15731296 -0.17271297 -0.1306939 -0.13169383
0000e0 10 2d 06 be 31 cc 14 be d9 74 89 be 80 69 43 be
       -0.13103127 -0.14531018 -0.2684696 -0.19083214
0000f0 cd 23 05 be bf 73 35 bd ca be db 3d 27 4e 9f 3b
       -0.13001938 -0.044299837 0.107297495 0.0048616114
000100 e2 58 66 bd 5f 34 3f be 95 ff f1 bd d6 41 56 3c
       -0.05623711 -0.18672322 -0.118163265 0.01307722
000110 67 e0 b8 b8 76 ca ff bd 71 e2 10 bd 1c 92 59 bd
       -8.815602e-05 -0.12489788 -0.0353722 -0.053117856
000120 43 09 92 bd 59 33 43 be 02 e1 59 be fa 0e f4 bd
       -0.07130673 -0.19062556 -0.2127724 -0.11916919
000130 c5 71 c9 be 15 fb cf bb 9d 38 79 be 9a 48 bf 3c
       -0.39344612 -0.00634707 -0.24338003 0.023350049
000140 5f 90 15 be 0c 80 10 be 82 7d 9f bc 83 96 0f be
       -0.14605854 -0.14111346 -0.019469026 -0.1402226
000150 ed 34 a3 bc c9 a0 10 be 79 29 73 bd 15 19 ce bd
       -0.019922698 -0.14123835 -0.059365723 -0.10063378
000160 78 0c 29 3e ae 55 5e bd cd bc ff 3c 9b 6c e9 bd
       0.16508663 -0.05428093 0.031217957 -0.11397668
000170 d1 bb bb bd 6a 03 1e bd f1 ad 90 bd 50 82 f2 3c
       -0.091666825 -0.038577475 -0.07064427 0.029603153
000180 48 d9 9d bd 0b d6 fb bd 14 8a 2d be 72 aa 3b 3d
       -0.07707459 -0.12296685 -0.16947204 0.045816846
000190 92 85 f1 3c 46 e4 cf bd 20 d8 c5 3d 2b 8c 50 3d
       0.029482637 -0.101509616 0.09660363 0.050914925
0001a0 4d c5 81 3d e8 b6 b9 3c 07 0d 13 be b6 7d be bd
       0.0633646 0.022670224 -0.14360438 -0.09301321
0001b0 6f 9a bc 3c 10 82 37 3d 61 f5 e2 bd 0c 0d 67 3d
       0.023022858 0.04480177 -0.110819586 0.056408927
0001c0 6a c4 7d 3e 64 80 27 3d b3 10 81 3e eb 49 13 be
       0.24781957 0.040893927 0.25208053 -0.14383666
0001d0 b3 44 85 bd f3 d7 cb 3d 09 70 b9 bd 95 4e 8b bd
       -0.06507244 0.099532984 -0.09054572 -0.06802098
0001e0 4f 92 83 3c 61 cf 49 bb 6a c0 29 be db ff c4 3c
       0.016060976 -0.0030793773 -0.16577306 0.024047783
0001f0 75 c6 84 bd e4 6e 32 3d 8d 57 88 3d db 49 c6 bc
       -0.06483165 0.043562785 0.06657324 -0.024205139
000200 24 9d b4 bb 92 24 35 bc 0e 9e 0a 3e 9d ae 3e be
       -0.0055118967 -0.011056082 0.13536856 -0.18621297
000210 ff ee 3e 3e e6 fd a8 bc a8 aa 42 bc 42 e4 22 3d
       0.18645857 -0.02062888 -0.011881508 0.039768465
000220 3b b7 d9 3d 86 54 ff bd 5d 8c 22 be 8a 37 0d 3b
       0.106306516 -0.124672934 -0.15873857 0.0021547996
000230 24 ec 8f bc 05 73 1c 3e 47 35 8c 3d 92 c1 24 3e
       -0.017568655 0.15278251 0.06846099 0.16089466
000240 20 35 39 bd f6 39 f7 3d 29 d2 29 3e e7 47 42 be
       -0.04521668 0.12071602 0.16584076 -0.18972741
000250 c3 e5 62 bc 09 28 f3 3d 04 97 78 3d 51 8c f8 bd
       -0.013848725 0.118728705 0.060690895 -0.12136138
000260 93 9f 45 be a2 bd 48 be ef b3 ce bd b3 35 ca bd
       -0.19299154 -0.19603589 -0.10092913 -0.098735236
000270 6d a5 2b ba 79 ee e7 3e 14 ff 13 3e 92 59 4e bd
       -0.00065477827 0.45299128 0.14452773 -0.05037839
000280 71 57 9a bd 85 1c 08 bd fd c5 23 bd 6a 57 5f be
       -0.075362094 -0.033230323 -0.03998374 -0.2181069
000290 64 a7 ed bc 71 35 81 bd d5 ce 89 be 72 61 a5 3d
       -0.029010482 -0.06309021 -0.26915613 0.08075227
0002a0 7f 4e 4d be f5 aa 67 bb f4 7c 69 3d 6a 4c 24 be
       -0.20049475 -0.00353497 0.05700393 -0.16044775
0002b0 29 95 5d bd c7 f2 63 be bc 94 b2 bd d4 a6 0d be
       -0.05409733 -0.22260581 -0.08719775 -0.13833171
0002c0 73 df 49 3e ee 3e 1a bc d5 99 80 3c 9f e9 90 bd
       0.19714145 -0.009414418 0.015698353 -0.0707581
0002d0 71 31 88 be 36 59 4a bd ef 62 52 be a8 b6 aa bd
       -0.2660022 -0.049401484 -0.20545553 -0.0833562
0002e0 44 4f f5 bd d0 cd 5b bd 7d 60 86 3e da e8 a9 be
       -0.11978009 -0.053663075 0.2624549 -0.33185464
0002f0 9f 84 f8 bc 48 43 50 be d6 e3 1e be a8 90 bb 3d
       -0.030336676 -0.20338166 -0.155166 0.0915845
000300 9d 47 a7 3d e7 2a ba bc ab 95 37 be 5b e3 13 be
       0.08167956 -0.022725536 -0.17928188 -0.14442198
000310 3d bd 2f be 89 ee 7b bd 3f c2 8e bc 8e 95 18 bd
       -0.17162032 -0.06150678 -0.017426608 -0.037252
