pol_models/pm_10_model.pt (torch, 650288 bytes, 16 tensors)

conv1.weight f4 [64, 300, 3]
000000 33 f2 fd bb 51 ae 2a 3c 72 76 0d bd 5c c5 01 bd
       -0.0077498197 0.010417537 -0.034536786 -0.031682357
000010 85 9c a3 bc fe d2 25 3b 33 7c e9 bb bf a2 a4 3c
       -0.019972095 0.0025302763 -0.0071254014 0.020097135
000020 64 e1 da bb 8c 01 c4 3a c3 d5 8d bc 6f 17 4f bc
       -0.0066797007 0.0014954074 -0.017313844 -0.012639864
000030 c9 4b 1f bd 05 e4 ed bc ad e9 9d bc 77 09 21 3b
       -0.038890634 -0.029039392 -0.019276464 0.0024572292
000040 9b f0 7b 3c 81 ea c8 3c a3 89 f0 bc c2 3f b0 bc
       0.015377189 0.024525883 -0.029362505 -0.021514777
000050 39 78 cf 3b ef 03 a4 3c 66 bd 6b bc 8e a3 97 3c
       0.0063314703 0.020021407 -0.014388418 0.018510606
000060 b6 60 4e bc b5 d4 73 bb 0d 26 c4 3c 24 f7 1c bd
       -0.0125963 -0.003720564 0.023943925 -0.03832163
000070 e2 bd e8 bc 5a da 77 bc 67 a8 9f bc c7 73 b4 3c
       -0.028410856 -0.015127743 -0.01948948 0.022027863
000080 6a 60 dd bc 77 3b b9 bc b9 b7 fa bc 7e bc 1b bd
       -0.027023513 -0.022611363 -0.030605184 -0.038021557
000090 e0 d8 b3 bc fe 07 d9 3c e3 80 79 3c 27 07 25 3c
       -0.021954 0.026493069 0.015228483 0.010072506
0000a0 96 ea 8d bb ee 5c ad bc 04 05 36 ba d2 7a 19 bd
       -0.0043309433 -0.021162476 -0.00069434964 -0.037470646
0000b0 9a eb ec bc d6 ab c6 bc b7 0b 65 3c 7b c2 60 3c
       -0.028920937 -0.02425186 0.013979844 0.013718243
0000c0 20 b7 b3 bc d8 5e 09 bc 8b 31 76 3c df 4b 04 3d
       -0.021937907 -0.008384429 0.01502646 0.03229892
0000d0 66 33 4e 3c 22 d9 da 3b 77 30 79 3c f1 54 db bc
       0.0125854965 0.0066787163 0.015209309 -0.026773902
0000e0 d5 67 31 b9 80 e9 02 bd 4c a4 f0 bc 50 aa af bc
       -0.00016918716 -0.031960964 -0.029375218 -0.021443516
0000f0 74 4f 02 3c e3 e0 ce 3b 38 93 d6 bc f1 c8 59 3b
       0.007953513 0.0063134297 -0.026193246 0.0033231343
000100 bf 54 3a 3c ca dd 22 bc 08 d7 7a bb 88 58 4b 3b
       0.011372744 -0.009940574 -0.0038275141 0.003102811
000110 d2 72 99 3c a7 5a c8 3c d6 23 08 bd 9c 3b 9e bc
       0.018731508 0.024457289 -0.0332373 -0.019315533
000120 eb 37 dc 3b 2f 12 ae 3c a6 dd c4 3c 6f fe b4 3c
       0.006720533 0.021248905 0.024031471 0.02209398
000130 46 92 3d ba c5 6f 11 bd 7e 61 84 bb 4e 18 e5 bc
       -0.0007231574 -0.035506982 -0.0040399423 -0.027965691
000140 e8 df 19 bd f1 ed b5 3c 07 8f 92 3c 02 92 24 bd
       -0.03756705 0.022208186 0.017890466 -0.040178306
000150 89 13 6f ba ee e0 50 bc ad dd 42 bc 30 ed 80 bc
       -0.00091200374 -0.01274894 -0.011893672 -0.0157381
000160 69 47 55 3c 47 72 8b bc 8c eb 17 3c 3c 32 6d 3c
       0.013017514 -0.017022265 0.009272467 0.014477309
000170 89 28 c6 3c 04 30 ab 3b 7a dc 24 bd e2 61 ea bc
       0.02418925 0.00522423 -0.040249325 -0.028611127
000180 21 78 1b 3c 34 ed 56 b9 c6 47 04 bd 67 20 d5 bc
       0.00948909 -0.00020496995 -0.03229501 -0.026016427
000190 d6 35 c9 3c d0 64 8a 3c cb eb ae bc fe 6c 7d bc
       0.024561804 0.016893774 -0.02135267 -0.01546788
0001a0 5a d3 1a bd b4 6a e9 bb e2 7c 01 bd 3b 24 fa bc
       -0.037799217 -0.0071233157 -0.03161324 -0.030534854
0001b0 83 3b 1a bc 43 1d 1f bb 51 eb a5 bc f9 1e 5c 3c
       -0.009413603 -0.0024278916 -0.02025381 0.013435119
0001c0 ba d0 db bc 9a cc cf 3c 58 93 ce 3c 50 41 d3 bc
       -0.026832927 0.025366116 0.025216743 -0.02578798
0001d0 85 ee 92 bb ad 9b 99 bb 26 78 b3 ba 1a 45 6c 3b
       -0.004484 -0.0046877475 -0.0013692423 0.003605193
0001e0 9f 86 c0 3b d5 41 ad bb 38 e2 bb bc eb 5c 0b 3c
       0.005875423 -0.005287389 -0.022935018 0.00850604
0001f0 c4 f0 20 bd dc 93 d9 bc d0 c4 7e bc 78 af c0 bc
       -0.039292112 -0.026559763 -0.015549853 -0.02352117
000200 a6 2c 96 bc ed 73 08 bd 57 34 55 bc be 0e 5e 3b
       -0.018331837 -0.03331368 -0.013012967 0.0033883299
000210 b4 ac db bc 02 77 cf bb f4 84 b3 3c 61 9d 25 bc
       -0.02681575 -0.0063313255 0.021913983 -0.010108323
000220 6f 5e ba bb f3 25 f4 bb 3c cf c8 3a 68 d8 83 3c
       -0.005687527 -0.007450813 0.001532055 0.016094401
000230 48 d1 ec 3c 60 4f 68 3c 1b cf c9 3c 6c dd 0e bc
       0.028908387 0.014179081 0.024634888 -0.008719783
000240 ee a1 f5 bc d3 ad 79 bc fd 29 d5 3c 30 48 ea bb
       -0.02998444 -0.015239197 0.026020998 -0.0071497187
000250 e1 27 c2 bc 88 0d 02 bd 14 a7 19 bd b6 2e 0d bd
       -0.023700656 -0.031751186 -0.037512854 -0.034468375
000260 a2 c5 38 bc 29 9b 33 3c bb b9 2e 3c ff 62 1e bd
       -0.011277588 0.010962286 0.010664399 -0.03866863
000270 a2 82 9f 3c de 23 dd bc 0f 2b a8 bb 46 fe a5 bc
       0.01947147 -0.026994642 -0.005132086 -0.020262849
000280 af ac 5a bc 06 2a 49 bc 65 88 14 bd fb 94 10 bd
       -0.013346835 -0.012278086 -0.03626289 -0.03529833
000290 53 0c 22 bc db 45 d3 bb 27 69 b5 bc eb df dc 3b
       -0.009890634 -0.0064475364 -0.022144867 0.0067405603
0002a0 fb 9b 16 bd cf 8f 13 bc b1 6e c4 3c 6d 45 a7 bc
       -0.03676985 -0.009006455 0.023978563 -0.020418847
0002b0 2f e7 be 3c 9b 27 d5 3b bf 9d 17 bd d5 ad 64 3c
       0.023303596 0.0065049655 -0.037015673 0.01395746
0002c0 51 b9 24 bc bc 70 b6 bc b4 50 9e 3c 8a 65 09 bd
       -0.0100539485 -0.022270553 0.019325592 -0.0335441
0002d0 6d f7 74 bb ba 87 69 bc d7 3c 90 3c 6d 53 0c 3b
       -0.0037378923 -0.014253551 0.017607136 0.002141203
0002e0 59 c6 10 3c 87 67 b1 3b 8b 87 76 bc 7d f9 65 bc
       0.008836352 0.0054139527 -0.015046964 -0.014036533
0002f0 15 d3 08 bd e2 9a 33 3c e4 92 9d 3c 13 18 88 3c
       -0.03340443 0.01096222 0.019235082 0.016613042
000300 9e 1e f6 bc ea 23 9f bb f1 fa de bc ac 2d d0 bc
       -0.030043896 -0.004856576 -0.027219268 -0.025412403
000310 4d 11 da bc a8 e4 aa 3b 23 91 e0 bc ad 9c 07 bc
       -0.026619578 0.005215246 -0.027412957 -0.0082771005
000320 01 b3 ba bb a5 c1 6c 3c db 0e 04 bd f0 07 f0 bc
       -0.0056976085 0.014450465 -0.03224073 -0.02930066
000330 59 79 d3 bc 6e 9a 89 3c 9c fe 85 bc e3 25 b1 3c
       -0.025814699 0.01679727 -0.016356759 0.021624511
000340 0d 48 b9 3b a4 91 30 ba d3 b7 ee bb 0d 5c 5f bc
       0.005654341 -0.00067355693 -0.007285097 -0.013632786
000350 1e 74 12 bb 24 23 71 bc 1f ba f0 bb 70 61 13 bb
       -0.0022347043 -0.014717851 -0.007346406 -0.0022488497
000360 cb f8 06 bd 7c 7c c8 bc a2 da ac 3c 15 d5 09 bd
       -0.03295211 -0.024473421 0.021100346 -0.033650476
000370 6a 51 17 bc 23 42 e2 3c b5 11 c6 3b 69 c0 a4 bb
       -0.009235719 0.027619427 0.0060445913 -0.00502782
000380 3b ad 06 bd 0e 12 1b 3c 3f c5 fc bc 36 bd 81 bc
       -0.03288005 0.009464754 -0.030855773 -0.015837293
000390 27 33 96 bc a3 c0 45 bc 36 0a c6 bb c5 c7 cc 3c
       -0.018334938 -0.012069854 -0.0060436977 0.024997601
0003a0 d1 24 03 3b 00 7d f7 3c 35 3d 5f 3c 20 0b e5 bc
       0.0020010958 0.030210972 0.013625433 -0.027959406
0003b0 da d7 1d 3c e7 57 f7 bc b8 7e ac bc 80 ec 81 3b
       0.009633983 -0.030193282 -0.021056518 0.0039649606
0003c0 48 76 89 3b 1e 7b 93 3c b0 ec 79 bc 27 ae dd bb
       0.0041950084 0.018003043 -0.015254185 -0.0067651453
0003d0 a3 30 25 3c f5 cd 1c bd f7 78 d8 3c 1e c9 cc bc
       0.010082397 -0.038282353 0.026424868 -0.024998244
0003e0 f8 80 93 3b 4a cb 44 bc de 75 c5 bc e7 6f f8 b9
       0.0045014583 -0.0120113585 -0.024104055 -0.0004738562
0003f0 79 53 dc 3c 57 7e 21 bc df 2d 8c bc 63 f0 a0 bc
       0.026895272 -0.009856782 -0.017111717 -0.019645875

conv1.bias f4 [64]
000000 89 09 1b 3b 24 8d c2 3c c6 a4 3b bc 00 b6 61 3b
       0.0023656806 0.023748942 -0.011452859 0.0034440756
000010 b7 ae 15 bd 3d 94 01 3c b2 2a 5e bc 95 e7 ed 3b
       -0.036543574 0.007908878 -0.013559984 0.0072602727
000020 c0 c7 2b be 78 6a 03 be 7a 8b d0 3c a5 e7 1f bc
       -0.16775417 -0.12833583 0.025457133 -0.009759818
000030 ea a9 3d be 25 17 18 be 94 ee 1d bd 52 4b 20 3c
       -0.18521848 -0.14852579 -0.038557604 0.009783583
000040 3b 88 82 bc 93 d7 b5 bc 4b a3 84 bd a4 60 91 bc
       -0.0159341 -0.02219752 -0.06476458 -0.017746277
000050 09 9f 15 bb ce 0f a7 bc 19 b1 dc bc 84 64 8d bd
       -0.0022830388 -0.020393278 -0.026939915 -0.069039375
000060 05 30 ca 3b 11 73 23 be e9 d9 92 bd c0 b7 57 bd
       0.006170275 -0.15961863 -0.07170469 -0.052665472
000070 2f c1 14 bd 0a 8f 62 3b 69 64 2b bc 61 ef 37 be
       -0.036317047 0.0034570121 -0.010460951 -0.1796241
000080 55 ac 59 3c 26 5c e6 bd cd 3e 37 3b dc 9d bc bc
       0.013285716 -0.11248045 0.0027961016 -0.023024492
000090 20 14 8d 3c f2 1b 9d 3c 27 ea 40 3e eb 90 66 3c
       0.01722151 0.019178364 0.18839322 0.014072637
0000a0 1f 6f 5e 3c b1 41 cd bd a3 be 1a 3c 88 3b e6 3c
       0.013576298 -0.10022295 0.009444865 0.028104559
0000b0 5f 77 ea 3c 75 fb 9b bc f2 53 3a 3c a5 7a d5 bc
       0.028621374 -0.019040802 0.011372553 -0.026059458
0000c0 ce c8 0f bd 78 77 00 bd c2 5f cc bc 50 1a bc bc
       -0.03510361 -0.031363934 -0.024948005 -0.022961766
0000d0 f5 45 59 3c 1d de 00 be 23 89 4f bc df 69 08 bd
       0.013261308 -0.1258473 -0.012666973 -0.03330409
0000e0 18 07 d7 bb 95 c1 bf 3c c4 86 15 3c 68 67 5a bc
       -0.006562125 0.023407737 0.009126369 -0.013330318
0000f0 d9 47 bd 3c bd 04 95 bd 91 96 da bc 96 d9 76 bc
       0.023105549 -0.072762944 -0.026683124 -0.015066525

conv2.weight f4 [128, 64, 3]
000000 a7 24 7e bd 26 5d 80 3c a9 e3 ca bc 1e a1 80 3c
       -0.062046673 0.015669417 -0.02476676 0.015701827
000010 cf 79 cc 3c 62 ac 7b bd 80 8f 83 3d 44 08 7a bd
       0.024960427 -0.061443694 0.06423855 -0.06104304
000020 4e 8b 2d bd 85 fd 49 bd 50 88 7b bc d0 5d 7d 3c
       -0.04236918 -0.04931404 -0.015352324 0.015464261
000030 95 37 4f bd ff e1 16 bd fa e6 16 bd af 5a 51 3c
       -0.050590117 -0.03683662 -0.03684137 0.012777968
000040 73 13 b3 bc d5 07 03 bd 9a 07 43 bd 71 77 04 3d
       -0.02185986 -0.03198989 -0.04761467 0.03234047
000050 04 14 46 bb da 0a c6 bc 33 6f 9b bc 7a 34 6d 3c
       -0.0030224333 -0.024175096 -0.018973922 0.014477843
000060 f0 da b6 bc d9 f5 0e 3c 00 da 6d 3d e9 71 56 bd
       -0.022321194 0.008725607 0.05806923 -0.052354727
000070 1a b5 8e bc d0 e0 d8 3c 2c 2d b8 bc 0c 31 48 3d
       -0.01742034 0.026474386 -0.022482477 0.0488749
000080 40 52 ce 3c a9 87 6c 3d a7 68 3f bd b7 2d 19 3c
       0.025185704 0.057746563 -0.046730664 0.009349278
000090 5f 05 c7 bb b2 1d c5 bd 08 7c 3b 3d bb 98 8b bd
       -0.0060736383 -0.096248046 0.045772582 -0.068162404
0000a0 96 04 74 bd 6e c2 f4 bc 78 b6 06 bc d5 fe 9d bd
       -0.059574686 -0.029877868 -0.008222215 -0.07714621
0000b0 4d e7 05 bd 97 f3 84 3d 8f 35 8d bd 0b f8 8d 3c
       -0.03269129 0.064917736 -0.06894981 0.01733019
0000c0 c0 2b 67 bd 8b 90 78 3c 6d ae 7d 3d 9d 4a 1d bd
       -0.056438208 0.0151711805 0.061933924 -0.038401235
0000d0 7f e6 87 bd ee 9d df 3b 6f 49 13 3c 37 7f de 3b
       -0.066357605 0.0068242466 0.008989676 0.0067900675
0000e0 d9 71 e8 3b 53 aa 59 bc f0 b7 a4 bd 43 ee 7d bd
       0.00709365 -0.013285237 -0.08042896 -0.061994802
0000f0 93 04 19 3d f2 da 79 3d a8 0f 67 bd 88 58 c7 3c
       0.037357878 0.06099982 -0.056411415 0.024334207
000100 5a 79 5c ba c9 6b 04 bd 52 63 da 3c 46 af 8c 3c
       -0.0008410417 -0.032329354 0.026658688 0.01717342
000110 b6 27 f7 3c 20 82 22 bd 33 9d 3b bd 66 1b af 3d
       0.030170303 -0.039674878 -0.045804214 0.08550148
000120 86 b4 44 bc 3e 34 97 bd 4b 68 4e bd 6e 28 be bc
       -0.012005931 -0.07383011 -0.05039243 -0.023212638
000130 e6 cc 8e bd 04 f4 35 bd 75 9f b0 bd 12 b1 c5 bd
       -0.06972675 -0.044422165 -0.08624164 -0.09652914
000140 30 8c 39 bd cd e5 4e bc f6 55 92 bd 03 3f b4 bc
       -0.04529971 -0.012628031 -0.07145302 -0.022002703
000150 f3 07 25 bd dd ad 72 3d d7 97 5a 3d 14 29 8a bd
       -0.040290784 0.05924784 0.053367462 -0.06746116
000160 91 5e 95 bd 33 16 6e bd 5a 8a 32 bd 6f 9e 53 bc
       -0.07293428 -0.05812664 -0.043588974 -0.0129161915
000170 32 fa 6e 3c 7f 6a b7 bd 40 4f e7 bd bc a6 50 3c
       0.014586018 -0.089558594 -0.112944126 0.012735065
000180 da 5c fc 3b 0d 6b 7e bd c1 8b fa bc 44 87 06 be
       0.0077014985 -0.06211381 -0.030584218 -0.13137537
000190 63 9e cc bd 78 2d b8 bc a0 02 f9 3c 20 1f d2 3c
       -0.09991147 -0.022482619 0.03039676 0.025649607
0001a0 a7 90 e7 bb 7a 79 5e bd 30 0e 26 3c c2 03 53 3d
       -0.0070668045 -0.054315068 0.0101352185 0.051517256
0001b0 92 ab 1b bd 99 3d 96 3c 50 c2 a7 3d 02 a9 8c bd
       -0.03800542 0.018339919 0.08191359 -0.06868173
0001c0 16 71 2f 3d e8 66 9e bd 74 af 93 3d 90 38 0c 3c
       0.042832457 -0.077344716 0.072111994 0.008558407
0001d0 22 9e 35 bd 73 d3 59 3c 5e 68 40 3c c3 ed 6f bd
       -0.04434026 0.013295042 0.011743633 -0.058576357
0001e0 be a6 17 bd 82 0d eb b9 ef cd bb bb 0a f1 29 bc
       -0.037024252 -0.00044832757 -0.0057313363 -0.01037241
0001f0 c4 3f 9d b9 56 6f 6f 3d 7b 45 c8 3c 3d dd cf bd
       -0.00029992883 0.058455788 0.024447193 -0.1014962
000200 40 5f 9c bc 46 62 13 bd df 87 16 bd 24 b6 13 bd
       -0.019088387 -0.035982393 -0.03675067 -0.036062375
000210 bc 05 28 3d 40 32 0e 3d e0 84 79 bd 60 dc d2 3b
       0.041021094 0.03471589 -0.060917735 0.006434962
000220 38 ca 89 bd 68 f9 79 3d 5e a8 62 3c 94 c2 59 3d
       -0.06728023 0.061028868 0.013834087 0.05316408
000230 f3 de 0c bd 5a 34 63 bd c7 fe 5c 3c 94 de 20 3d
       -0.03439231 -0.05546985 0.013488478 0.039274767
000240 71 5e 8a bd 26 0d 49 bd 43 d2 34 bd ab 1e 90 bd
       -0.067562945 -0.049084805 -0.044145834 -0.070370995
000250 f4 88 f3 bc 71 f6 8d bc d2 9e 13 bd ec 2e e4 bc
       -0.02972839 -0.017329426 -0.036040135 -0.027854405
000260 11 be 33 bd c8 16 bb 3c 4f b7 85 bd 5e cf a9 3c
       -0.043882433 0.022838011 -0.06529104 0.020728763
000270 02 3f 69 bc 08 3b 0a 3c 7a 82 4b 3d e0 ca 8d bd
       -0.014236214 0.008436926 0.04968498 -0.06923461
000280 c5 3c e4 bd 8b 12 3d bc 85 bd e6 3c 00 6e 05 3d
       -0.11144403 -0.0115400655 0.028166542 0.032575607
000290 fe 6a 3e 3d f1 e4 b1 bc 48 6b 6a bc ba f0 22 3d
       0.046488754 -0.021715613 -0.014307804 0.039780356
0002a0 9e 87 60 3d b0 65 0b bb ea 9a 21 3c 4c be 97 bd
       0.054816835 -0.0021270327 0.009863595 -0.07409343
0002b0 aa a6 0f b8 9e 18 fa bb c9 7b cf bb 4d 2f 55 3d
       -3.4249075e-05 -0.007632329 -0.006331895 0.052047063
0002c0 7f 8c 0d ba f9 bb 1c bd e0 28 c3 bc 01 ea 44 3d
       -0.00053996587 -0.038265202 -0.023823202 0.048074726
0002d0 ee 4a 54 39 c8 ff 89 bd 96 c8 23 3d 38 23 af bd
       0.00020245809 -0.067382395 0.039986216 -0.08551639
0002e0 a1 3c a7 bc 63 cc dd 3b 3a 64 98 bd 8a f8 ef bc
       -0.020414652 0.0067687496 -0.07440992 -0.029293317
0002f0 26 01 1b 3d 84 c7 ba bc ed 45 87 bd 74 e5 66 bd
       0.037842892 -0.022800215 -0.06605134 -0.056371167
000300 48 8b 21 3d 8a d9 03 3d 18 8e 00 bd 17 ef 47 3c
       0.03943947 0.032189883 -0.03138551 0.012203
000310 8a 2e 78 bd cd c1 7d ba 71 01 82 bc 87 74 90 3c
       -0.060591258 -0.00096800626 -0.015869828 0.01763369
000320 cc 93 66 bd b0 ea f1 bb 93 3b 08 bd 2e ff 18 bd
       -0.056293294 -0.0073827133 -0.03325994 -0.037352733
000330 5b 82 26 bd bf b4 3e bc 59 8c a3 3c 54 74 e1 bc
       -0.04065166 -0.011639773 0.019964384 -0.02752129
000340 09 8c 98 bc 5c 36 ad 3c 20 50 49 bb 14 c0 17 ba
       -0.018621461 0.021144085 -0.0030717924 -0.0005788815
000350 eb 07 ee bc 20 51 97 3b b0 a5 9f bd 81 c1 31 3d
       -0.02905651 0.004617825 -0.07795274 0.04339743
000360 e9 17 91 bd a3 29 d7 bc b9 0a cc bd 78 67 ba bd
       -0.070846386 -0.026264971 -0.09962983 -0.09101766
000370 d1 f5 29 bd b0 0d a4 bd e7 56 45 3c 7f 12 96 bd
       -0.041494194 -0.08010423 0.012044645 -0.073277466
000380 b6 3d cc ba 4c f3 9c bd 2f 91 eb 3c 40 de 30 bd
       -0.0015582356 -0.07663593 0.028755752 -0.043180704
000390 f1 8a b7 bd 3c 5a c3 bd 96 83 61 bb 47 50 b0 bd
       -0.08962048 -0.09538695 -0.0034410707 -0.08609062
0003a0 6d 04 70 bc 2a 09 fc 3b 3d 9d 83 bc 50 f2 6c bd
       -0.014649493 0.007691522 -0.016066188 -0.057848275
0003b0 90 8c 8c 3c c6 bf 6a 3d de f0 d2 3c fe c4 cf 3c
       0.01715687 0.057311796 0.02574962 0.025362488
0003c0 2b dd 11 3d c9 2e cf bc 67 b1 82 3c 5d 8b de bc
       0.035611313 -0.025290864 0.015953733 -0.027166063
0003d0 42 b3 52 3d f5 31 54 bd 6e 00 96 bd 42 8b 8e bc
       0.051440485 -0.051805455 -0.07324301 -0.017400388
0003e0 db 17 53 bd da 44 53 3d c3 23 63 bd 5d 32 c2 3c
       -0.051536422 0.051579334 -0.055454027 0.023705656
0003f0 e7 1f 80 ba 20 52 c4 bc d6 0a 6e bd cc ec 22 3d
       -0.0009775133 -0.023964942 -0.058115803 0.03977661

conv2.bias f4 [128]
000000 d5 08 97 bd d9 3d 82 3d 73 85 8e bd a9 21 15 bc
       -0.073747315 0.06359453 -0.06959047 -0.0091022635
000010 49 0f d0 bd c1 d8 b0 bd 4f 02 d0 bd 82 ba 36 bd
       -0.101591654 -0.086350925 -0.1015669 -0.04461146
000020 e9 7d 9a 39 96 1e 88 bd 41 ca 61 bd 88 34 3e 3d
       0.0002946698 -0.06646459 -0.055124525 0.046436816
000030 78 93 af bd d0 ed 3e 3c 7e e6 f1 3d b3 5b 9e bc
       -0.08573049 0.011653379 0.11811541 -0.019330835
000040 40 79 7e 3c 34 a9 47 bd 1e 33 00 be ce a4 16 3d
       0.015531838 -0.04874535 -0.125195 0.036778264
000050 02 3b 45 bd 11 7a b8 bd 0b 0f 91 bd 48 15 93 bb
       -0.048151977 -0.09007657 -0.07082947 -0.004488621
000060 b9 dd 31 bd af 80 3a bd 4e 6e be bd b2 a4 af bd
       -0.04342434 -0.04553288 -0.09298383 -0.08576335
000070 06 46 08 bd 41 73 7d bd d9 72 84 3d b4 c3 82 bd
       -0.033269905 -0.061877493 0.06467218 -0.06384984
000080 01 8b 92 bc 4e ca e0 bc 67 86 e3 bb fe 4a 1f 3e
       -0.017888548 -0.027440216 -0.0069435122 0.15555951
000090 b2 77 47 3c 8f be 12 3c 17 94 ce bc 47 16 0b bd
       0.012174534 0.0089565655 -0.0252171 -0.033956792
0000a0 3d 05 2e bc 55 6a 99 bd 3a 1e 90 bd 17 53 82 bd
       -0.010621366 -0.07490984 -0.07037015 -0.063635044
0000b0 03 0f bb bc de 6d 58 bd 5d a6 62 bd 88 79 09 3e
       -0.022834307 -0.052839153 -0.055334438 0.13425267
0000c0 cf e7 1e bd 3a fc 34 bd b4 93 12 bb 7a bb ae 3d
       -0.03879529 -0.044185854 -0.002236587 0.08531852
0000d0 e4 86 68 3c 9e 67 12 3d 27 1e 73 bd 51 43 da bb
       0.014192317 0.03574335 -0.059354927 -0.006660857
0000e0 91 2a a2 3d 75 2a 10 bd e6 17 1f 3c c8 df bc bd
       0.07918275 -0.03519674 0.009710288 -0.092223704
0000f0 e3 55 79 bd e7 96 49 3c 77 4f 4e 3d 6b 8e 35 3c
       -0.060872924 0.012304044 0.050368752 0.011081318
000100 3b 58 52 bd 9c 60 c7 bb 00 12 70 3c cc 1a bd bd
       -0.051353674 -0.006084515 0.014652729 -0.09233627
000110 ec 91 fe 3d 5c 1b 86 bc a4 85 cd bb 78 d2 84 bd
       0.12430176 -0.016370468 -0.0062720347 -0.06485456
000120 aa ba d8 3c aa 12 e0 bb 27 cf cb bd 26 bf 03 bc
       0.026456196 -0.0068381624 -0.099516205 -0.008041179
000130 85 77 03 bb a1 63 a8 bd ca 2c 4e 3c 51 9a b3 bc
       -0.0020060253 -0.08222128 0.012583921 -0.02192417
000140 97 62 94 3c cd 85 89 bd 68 3f 89 bd e0 68 2f bd
       0.018113418 -0.067149736 -0.06701547 -0.042824626
000150 b8 9c fd bd 07 7f 70 bd ab 6e 64 bd 3f 85 e1 bc
       -0.12383407 -0.058714893 -0.055769604 -0.027529357
000160 d7 f4 85 bd a3 26 9d bd 95 ad 42 bd 98 67 6d bc
       -0.0654084 -0.07673385 -0.047528822 -0.014490031
000170 4c c3 01 bd 2c a4 48 bd ed 19 e3 3c b6 dc ff bb
       -0.03168039 -0.04898469 0.027722323 -0.007808293
000180 09 2c 44 3d ba 10 aa bb 6d 33 0d be 20 b0 8d bc
       0.047893558 -0.0051899822 -0.13789149 -0.017295897
000190 cc fb 0c bd bd 97 37 3c 4d 9f 62 3a ac cf 36 bd
       -0.03441982 0.011205611 0.00086449535 -0.044631645
0001a0 31 14 43 bc 22 9e c6 3b 13 7b a6 3c 18 41 6f bd
       -0.0119066695 0.0060613314 0.020322358 -0.058411688
0001b0 ff 86 77 bd ed b6 54 bd d6 ca 1c bd c7 ff 41 bd
       -0.060431477 -0.051932264 -0.038279377 -0.04736307
0001c0 bd 42 e1 bc 48 6e 6f 3d 8c 7a 97 bd 4e b8 21 bb
       -0.027497644 0.05845478 -0.07396421 -0.0024676505
0001d0 15 d0 f0 3c 3e 99 bd 3c e4 af 46 3d 83 34 ce 3b
       0.029396096 0.02314436 0.048507586 0.006292881
0001e0 b6 03 25 3b b9 86 a1 bd 6a ab 63 bd 3b b0 65 3a
       0.0025179214 -0.078870244 -0.055583395 0.0008761917
0001f0 78 69 4e 3e c8 eb dd bb 2e 43 96 3c 8c 82 50 bd
       0.2015742 -0.006772492 0.01834258 -0.05090575

lstm.weight_ih_l0 f4 [200, 128]
000000 07 d6 aa 3d b0 67 86 3c 98 55 d1 3b 28 3c 4f 3d
       0.08341604 0.016406864 0.0063883774 0.05059448
000010 fb 9f 25 3e f1 69 d6 3d 1b 27 2a 3e 4d 82 f0 bd
       0.16174309 0.104694255 0.1661648 -0.11743603
000020 9e bc 05 3e 53 73 eb 3d 3a 51 f8 3d d4 0c fd 3d
       0.13060233 0.11496606 0.12124868 0.123559624
000030 43 79 47 bd d8 18 b9 bc c6 5e aa 3c 45 28 4c bd
       -0.04869963 -0.022594854 0.020797145 -0.04984309
000040 a4 c0 90 bd c7 4c 3b bd 55 1e a0 bd c8 70 d5 bd
       -0.07067993 -0.045727517 -0.078182854 -0.10421902
000050 fe 36 4c 3c f4 31 c5 bd 11 7b 1f be 9d e8 65 bc
       0.012464283 -0.096286684 -0.1557429 -0.01403251
000060 52 b2 9a bd 38 e8 af bc a2 48 14 3e 36 8f 43 bd
       -0.07553543 -0.021473035 0.14480832 -0.047744
000070 f7 91 c0 bc bd 39 33 bc 63 ee 98 3d 6e 86 e4 bc
       -0.023507101 -0.010939059 0.07467344 -0.027896132
000080 68 b8 96 bc 6a 6a 83 bd f3 0d e2 3d e4 6d 16 bd
       -0.018398479 -0.06416781 0.11037817 -0.036725894
000090 42 a3 7d 3d 20 f0 d9 bd 7b dd 90 3d 1d 50 d5 bd
       0.061923273 -0.10641503 0.07073494 -0.10415671
0000a0 2d 77 d2 3d dd 38 a6 bc e6 90 a1 bd 07 d4 49 be
       0.10276637 -0.020290786 -0.07888965 -0.19709788
0000b0 a3 80 02 be 27 9a 95 3c 60 e1 fd 3d cc df 2c 3e
       -0.12744384 0.018261982 0.123965025 0.16882247
0000c0 66 08 d5 3d 3e cf 85 bd 8a 58 05 be bf 75 a2 3d
       0.104019925 -0.06533669 -0.13022056 0.079326145
0000d0 fb a0 08 3e 9c 51 b8 3d 5d af b4 bd 6d 30 df 3d
       0.13342659 0.08999941 -0.088225104 0.10897908
0000e0 21 56 0e bb 3c 85 a7 3d 5c 2c 96 bd c8 ad 48 bd
       -0.0021718817 0.08179709 -0.0733268 -0.048993856
0000f0 fd 36 71 3d f2 2d c5 3b d5 07 81 3d db 58 7b be
       0.05889033 0.00601744 0.06300322 -0.24545614
000100 59 77 48 3e bb fd 43 3d f0 29 9a 3c ca 09 16 3e
       0.19576778 0.047849398 0.018818825 0.14652172
000110 e5 27 f5 3c 34 8b 60 3d ab a3 9e bd d1 6a ba bb
       0.02992625 0.054820254 -0.07746061 -0.005689003
000120 0a 0b 07 be f2 0f 6a 3d e9 07 cb 3c bd 9a 08 3d
       -0.13187805 0.057144113 0.024784045 0.033350695
000130 57 1b 33 3d 13 e2 4c bd 31 53 b3 3c 50 b3 b6 bd
       0.043727245 -0.05002029 0.021890255 -0.0892092
000140 22 20 b7 3d 65 fc a1 bb 43 93 20 bd 63 a2 7d 3d
       0.08941676 -0.004943418 -0.03920294 0.061922442
000150 a4 92 4f bd e0 0b 86 bd 1e f8 c4 3d 3a 17 84 3d
       -0.050676957 -0.06545234 0.09617637 0.064497426
000160 8e 9e 85 3d 28 4b 1f 3d 08 c6 cc bd df 2e 73 bd
       0.065243825 0.038890034 -0.09998709 -0.05937087
000170 df ae 35 3e 7d 88 f1 3d 22 45 1b 3d 41 fa a3 bc
       0.1774249 0.11793611 0.037907727 -0.020016791
000180 a5 0c 83 bd e5 bc de bd c2 89 d6 3d a1 1f 3a 3e
       -0.06398896 -0.108758725 0.10475494 0.18176128
000190 ca 5c c8 bd bc 98 b0 3d 06 36 03 3e 83 0d a9 3c
       -0.09783323 0.08622882 0.12813577 0.020636326
0001a0 c7 b5 69 3e 68 11 9d bd a4 b3 8e bc 9e 4a ad bd
       0.22823249 -0.076693356 -0.017419644 -0.08461498
0001b0 26 82 95 3d d2 4a c0 bc 60 75 13 3e 6c 0e 75 bd
       0.073002145 -0.023473177 0.14400244 -0.059828207
0001c0 b9 d9 11 3d 02 a1 5c bd c3 07 23 3d 18 c2 7c 3c
       0.035608027 -0.053864487 0.039802324 0.015427135
0001d0 6b c8 77 3b ea d3 ad 3d 07 e2 e5 bd da 12 f1 3d
       0.0037808667 0.08487685 -0.11224752 0.11771174
0001e0 00 8b 45 bd 86 60 98 3d e1 df b1 3d 05 d4 5a bd
       -0.048228264 0.074402854 0.0868528 -0.053424854
0001f0 06 4a c0 3d 2d e9 cc 3d 1b 29 8c 3d 27 f8 f6 bc
       0.09389119 0.10005412 0.06843778 -0.030147625
000200 dc 5d f1 bc 4f 9d b6 bd 26 28 b3 bd 01 f2 ff 3c
       -0.029463701 -0.08916723 -0.08747892 0.031243326
000210 88 b8 a6 bd a0 c6 6c 3d da 08 91 bd 93 cc a8 bd
       -0.08140665 0.05780661 -0.070817664 -0.082421444
000220 07 1b 23 be 4b db ce bd fc 01 fd bd 9d e5 c3 3d
       -0.15928279 -0.101004206 -0.12353894 0.0956528
000230 df 2e 2f 3d 7f 9d b5 bd b1 7c 0f be ae 3a e2 3d
       0.04276931 -0.088679306 -0.1401241 0.110463485
000240 b9 10 5f bd 46 a3 ee 3d 73 97 f7 bd 7f fe e3 bc
       -0.054459307 0.11652236 -0.120894335 -0.027831314
000250 95 e7 27 3d c0 c6 03 3e 43 81 f2 bd 92 b9 15 3e
       0.04099234 0.12868786 -0.11841061 0.1462157
000260 c4 fa 2e bb 10 62 19 3d aa da 24 3d 6b 10 0c be
       -0.002669976 0.037447035 0.040247597 -0.13678138
000270 98 94 0c 3e ed b7 86 3c ac b2 55 3d 7d 8e 67 bc
       0.13728559 0.016445125 0.052172348 -0.014133093
000280 be 38 07 3e 5d 54 45 39 61 2a ed 3d e3 9c 1d 3d
       0.13205239 0.00018818812 0.11580349 0.038479697
000290 7b b1 08 3c d2 02 23 3e e8 5e 61 3d 1b 92 a4 3d
       0.008343096 0.15919045 0.05502215 0.0803568
0002a0 de b6 96 bd 38 75 b8 3c 33 dd 72 3d 98 01 d7 bd
       -0.07359098 0.022516832 0.059292983 -0.10498351
0002b0 ac e9 9c 3c 30 66 db bd fa 43 95 3d 04 e4 b6 bc
       0.019154392 -0.1071285 0.07288356 -0.022325523
0002c0 2d 87 78 3d b3 24 ff bd 1c 5e ed bd 6e 87 19 be
       0.06067579 -0.12458172 -0.115902156 -0.14993069
0002d0 31 d4 e4 bc f9 51 5f 3d fa c8 a9 3c b7 ba 2e 3c
       -0.027933212 0.054521535 0.020725716 0.0106646335
0002e0 27 a9 6e bd bc 7b 16 be ae 08 bb 3d 6b a7 f9 bd
       -0.058266785 -0.14695638 0.09132515 -0.121901356
0002f0 52 fd 11 3d 95 54 83 3c 36 14 c1 bc 44 98 0e bd
       0.035641976 0.016031543 -0.023569208 -0.03481318
000300 52 9a 2c 3d fd 08 f3 bd cd ff ab bd 32 ee b6 3d
       0.04213936 -0.11866949 -0.083983995 0.08932151
000310 07 88 be bd 4b 1a 24 bc b6 42 d9 bd 5d b4 9e 3d
       -0.09303289 -0.010016034 -0.10608427 0.07749245
000320 b5 c7 e4 3c 15 0a c8 3c b0 6a cb bd a2 ab b6 bd
       0.027927259 0.02441887 -0.099324584 -0.08919455
000330 fb 35 c9 bc 5d 1e 51 bd e6 30 f9 ba 3b 11 ac bb
       -0.024561873 -0.051054347 -0.0019011765 -0.0052510775
000340 70 1c d3 bd 6d 54 99 3c cb b8 e4 bd 87 28 83 bc
       -0.103081584 0.018717015 -0.11168059 -0.016010536
000350 16 c1 26 be e5 97 1b 3d 36 e1 dd 3d 1f 5f 13 3e
       -0.16284594 0.037986655 0.10833971 0.14391755
000360 16 a8 a9 3d c8 09 f9 bd 6d 0f c9 3d f2 d9 e7 bd
       0.08284013 -0.12160069 0.09817395 -0.11320867
000370 fd 17 de bd c6 ef 7c bc d6 53 4e 3d 55 24 eb 3d
       -0.10844419 -0.015438026 0.05037292 0.11481539
000380 f4 60 35 3e c1 80 ce 3d 14 a0 af bd 4b 96 4f bd
       0.17712766 0.100831516 -0.08575454 -0.05068044
000390 63 30 52 bd ff c5 08 bd ac ff 98 3d 26 9d f8 bd
       -0.051315676 -0.03339195 0.074706405 -0.12139349
0003a0 ea 8b b3 bd 32 5c 10 bb 59 72 d7 3d d1 7e 0d bd
       -0.08766921 -0.002202761 0.10519857 -0.03454477
0003b0 a5 0f f6 3d 19 c5 9f bd f4 1b b2 3d ac 10 0c be
       0.12014703 -0.07801265 0.08696738 -0.13678235
0003c0 71 a9 10 3c cc 62 ca 3d 07 fc dd bb 58 a5 ff 3d
       0.0088294605 0.09882125 -0.0067744288 0.12482709
0003d0 27 90 04 3d 8c aa ba bd 27 2e 43 bd 1d 25 bf bd
       0.032364037 -0.091145605 -0.047651436 -0.09333251
0003e0 39 7c ea bd 6a 78 c6 bd 6c 78 21 bd 72 3b ed bd
       -0.11449475 -0.09690936 -0.039421484 -0.11583604
0003f0 36 a0 02 3e 8e 52 ff bc 15 ed 51 3d dc 07 ee 3d
       0.12756428 -0.031167295 0.05125149 0.11622593

lstm.weight_hh_l0 f4 [200, 50]
000000 92 fd ac bd fa d1 21 bd c2 89 0c 3e 8b 32 4f 3c
       -0.08446802 -0.03950689 0.13724425 0.012646328
000010 43 df b6 bd 9c 45 11 3e 27 8f bb bc e6 13 95 bd
       -0.089293025 0.1418671 -0.022895409 -0.07279186
000020 d1 92 13 bd 37 f8 38 be d0 00 1a bd 97 52 9b 3d
       -0.036028687 -0.18063436 -0.03759843 0.07584112
000030 51 a6 c9 3c 17 24 89 bd 6a fc f0 bc c9 56 f7 bd
       0.024615439 -0.06696337 -0.029417235 -0.120771
000040 f4 16 1c 3e 94 5b 8b 3d e1 00 8b bd 0a bb 2a be
       0.15243131 0.068045765 -0.06787277 -0.16672912
000050 4e 2c 37 be 95 f3 da 3d a3 f9 2a 3e a3 4a c3 3d
       -0.17887995 0.10690991 0.16696791 0.0953572
000060 02 4c fe 3c 01 fc cf 3c 9d ad 54 bc fa ed 12 3d
       0.031042103 0.02538872 -0.012980846 0.035871483
000070 01 b5 88 3e e6 dd 67 bd 9c f5 77 bd 31 bf 5e 3c
       0.26700595 -0.056608103 -0.060536966 0.013595388
000080 ed 51 d6 be 13 d0 13 3e 60 ac b1 3e 45 9f 83 3e
       -0.4185938 0.14434843 0.34701824 0.2570745
000090 ee cb 1f 3d 37 c2 28 bd c2 13 77 bd 8b 30 46 bd
       0.039012842 -0.041200843 -0.060321577 -0.048386138
0000a0 f3 a2 00 be ad f2 d8 3d 7e 86 63 bd b6 89 5e 3e
       -0.1256216 0.10593162 -0.055548184 0.2173222
0000b0 34 4e 51 bc cb 38 11 3d d9 05 12 bd 62 f0 29 3d
       -0.012774993 0.035454553 -0.035650108 0.041489013
0000c0 98 43 bc 3b dc a0 77 3d c8 d3 af b9 f2 8a 24 3c
       0.0057453625 0.06045614 -0.0003353639 0.010042893
0000d0 8b 77 ed 3d b1 24 d9 3c 60 8d a9 bd d7 98 14 3c
       0.11595067 0.026506754 -0.08278918 0.009069643
0000e0 d7 15 48 3e 3c e8 9f bd d4 79 26 3d 73 39 89 3d
       0.19539581 -0.07807967 0.040643528 0.06700411
0000f0 22 41 fb bd 80 e7 6f bd d5 24 89 3c bb b5 cf bd
       -0.122682825 -0.058570385 0.016741196 -0.10142084
000100 2a d9 a4 3d 0f ed 1d 3e 7e cd 98 3d 15 c5 0c be
       0.08049233 0.15422462 0.074610695 -0.13747056
000110 7c 96 98 bd 2b fc f5 bd 59 96 ca bd 3c b7 d3 bd
       -0.074505776 -0.12010988 -0.09891958 -0.103376836
000120 5c a4 35 38 97 ad ac 3d d5 f5 fb 3c 81 0d 06 bd
       4.3306834e-05 0.08431547 0.03075687 -0.032727722
000130 52 59 1b bd 9a b2 fd 3d 3d 0a fb bd a6 83 5e bd
       -0.03792698 0.12387581 -0.12257812 -0.05432477
000140 e3 e8 06 3d d1 9d 18 3e 94 9f 91 be 0a dc 3d bc
       0.03293694 0.14903952 -0.2844206 -0.011588106
000150 6b aa 8c 3d e2 8c b5 3c 4e 6a 08 3e b8 cd 96 bc
       0.06868442 0.022161905 0.13321802 -0.018408641
000160 eb 72 d9 3d e1 2a 0a 3d 66 86 b8 3d aa f3 06 3e
       0.10617622 0.0337323 0.090100095 0.13178888
000170 ac 55 0d 3e 2b e2 b3 bd 32 42 12 be 5c 9c e1 bc
       0.13802212 -0.087833725 -0.14283064 -0.027540378
000180 f0 3b 32 bd 79 4f 9d 3d 4b af 12 bd f5 3b 73 bc
       -0.043514192 0.07681174 -0.035811704 -0.014845838
000190 06 1e 60 3d 1f b8 e5 3d 91 f7 ca bc 80 2d f3 3d
       0.054716133 0.11216759 -0.024776252 0.11873913
0001a0 ed 33 8a bc 59 6a 8d 3d 27 2c b1 3d 6e 6e 95 3d
       -0.016870463 0.0690505 0.086509995 0.072964534
0001b0 d8 bf 0c be b5 8d b9 bc 55 6b 09 3c 0d 9d 88 3b
       -0.13745058 -0.022650579 0.008387406 0.0041691125
0001c0 70 cd 0c 3e 46 e6 e5 3d b4 e7 95 3d 8f dc c2 3c
       0.13750243 0.11225562 0.073195845 0.023786811
0001d0 e2 8d 0c 3e 18 a2 38 be 29 d1 67 3d 5b 8c 96 3c
       0.13725999 -0.18030584 0.056595955 0.018377474
0001e0 68 39 33 bd 9a e3 97 bd 57 09 89 3d 7d 43 7f 3d
       -0.04375592 -0.074164584 0.066912346 0.06232022
0001f0 30 18 f7 3d e0 27 d5 bd 05 71 89 3c 27 b8 e0 3a
       0.1206516 -0.10407996 0.016777525 0.0017144725
000200 54 d0 98 bd 0e 6d c3 3c 02 f4 ad bc 47 81 4a 3e
       -0.074616104 0.023855712 -0.021234516 0.19775878
000210 0f 30 28 be 40 39 a7 bc 77 a4 fc 3d 92 9b 58 3d
       -0.16424583 -0.020413041 0.12336057 0.05288274
000220 85 a3 f5 3c d8 f8 d3 bd d1 86 f9 3c 8d 79 ba bd
       0.029985199 -0.103501976 0.030459793 -0.09105215
000230 1c ea f2 bd 2e 90 f2 bd 1c b6 a7 3d 50 0f fa 3d
       -0.11861059 -0.11843906 0.081890315 0.12209952
000240 f6 56 05 bd e7 0f cb bd b3 77 c8 bc f0 6a 65 bc
       -0.032553636 -0.099151425 -0.02447114 -0.014002547
000250 6c 40 b1 3a 4c 62 99 bd 97 ed 14 3e f4 1e 5d 3d
       0.0013523228 -0.07489452 0.14543758 0.053984597
000260 64 41 37 bd f2 47 10 3d 34 70 01 3d 05 f3 cc bd
       -0.044740096 0.035224862 0.031601146 -0.1000729
000270 5d bc 1c 3e cc 01 c9 3c 5c 6a 41 bd 8a 99 20 3e
       0.1530623 0.02453699 -0.047220573 0.1568357
000280 3f 13 01 bd 9c 02 d9 bc eb 50 3f 3d ff 2f 1e 3d
       -0.031512495 -0.026490502 0.04670803 0.03861999
000290 a7 72 b2 bd dc 82 0d be a0 cb ca bd a2 8a 84 bc
       -0.087132744 -0.1381945 -0.0990212 -0.016179387
0002a0 3a f2 88 bd 09 e4 15 be 17 52 07 3e ab 9f aa 3d
       -0.06686826 -0.1463777 0.13214909 0.083312355
0002b0 4b fc 24 3e d7 15 1b be 39 63 15 3e 7d 1f fa 3d
       0.16111867 -0.1514505 0.14588632 0.12213037
0002c0 54 fb fb bc 51 5c 12 3e 79 4e 12 3e a2 11 43 3d
       -0.030759491 0.14293028 0.14287747 0.047624238
0002d0 37 75 d4 bd 6b 32 99 bc 19 43 b7 bc bd ad 13 bd
       -0.103739195 -0.018700799 -0.022370862 -0.03605436
0002e0 9c b5 0c bd 40 03 b0 bd 8b 82 48 3d 0d 0b 01 be
       -0.034352884 -0.0859437 0.04895262 -0.12601872
0002f0 0e f4 b9 bd b3 b0 af 3d fd e8 a1 bd 69 2f 0e be
       -0.09079753 0.085786246 -0.07905767 -0.13885273
000300 8a 51 28 be 4c 59 13 bd 4c e1 75 3e 3a e5 13 bd
       -0.16437355 -0.035973832 0.24011725 -0.03610728
000310 44 a1 8c 3d c4 cd 4b be 2b fb df 3d 52 e9 68 bd
       0.068666965 -0.19902712 0.10936578 -0.056863137
000320 a8 b3 25 3e 54 58 8e 3e f3 52 aa bd 81 c9 e7 bd
       0.16181815 0.27801764 -0.083166026 -0.11317731
000330 c5 9e c5 bc 70 91 3a 3d b4 f0 b6 bc 94 bc 96 bd
       -0.024123559 0.045548856 -0.022331573 -0.07360187
000340 9d 4e 15 bd de d9 17 3f b5 45 07 be 0e a1 9a 3d
       -0.036451925 0.59316814 -0.13210185 0.0755025
000350 f5 81 8a bd 43 53 bf bd 9c fe cb 3d 2c f8 54 3e
       -0.067630686 -0.09342053 0.09960672 0.20797795
000360 1c 3d 0c be f7 99 41 3e b4 2b 23 3d 62 65 b6 3d
       -0.13695186 0.18906389 0.0398366 0.08906056
000370 7a c7 ad 3d 41 9e c1 3d f6 22 41 be 25 8d c1 bb
       0.08485313 0.09454013 -0.18860993 -0.0059067183
000380 64 a1 14 be f6 ef 11 be 8e 5f 70 3e 1d 32 b2 3d
       -0.1451469 -0.14251694 0.23473951 0.087009646
000390 05 4f bc 3c 2d 00 fd 3d a9 6a de bd e8 d2 12 3d
       0.022986898 0.12353549 -0.108601876 0.035845667
0003a0 fc 57 a0 3e 3d 32 9e 3a b2 42 06 be 83 75 d4 bd
       0.31317127 0.0012069416 -0.1311138 -0.10373976
0003b0 0f d1 9e 3c 1a 7b 39 3d 0e 19 8c bd ec b0 c3 3d
       0.019386796 0.045283414 -0.06840716 0.095552295
0003c0 75 27 44 3e f1 12 bd bd 37 1b f3 bc 82 20 bd 3d
       0.19155677 -0.092321284 -0.029676063 0.09234716
0003d0 a6 d3 85 bd 16 c9 c1 3d 13 8f 1c be 25 01 cc 3d
       -0.06534509 0.09462182 -0.15288953 0.09961156
0003e0 b0 ae 84 3e e5 2a ff 3d 33 e1 d4 bd 73 cf 67 bd
       0.25914526 0.12459353 -0.10394516 -0.056594323
0003f0 b5 f9 e1 3d 21 2b 0b be cb 69 84 3d 93 1a 80 3d
       0.11033956 -0.13590671 0.06465491 0.06255069

lstm.bias_ih_l0 f4 [200]
000000 dd db bb bc 96 fa 02 3d 23 e7 3d 3e 5b 87 1e be
       -0.022931987 0.03197726 0.18545203 -0.15481322
000010 bb 90 56 3e 2a 9b eb bb 94 23 44 3e 0a 95 dc bd
       0.20953648 -0.007190128 0.19154197 -0.107706144
000020 fb fc 0b 3e 9a 14 fc 3d c6 a2 97 3d 34 36 df 3d
       0.13670723 0.12308617 0.074040934 0.1089901
000030 4e b4 f0 bd 2d 53 0d bd 94 92 cd 3d e5 b2 47 3e
       -0.117531404 -0.03450315 0.10037723 0.19501837
000040 5a 40 cd 3d 6b b6 c7 bd 63 43 25 3e c1 3b d5 3d
       0.1002204 -0.0975159 0.16138987 0.10411788
000050 fe f2 50 3d 99 28 27 be 97 e8 4b 3d d6 98 c1 3d
       0.051012985 -0.1632408 0.04978236 0.09452979
000060 a2 ce 1e be 0c e1 e5 3d 3a ef 07 3e 02 53 d7 bd
       -0.15508512 0.11224565 0.13274851 -0.10513879
000070 ab 5e 89 3e e5 c4 15 3e e9 87 b7 3e ee 0c b7 3d
       0.26830038 0.1462589 0.3584588 0.08938013
000080 2c 05 7d 3e 7a 61 26 bd b0 c5 2b 3e 26 d1 97 bc
       0.24709004 -0.040620305 0.1677463 -0.018532347
000090 89 29 89 3d 28 9b 8b bc 99 58 e2 3c ea f7 94 bd
       0.06697375 -0.017041758 0.027630137 -0.07273848
0000a0 95 ed c6 3d 21 ef 83 bd 49 78 b7 3d 59 03 36 be
       0.09713284 -0.064420946 0.089584894 -0.17774715
0000b0 84 14 de 3d a4 b3 5b 3e 06 75 bc 3c 85 82 2a be
       0.10843757 0.21455246 0.02300502 -0.16651352
0000c0 58 41 95 3d c5 65 29 3e 34 3b f6 bd 81 1c e7 bc
       0.07287854 0.16542728 -0.12023011 -0.028211834
0000d0 ea 3e 1f 3e 52 10 3a be 89 be 62 be 6c 0a c3 bd
       0.15551344 -0.18170288 -0.22142996 -0.09523472
0000e0 34 04 5f be 69 76 b4 bd 28 e7 77 be 47 b2 22 3e
       -0.21778947 -0.088116474 -0.24209273 0.1588832
0000f0 ec 19 68 be 3b df da 3d e4 c4 66 bd 93 b1 0d be
       -0.22666138 0.10687109 -0.056340113 -0.1383727
000100 67 1f ba bd f9 73 11 bd 04 0d 76 be e8 c0 2d be
       -0.09088021 -0.03551099 -0.24028403 -0.16968119
000110 bd a5 30 3d bc 6e 92 3d dd e7 16 be b9 bd 76 be
       0.04312681 0.07150027 -0.14736886 -0.24095811
000120 01 8f 17 bd 4f 20 84 3d 08 98 1b bd 10 6f 01 3e
       -0.037001614 0.06451475 -0.037986785 0.12640023
000130 33 97 43 be f4 c0 26 3d 1b df 7c be e7 85 e4 bd
       -0.19100647 0.04071136 -0.24694483 -0.11158352
000140 52 2d 7e bc 35 4d d2 3c 75 d6 3e be 8d 3f ef bc
       -0.015513735 0.02567158 -0.18636496 -0.029205108
000150 41 fa 89 be d2 e8 99 3d 57 7f 1c be f3 60 ff bd
       -0.2694874 0.0751511 -0.15282951 -0.124696635
000160 8a 25 cd bc 91 7b 36 be 62 ff aa be 7c 44 2c bd
       -0.025042314 -0.17820574 -0.33397967 -0.0420575
000170 9c b5 ae bd 36 62 16 be 3e 2f 30 be 41 0a 0e be
       -0.08530733 -0.14685902 -0.17205521 -0.13871099
000180 72 80 93 3d f7 2e 18 be 14 8e 27 be e3 61 91 bd
       0.072022334 -0.14861666 -0.16362792 -0.070987485
000190 f1 f8 cb bd 03 fb 80 3e e2 bd 8b 3c 49 0d b5 bc
       -0.09959591 0.25191507 0.017058317 -0.022101061
0001a0 34 17 c1 3d cc be 18 bd 91 64 05 3c b9 3c 42 bd
       0.09428254 -0.037291333 0.008141653 -0.04742119
0001b0 6b 59 b1 bb e9 e8 70 3d d2 77 9f 3d 1f 16 13 3c
       -0.005412271 0.05881587 0.07786526 0.008977442
0001c0 25 db cc bd c0 8e bf bd bd 86 fa bd 03 ec 13 bd
       -0.10002736 -0.09353399 -0.122327305 -0.03611375
0001d0 3f 36 c4 bd e1 f7 6f 3d c9 35 68 3d 34 92 93 bd
       -0.09580659 0.058586005 0.05669192 -0.072056204
0001e0 c6 d2 02 3d 88 86 b8 bd 37 32 c3 3d 95 ba 24 3e
       0.03193929 -0.09010035 0.09531062 0.160868
0001f0 35 2b 72 3d 35 04 5b be 6e a8 a2 bd 28 08 b4 bd
       0.059123237 -0.21388324 -0.07942282 -0.08790618
000200 61 57 b8 bd 85 c8 8b ba 48 50 e7 bc 88 51 e2 bd
       -0.09001041 -0.0010664618 -0.028236523 -0.11050707
000210 d3 07 fb 3d 8f bd 4d 3c 00 aa 85 3d 5e 67 9b 3d
       0.12257352 0.012557401 0.065265656 0.07588075
000220 92 f9 af 3d 9b a3 11 3e 1a 72 16 be f6 ff 13 bd
       0.08592524 0.14222567 -0.14691964 -0.036132775
000230 fe e3 f2 bb e1 3e 5f bd 85 21 68 3d 6b b9 a4 3c
       -0.0074124327 -0.054503325 0.05667259 0.020107945
000240 c3 43 36 bd 92 a1 33 3e 65 64 46 3c c0 5d 0a be
       -0.044498216 0.17542103 0.012108897 -0.13512325
000250 eb 6f 11 3e 75 86 28 bd 4b f7 07 bd a9 0d 9b 3d
       0.1420285 -0.041143853 -0.03319482 0.07570965
000260 94 81 9e bc d7 4d 92 bd 13 a7 57 3e 82 1b ba bd
       -0.019348897 -0.07143753 0.21059828 -0.09087278
000270 3d 93 36 3e 4b 15 20 be 21 57 a0 3e de 2a 05 3e
       0.17829604 -0.15633123 0.31316474 0.13004634
000280 96 b5 37 be d2 ed ce 3c 9e ab af 3c 56 64 4f 3a
       -0.17940363 0.025259886 0.021444138 0.00079113746
000290 72 ef cb bd 2f d6 91 3d d7 dd 67 3e 25 04 d9 3c
       -0.0995778 0.071209304 0.22643219 0.026491234
0002a0 3f 43 4e bd 34 7e f8 3c c7 d4 f6 3d 96 cf 1c be
       -0.0503571 0.030333616 0.12052303 -0.15313563
0002b0 8d f4 d2 bc 49 00 9e bc f4 39 8a bd b0 66 87 3d
       -0.025751377 -0.019287245 -0.06749335 0.06611383
0002c0 79 0d 28 3e 1f d2 06 3e af ba 10 3e 57 0e 82 3e
       0.1641139 0.13166092 0.14133714 0.25401565
0002d0 60 8e 79 3e e5 f1 0c be d6 78 aa 3e 27 9b e4 bd
       0.24370718 -0.1376415 0.33295316 -0.111624055
0002e0 c3 cb 11 3e ef 5a 20 be d9 b2 3b 3d 0e af 43 3d
       0.14237885 -0.15659688 0.04582486 0.047774367
0002f0 d3 4e 44 3d b2 d6 28 bc 30 3b 5d 3e 7e 1e a3 3c
       0.047926735 -0.010305094 0.2160461 0.019912
000300 05 12 5c 3e 7d e5 18 3d 89 2a a0 3e e9 fe cc bd
       0.21491249 0.037328232 0.31282452 -0.10009558
000310 0f 4d 37 be 3a 31 54 bd 7f 1a 1b bc a9 92 b6 bd
       -0.1790049 -0.05180476 -0.009466766 -0.08914692

lstm.bias_hh_l0 f4 [200]
000000 4e 9c f0 bd 74 84 49 3e 11 3a 3c 3e 9f 5e 82 bc
       -0.11748563 0.19679433 0.18381526 -0.01591426
000010 3c b0 ef 3c 1b ab 9b 3b 5a 6d 1f 3e 4c ad 82 3b
       0.02925884 0.004750622 0.15569058 0.0039879438
000020 fd 10 ff 3d 9f 94 43 3e a2 74 74 bc 87 86 fb bc
       0.12454412 0.19099663 -0.014920386 -0.030703796
000030 b5 02 64 3d 97 32 16 3d 08 fc ca bd 76 ef 1d bc
       0.055666644 0.03666934 -0.099113524 -0.0096396115
000040 7d 4e 97 3e 37 f4 a7 3d 54 ee 34 3e f3 b2 bc bc
       0.2955207 0.08200877 0.1766904 -0.023034548
000050 5f de 33 3e 32 28 58 3d ad 85 ce bd 67 a9 cc 3d
       0.17565297 0.05277271 -0.100840904 0.099932484
000060 26 2c c6 bd 05 32 37 3e 10 d0 14 3c b4 a0 a2 bd
       -0.096763894 0.17890175 0.009082809 -0.07940808
000070 34 0c 89 3e 8d 0c 31 3d db cb 36 3e 4f 97 58 3d
       0.26767123 0.04322486 0.17851202 0.052878674
000080 3a d3 ab 3e 53 8d f6 3d c6 67 52 3e 6c 4c 08 be
       0.3355959 0.12038674 0.20547399 -0.13310403
000090 82 cc aa bd 8c 59 d0 3d 4b 1f e9 bd 2e e8 42 3d
       -0.08339788 0.1017333 -0.11382922 0.047584705
0000a0 40 32 05 3e e5 fa 38 bd 50 45 54 3d 01 41 d1 bd
       0.1300745 -0.045161147 0.051823914 -0.10217477
0000b0 c9 8d c2 3d ef 5e a8 3c 05 99 24 be d8 dd 82 bd
       0.094996996 0.02055308 -0.16073997 -0.063899696
0000c0 61 3c f0 bd b4 23 0a 3e b5 8f 16 be bf cc 8f bc
       -0.11730266 0.13490182 -0.14703257 -0.017553685
0000d0 39 11 7c bd a3 ce 83 3d a4 d7 68 be f9 66 57 be
       -0.061539862 0.06435897 -0.2273851 -0.21035375
0000e0 0b dc 2f be ba 49 19 bd 40 43 66 be c6 76 6d 3e
       -0.17173783 -0.037423827 -0.22486591 0.2318984
0000f0 1f 23 54 be a2 90 09 3e 68 ff b0 bd cd 93 54 3d
       -0.20716523 0.1343408 -0.08642465 0.051898766
000100 22 6c 5d bd 5b 1f 5c bd 6a cc 4d be f4 e2 3a be
       -0.0540582 -0.05374084 -0.20097509 -0.18250638
000110 ab 3e b6 bd dc ce 99 3c 13 0c 2e be 9f 7e 8b bc
       -0.08898672 0.018775396 -0.16996793 -0.017028151
000120 5a ee 0e bd a7 3a 05 3d 68 68 14 be 06 51 2c 3c
       -0.03489528 0.03252664 -0.14492953 0.010517364
000130 c3 02 6f be 2e ab 9d bd e2 23 8a be f0 7f 88 be
       -0.23340897 -0.076986656 -0.269805 -0.2666011
000140 76 90 3f be d0 4e 1a be a7 ee 8f bd 11 f7 ec bd
       -0.18707451 -0.15069127 -0.07027941 -0.11570562
000150 5b f2 f2 bc 01 34 5c 3d f2 ce 0e bd 86 03 16 be
       -0.02965658 0.053760532 -0.034865327 -0.14649782
000160 b2 57 0b be cb 9a 8e bd aa c2 52 be 53 69 0e be
       -0.13607672 -0.06963118 -0.20582071 -0.13907366
000170 56 0e 5f be 0a d7 64 3b 92 93 9c be d2 7b 28 bc
       -0.21782812 0.0034918212 -0.30581337 -0.010283427
000180 88 dd 7d 3d e8 5a 98 bc 94 90 50 be b0 54 32 be
       0.061978847 -0.018598035 -0.20367652 -0.17415118
000190 d6 42 11 3d 49 8a 07 3e 8c 07 8d bd 8f 49 97 3d
       0.03546413 0.13236345 -0.06886205 0.07387077
0001a0 68 90 ec bd 03 cb 98 bd 4a 8d 45 bd 38 14 80 3c
       -0.11550981 -0.074605964 -0.048230447 0.015634641
0001b0 8b ec 88 bd 8f 23 90 3e b1 17 20 3d cb 68 93 bb
       -0.06685742 0.2815213 0.039085094 -0.0044985763
0001c0 41 bb 9d bd 09 68 a4 3d 9b e1 95 3c 6d 68 32 bd
       -0.077017315 0.08027656 0.018296054 -0.04355662
0001d0 43 02 c9 bc c3 11 0e 3e b6 6e f3 bc 3b bc 4a 3d
       -0.024537211 0.13873963 -0.029715877 0.049495917
0001e0 56 0e 9f bc 3c 58 1b 3b c5 07 bf 3d f1 5f 2a 3e
       -0.019416016 0.0023703715 0.09327654 0.16638161
0001f0 d4 56 88 3c 0f d4 4a be 98 2a ab bd 5b b8 a7 3d
       0.016642965 -0.19807456 -0.083577335 0.0818946
000200 40 88 3a bb 64 b2 a6 bd 88 c0 5d be 12 40 05 be
       -0.002846256 -0.08139494 -0.21655476 -0.13012722
000210 3f 57 4b 3e 3f 50 56 3d f0 62 e1 bd cd 51 45 bd
       0.198575 0.052322622 -0.11005199 -0.048173714
000220 7e cf cc 3d 4f 5b 30 3e b7 79 0a 3c ce b4 8e bd
       0.100005135 0.17222331 0.008451871 -0.069680795
000230 ea 5f 8e bd 74 f0 7e 3d 7a 7a 90 bd 10 ef 1e 3d
       -0.06951888 0.062241033 -0.070546106 0.038802207
000240 45 a4 ba 3d 51 1c f8 3d b5 28 f6 3d d8 0c 79 3d
       0.09113363 0.12114776 0.12019483 0.060803264
000250 af 81 42 3e 5a 09 5f 3d d4 7c 92 3d 12 d8 8b 3c
       0.18994783 0.054452278 0.07152715 0.017070804
000260 8b d0 34 bd 68 ab 40 be 9b a6 25 3e 3b 4b 9b bd
       -0.044144195 -0.18815386 0.16176836 -0.075827084
000270 1a 4e a2 3d be 08 2a bc d5 c4 26 3e e7 ef 48 3e
       0.07925053 -0.010378061 0.16286023 0.19622765
000280 07 ff 32 bc 18 41 cb bc 8f 5e 92 bc 39 b7 82 bd
       -0.010925061 -0.024811313 -0.017867355 -0.06382603
000290 2b b7 f0 bd 82 cf 08 3e f3 00 2b 3e ef af fd 3c
       -0.117536865 0.13360408 0.16699581 0.03096768
0002a0 04 6c 82 3d 17 3b 52 3d 99 89 37 3e c7 b4 2b bb
       0.063682586 0.051325884 0.17923583 -0.002620028
0002b0 71 2f a7 bd 21 14 22 3e ec 5c 54 bd 26 e0 cd 3d
       -0.081633456 0.15827991 -0.05184643 0.100525185
0002c0 4d 6b c2 3d 95 db 58 3b 53 95 98 3e de 4e 34 3e
       0.09493122 0.0033089865 0.29801425 0.1760821
0002d0 fe 8a 81 3e f8 26 0e be b8 8f 93 3e be 1d 91 bd
       0.25301355 -0.13882053 0.28820586 -0.07085751
0002e0 10 0a 02 3e e3 21 29 be d5 ca 8e 3c 37 f9 09 3d
       0.12699151 -0.16516833 0.017430702 0.033684935
0002f0 06 11 60 3a cd 4a 94 bd 66 a6 d4 3d 78 7e 9d 3d
       0.00085474586 -0.072408296 0.103833005 0.076901376
000300 18 aa b5 3d 5a b9 5c 3d a5 33 8c 3e 80 87 91 bd
       0.088703334 0.053887703 0.27383152 -0.07105923
000310 c5 17 b2 bd 5e d2 4f be 65 d5 57 3d a9 14 99 bd
       -0.0869594 -0.20295092 0.052693743 -0.07474644
