pol_models/sulphur_dioxide_model_state.pt (torch, 650624 bytes, 16 tensors)

conv1.weight f4 [64, 300, 3]
00000000: a8d8 c9bc b76a a73c d703 993c 5bc6 e83b
00000010: 8d4a 953c 5193 9c3c d2b3 8ebc c68f 06bd
00000020: dcdf 8bbc 6f77 13bc f050 b6bb ac58 c1bc
00000030: e7f5 f8bc 770d 58bc a99a 24bc 0ef7 e33b
00000040: 59aa f9bc 1a14 f73b c752 cb3c 6fc9 a03c
00000050: dcc0 db3c 40c5 b73a 2adc ecbc 897d 98bc
00000060: 5607 10bd d671 923c bc02 bfbb d4f1 a3bc
00000070: d841 d03c d15a c3bc 199b ae3b a613 e1bc
00000080: dca2 8f3b 2e4e a93c 3a9b 29bc ec6f 303c
00000090: 42fc 15ba 72cc a9bc bddc 13bd 5df1 813c
000000a0: ef06 0fbc b652 9d3c a26b 4b3b 9e1e b9bc
000000b0: ea28 a93c 4f03 c33c 8c29 e1bb 4fee 05bd
000000c0: 8259 c837 5e2c 14bd d569 1a3c 5cb4 c6bc
000000d0: 325a d8bc c078 9d3c d242 eebb e41d 1abd
000000e0: 3fdb bb3b d25f 01bd 7758 e5bc 64eb 8e3c
000000f0: 87e5 973c 2bc6 be3c 0004 953b ff4c 553c
00000100: 54fe 11bd 8802 1abd ed12 edbc 23d0 b0bb
00000110: 7d6b a73c 4f10 de3c e6a5 c0bc 2f1d 66bc
00000120: c1a2 ca3c c0ed 86bc 883a b63b 74c3 8f3b
00000130: fe50 bebb c362 1dbb 4686 20bd 2f1c 11bc
00000140: 59aa 39ba 6220 b43c f0f2 ffbb 8cdc c53c
00000150: 4ff3 0bbd 55cd cf3c 6bcd feba f0db 01bc
00000160: 9319 febc b491 08bd df6c 96bc ddf8 12bd
00000170: bf0c 14bd ed20 0cbd 8733 12bc bf4f 7bba
00000180: 987c 9bbc 46d8 fabc 9984 1a39 4dde 9a3c
00000190: 4152 cc3c 96c7 dd3c 0db9 d8bc 01b7 fbbc
000001a0: 592e 4e3c 39cf 583c 1a31 6e3c a2c1 b13c
000001b0: 98c5 263c 4112 c23c 7cdf c53c cbf2 7abc
000001c0: 4219 e4bc 6a46 243c aab0 e4bb 6ee0 8f3c
000001d0: 6a15 0e3c 6dea 1dbc 0771 0fbd 90de 08bd
000001e0: 5df7 87b9 176e 7e3c 13c1 673c 100f f0bc
000001f0: 7dd2 e6bc ef72 0dbd 55cc 873c ad94 92bc
00000200: 4454 f3bc f4ce 6bbb 33a2 b43c 2b48 15bd
00000210: f6ad e4bc fe2e 933a 8c84 84b9 c7c6 fcba
00000220: e5d8 dc3c 96d5 bcbc 66be 453c d423 803c
00000230: b4f7 a1bb bae9 2f3c 406f 3dbc e39a 56bc
00000240: 51ff 373c b10d 703c 46f4 4b3c 453f 1ebd
00000250: 074e 12bd 38c7 dabc 3f7c efbc 12cf 113c
00000260: 9547 053c 02dc 663c 44ae 343c bbb3 043c
00000270: ce61 15bd 4421 04bd 7142 de3b bf5d dd3c
00000280: a5e6 583c 9ad8 9abc cdca 143c e5e7 ab3c
00000290: e210 8d3c be1d c73c 6aef af3c fef2 5dbc
000002a0: 0858 923c 0c59 473c e097 78bc f3e5 c9bc
000002b0: 5185 d63c d9a6 b13c 71d7 1fbd 3023 6d3c
000002c0: 61e9 a3bb 5b9e 3dbb 91c5 b13c ea25 5f3c
000002d0: b844 b1bc f486 dcbc 9c0b a0bc 96f1 99bc
000002e0: 9c5a cab9 8df6 0fbd e95f a43b 0309 82bc
000002f0: 9240 a0b8 52c3 613c 65f0 d73c b554 61bb
00000300: 34c8 bdba dc9a 07bd 5196 edbb a96d 81bc
00000310: 8e7e 0ebd 38ff d0bc 754f a6bc f401 0cbd
00000320: dc09 c0bc f7f6 c5bc 012a ecbc 8341 0fbd
00000330: c4c9 24bb 7ed0 7ebc b4b7 febc 50fd c5bc
00000340: f912 f6bc 2b4c 993c 6ef3 bfbc 77a3 603c
00000350: c197 2bbc 98ea 8abc b707 b4bc 8a59 503c
00000360: 9b1a 65bc 94c6 263b 60db eabb 6ec6 db3b
00000370: de18 7ebc b935 f1bc 7bc3 1cbc 07ca a0ba
00000380: b67a fdbc 11c8 77bc 4b15 c2bc f02b 2f3c
00000390: f9ee 253b 9d64 b23c f7fc 8cbc a6a0 7f3b
000003a0: 5969 ebbc eb29 b6bb b4dd 88bc d15c 1fbd
000003b0: c040 97bb 6b0e 5cbc ffe3 f63b fa6f 2abc
000003c0: c031 843c dbf9 5c3c 5ad9 cabc bab8 b4bc
000003d0: 8a31 eebc a1a7 843c 7933 a0bc 6f3b c0bc
000003e0: a5c9 783c 38e2 6fbb 0e0e bf3c 5697 1ebd
000003f0: 4000 523a 7579 0bbd b704 1abc 9fec f0bc
-0.024639443 0.020436628 0.018678589 0.007103724 0.018224025 0.019113215 -0.01741973 -0.032851957
-0.017074518 -0.009000643 -0.0055638477 -0.023601852 -0.030390693 -0.013186804 -0.0100466395 0.0069569414
-0.030476736 0.007540238 0.024819745 0.019627301 0.026825361 0.0014020577 -0.028913576 -0.018614547
-0.035163246 0.017876547 -0.0058291834 -0.020012774 0.025422022 -0.023847016 0.0053285477 -0.02747519
0.004383428 0.020667162 -0.01035195 0.010768872 -0.0005721488 -0.02072737 -0.036099184 0.015862161
-0.00872968 0.019204479 0.0031039496 -0.022597607 0.020649392 0.023805289 -0.006871408 -0.032697972
2.3883538e-05 -0.036175124 0.009424646 -0.024255924 -0.026410196 0.019222617 -0.007271149 -0.037626162
0.0057329233 -0.031585522 -0.027996285 0.017446227 0.018542064 0.023287853 0.004547596 0.013018846
-0.035642937 -0.03760007 -0.028939689 -0.0053959056 0.020436997 0.027107386 -0.023516607 -0.014045044
0.02473581 -0.01647079 0.0055611767 0.0043873135 -0.005807995 -0.0024015165 -0.039190553 -0.008856817
-0.0007082574 0.021988098 -0.007810943 0.024153017 -0.034167584 0.025366465 -0.0019439881 -0.007925972
-0.031018054 -0.03334208 -0.01836246 -0.035881866 -0.036144968 -0.034211088 -0.008923418 -0.0009586773
-0.01898031 -0.030620705 0.00014735981 0.01890483 0.024941565 0.027072709 -0.026455427 -0.030726912
0.012584292 0.0132329995 0.014538074 0.021698777 0.010178946 0.023690345 0.024154417 -0.015316675
-0.027844075 0.010026554 -0.006979068 0.017563071 0.008672098 -0.009638411 -0.0350199 -0.033415377
-0.00025933507 0.015529177 0.014145154 -0.029304057 -0.02817654 -0.034533437 0.016576925 -0.01789316
-0.029703267 -0.0035981508 0.022049999 -0.036445778 -0.027914982 0.0011229215 -0.00025275757 -0.0019285314
0.026958892 -0.023051064 0.01206932 0.015642084 -0.0049428586 0.010736877 -0.011562169 -0.013098451
0.011230306 0.014651702 0.012448376 -0.038634557 -0.035718944 -0.026706323 -0.02923405 0.008899467
0.008134742 0.01409054 0.011027876 0.008099492 -0.036470227 -0.032258287 0.006782823 0.02702224
0.013238584 -0.018902112 0.009081555 0.0209846 0.017219964 0.024306174 0.021476466 -0.013546703
0.017864242 0.0121672265 -0.015172929 -0.024645781 0.026186617 0.021686004 -0.03902382 0.014473721
-0.005002186 -0.0028933499 0.021700652 0.013619879 -0.021639213 -0.02691982 -0.019536786 -0.018791955
-0.00038595952 -0.03514724 0.005016316 -0.015873438 -7.641422e-05 0.013779478 0.026359746 -0.0034382765
-0.0014479221 -0.03310667 -0.007250585 -0.01579936 -0.03478866 -0.025512323 -0.02030156 -0.03418155
-0.023442201 -0.024165614 -0.028828623 -0.034974586 -0.0025144676 -0.015552638 -0.031093456 -0.02416864
-0.030038344 0.018713078 -0.023431506 0.013710848 -0.010473193 -0.016957566 -0.021976335 0.01271666
-0.013983394 0.0025447952 -0.007167265 0.0067070043 -0.0155088585 -0.029444562 -0.009568091 -0.001226724
-0.030942302 -0.015123383 -0.023691794 0.010691628 0.002531944 0.021776492 -0.017210467 0.0039005666
-0.028736757 -0.005559196 -0.016707279 -0.038906876 -0.004615873 -0.013431172 0.0075345035 -0.010402674
0.016137004 0.013487305 -0.024761844 -0.02206074 -0.029076356 0.016193213 -0.019555794 -0.02346584
0.015184795 -0.0036603343 0.023322131 -0.038718544 0.00080109015 -0.034051377 -0.009400538 -0.029409705

conv1.bias f4 [64]
00000000: f7a5 adbb 0efd f2bc c5ac b3bc b602 41be
00000010: a820 0fbd 8f22 b13c 810b a33c 46b2 0dbc
00000020: 1a2a 2abe 0dc7 cb3b 61ba 12be 619e 0abe
00000030: be28 a2bc 36d2 8f3c 8178 f9bb 403e 953c
00000040: 204f 833c d9d8 ac3c 4947 9d3c 5ecd 093c
00000050: b9c5 15be 92e2 7c3a 393b 76bc 3000 1ebd
00000060: 109c 62bb 6990 dbbc 9f75 16bd c180 883c
00000070: b7b0 28be b22e d9bd c50a 07be ddf4 a43c
00000080: cae4 6bbe 331d 48bc 448a 593c 899d 95bc
00000090: 2735 a93c c5ee 05bc 27d2 0bbd caa4 dfba
000000a0: 7306 a63a 0a5e 793c fa82 92bc 5474 a6bc
000000b0: 2674 823c 8cec 36bc 5285 9ebc 8f6c 2abe
000000c0: c0c6 bdbc 0db7 e4bc 7549 34be c061 62bc
000000d0: 514b 953c bd0a d03c b89e 1cbd 786c b3bc
000000e0: 908e 7cbe 1197 023c 6c43 cabc 4c98 843b
000000f0: 7403 923c c01b 77be 7059 883c 5182 1fbd
-0.0052993256 -0.029661682 -0.021932969 -0.1884869 -0.034943253 0.021622924 0.019902946 -0.008648461
-0.16617623 0.006218797 -0.1432891 -0.1353698 -0.019794818 0.017556291 -0.007613242 0.01821816
0.01602894 0.021099495 0.01919903 0.00841078 -0.14626206 0.0009646799 -0.015028768 -0.038574398
-0.0034577884 -0.026802259 -0.036733266 0.016662957 -0.16473661 -0.106046095 -0.13187702 0.020136291
-0.23036495 -0.012213993 0.013277594 -0.018263595 0.020655228 -0.008174603 -0.034135964 -0.0017062661
0.0012666717 0.015220175 -0.01788472 -0.020319141 0.015924525 -0.011164796 -0.019350681 -0.16642974
-0.02316606 -0.027919317 -0.17606147 -0.013817251 0.01822439 0.025395745 -0.038237303 -0.021902308
-0.24663758 0.007970587 -0.024690352 0.0040464755 0.017823912 -0.2413168 0.01664421 -0.03894264

conv2.weight f4 [128, 64, 3]
00000000: b59c 0b3d 28bb 5fbd 2908 833c 3cc8 013d
00000010: 4afa ee3c 9c6e dc3c 2c3a 13bd d3c6 dd3c
00000020: bdf7 aa3c 44fe 96bd 9e0e e9bd 6cba ff3b
00000030: d1c4 053c 3325 de3c beea 51bd 29ac 98bc
00000040: 6f0a 16bd c3c2 66bd b71d 91bd d95a d8bc
00000050: ada9 56bd cc85 793d 2ef2 403d 9778 4ebd
00000060: a6e8 f9bc 2585 a2bd f4dc ebbc d21f fd3c
00000070: 5b37 8c3c 0af6 a4bc 6769 17be 0358 ccbd
00000080: bf03 483c 36df abbd c969 95bd 6722 35bd
00000090: 9398 97bd 8cb8 18bc 3bf3 60bd db6f 333d
000000a0: 9633 f43c e120 16bb 49f6 b6bc 5cb6 6b3c
000000b0: f2c5 ea3c 6960 57bd ec63 32bd 726f 35bd
000000c0: 3488 e8bc 0a72 433d 5419 ddbc 15f9 073d
000000d0: 66bd f3bc f4c3 e4bb 22d2 033c ac20 68bd
000000e0: 5fa3 97bd 9696 383c 83d3 533d 987d b1b7
000000f0: 74f5 66bd 6424 23be 3f51 8abd 94fe 76bd
00000100: 6e59 ff3c 70f4 82bd b549 fb3c 58d8 fe3b
00000110: 7273 bc3c c85d 4fbd d681 62bd fff7 09bd
00000120: 407d 40bd 00f8 a13c f016 8d3c 20f8 2c3d
00000130: 8f15 643d 8d5d 2ebd 8c1f 1a3d f900 db3c
00000140: 8fc5 f2bc a803 943c 22e2 7ebd 21b5 ebbc
00000150: a166 33bd 1544 9e3c 8736 81bd c965 36bc
00000160: 5e8b adbd 0545 fabb b49e 8ebd 8e9f 243c
00000170: ce53 da3c f503 35bd 33a6 cebb 7434 883d
00000180: 98d8 7ebc 0bac 3dbd 076b 90bd 0d87 0f3d
00000190: acb3 6ebc 2777 f8bc f381 863c 5339 86bc
000001a0: 3340 853d 7b53 08bd b872 8cbd fcee 763d
000001b0: ff7f 543d b849 4e3d f519 78bd 9b8d 133d
000001c0: 23e2 7b39 61d2 1b3b 7c4e 1fbd c8e9 1b3d
000001d0: dffd 94bd cc92 173c 2827 03bd 03b3 aabb
000001e0: dfcd 64bd 5caa 18bd e3e1 2cbc 6b2c e8bc
000001f0: d7ca 413c 2848 5b3d 517d 1c3d 4292 98bd
00000200: b775 a53c 6acc 38bd 501e 443c 0689 903d
00000210: 313f e6bc 3f2f ac3b 5d88 e8bc c77a 71bc
00000220: a384 97bc 65dc 923b c88a 55bd 3c2f 1a3c
00000230: 896d 52bd 9261 ea3c d215 4f3a 4ca1 5b3c
00000240: 1dc3 a5bc b860 6b3d 95d9 263d cecc 4bbd
00000250: 5dd8 5ebb f45b 8d3c 2356 49bd c3bc abbc
00000260: 6805 80bd 53d2 803d 3e88 d43c 4a09 29bc
00000270: 195a 383d ce9c 963d 1503 863d b78f a0bd
00000280: 10f9 2fbd 50cb 573c 6b22 363d b802 e3bc
00000290: 0e6f e23c 070c 2dbc 1993 62bd d23f 133c
000002a0: 4a86 7f3c a9d0 ccbc f9f8 4fbe 0350 0abc
000002b0: 8812 5a3d 1584 fb3c a88a eb3b 7706 87bc
000002c0: 3686 b53b c41a 173c 34e1 313d 54c1 9abc
000002d0: 9dba ea3b 4858 5bbc 9de2 46bd 388d 623d
000002e0: b9d7 cbbd 3c50 34bd 04b7 b8bc 6c65 2ebd
000002f0: b82a bebb f204 9c3b 09e9 753d a0e5 1abd
00000300: ae84 053c 66ca 393c 8dbc 4fbd 1d23 2c3d
00000310: c81f 803d f841 22bd bc4c 393d 6f80 a53d
00000320: 5344 b0bc 9e4e 38bd 7601 433d e849 f13c
00000330: 5226 35bd 4631 adbc 98df f6bc 1c51 1e3d
00000340: 4ec7 213d d181 2f3d 1216 85ba c184 6abd
00000350: e30f 4ebd df3f 883d f9f0 8fbc c570 0fbd
00000360: 21ea 4fbd bdbc 48bd 2844 573d 755d 883b
00000370: af81 913d 99b4 a13d c4a6 333c 319a 8ebd
00000380: 8ebc b73c 2062 26bd 43d0 b4bd f22c 223d
00000390: 7f13 99bb 30d2 873c 1bef 403c 01aa 1a3c
000003a0: 12fd 943b 985d 443d ee13 e7bc 2617 513d
000003b0: ee1c f1bc 472b 09bb 4c54 9bbc e9cc e73c
000003c0: bcfb 86bc dc20 bdbc 067f 3f3d d165 be3c
000003d0: 1619 c13c 3a45 683d 3f06 9c3d f936 75bc
000003e0: 7117 9c3d 7dbf 613d 8c21 45bd 4172 37bd
000003f0: bbc0 993d a604 6ebd 3bfc db3c 8065 22bd
0.034084994 -0.054621845 0.015995102 0.0316851 0.029172082 0.026908211 -0.03594415 0.027072346
0.020870084 -0.07372716 -0.11379741 0.0078042056 0.0081646005 0.027117347 -0.05124926 -0.01863678
-0.036631044 -0.056338083 -0.07085746 -0.026410507 -0.05240791 0.060918614 0.04710596 -0.050407972
-0.030506443 -0.079355516 -0.028791882 0.030898962 0.01711624 -0.020136852 -0.14786302 -0.099777244
0.012207924 -0.083921835 -0.072955675 -0.04422226 -0.07402148 -0.009321343 -0.054919463 0.043807846
0.029809754 -0.002290778 -0.022334235 0.01438674 0.02865884 -0.05258218 -0.043552324 -0.044295736
-0.02838526 0.047716178 -0.026989616 0.033196528 -0.029753398 -0.0069813672 0.008045705 -0.056671783
-0.074042074 0.011266371 0.051715385 -2.1158528e-05 -0.056386426 -0.1593185 -0.06753778 -0.06030138
0.031170573 -0.06394279 0.030674795 0.007777255 0.023004267 -0.050626546 -0.055299602 -0.033683773
-0.046994448 0.019771576 0.017222852 0.042228818 0.055684622 -0.042569686 0.03762774 0.026733862
-0.029635219 0.01806815 -0.062227376 -0.028772892 -0.043799046 0.019319573 -0.063092284 -0.011132666
-0.08473848 -0.0076376223 -0.06963864 0.010047806 0.02665129 -0.044193227 -0.0063064336 0.0665063
-0.01555457 -0.04630665 -0.07051664 0.035040904 -0.014569204 -0.030330254 0.016419386 -0.016384756
0.06506386 -0.03328274 -0.06857818 0.060286507 0.05187988 0.050363272 -0.06057163 0.036023717
0.00024021468 0.0023776519 -0.038893208 0.038064748 -0.072749846 0.009251308 -0.032019764 -0.005209328
-0.055860396 -0.037271842 -0.010551902 -0.028341493 0.011828146 0.05353561 0.03820545 -0.074497715
0.020197732 -0.04511682 0.011970118 0.07057385 -0.028106304 0.0052546556 -0.028385336 -0.014738745
-0.018495863 0.0044818395 -0.052134305 0.009410676 -0.051373992 0.028610978 0.0007899675 0.013405155
-0.020234639 0.057465285 0.040734846 -0.049755864 -0.0034003474 0.01725576 -0.049154412 -0.020964032
-0.06251031 0.06290116 0.025943872 -0.010317156 0.0450078 0.07354127 0.065435566 -0.078399114
-0.042962134 0.013171032 0.044466417 -0.027711257 0.027640846 -0.01056195 -0.055316065 0.008987384
0.015595982 -0.02500184 -0.2030982 -0.008441928 0.05324033 0.03070263 0.00718816 -0.016482575
0.005539681 0.00922269 0.04342766 -0.018891014 0.0071633593 -0.013387747 -0.04855596 0.055310458
-0.09953255 -0.04402183 -0.022548206 -0.042577192 -0.0058034323 0.0047613317 0.060036693 -0.037816644
0.008149309 0.011339759 -0.050716925 0.042025674 0.06256062 -0.039613694 0.045239195 0.080811374
-0.021516955 -0.04499685 0.047608815 0.029454187 -0.044226 -0.02114166 -0.030135915 0.03865157
0.039496712 0.042848412 -0.0010153672 -0.05725551 -0.05030812 0.066528074 -0.01757096 -0.035019655
-0.050760392 -0.04900812 0.052555233 0.0041615316 0.07104813 0.078957744 0.010965053 -0.069630034
0.022428777 -0.040620923 -0.08828785 0.039593644 -0.0046715136 0.016579717 0.011775757 0.009439946
0.00454677 0.04794082 -0.028207745 0.051047467 -0.02943274 -0.0020930336 -0.018961094 0.028295951
-0.016477458 -0.023086958 0.046752 0.02324191 0.023571532 0.056706645 0.07618379 -0.01496672
0.076216586 0.055114258 -0.048127696 -0.044786695 0.075074635 -0.0581099 0.026853671 -0.03964758

conv2.bias f4 [128]
00000000: 66b2 f53c 0f57 2bbe d052 d4bc c8d0 a8bd
00000010: e986 b7bd bf5b 19be 35ea 563d d744 18be
00000020: 5424 09be 61c8 ccbc 55c4 36be 95e3 8cbd
00000030: fbce 7dbc e78d fabd b8fe f4bd 66c1 09be
00000040: 717b ddba aaa5 adbc 28d1 ecbd c82f e93b
00000050: 17ee debd f26c febd 2696 7cbd fbe9 c4bb
00000060: aa98 18bb 4d07 0fbe 00fb 8abd 0863 373d
00000070: c590 c2bc 6e93 fbbd 6abe b5bd 5a8d dabd
00000080: 687f 09be d34e adbd 1a5f 23be 3fd2 253e
00000090: 1909 85bd b18d 08be 435a f8bd b6ec cabb
000000a0: f784 e1bd 597b 1dbe eee1 efbd 6992 babd
000000b0: 61a3 00be 996d cebd 667f 36be c95b 35be
000000c0: 04bf 2c3e 9108 b8bb 8146 ecbd 1ad2 babd
000000d0: 11fb 14be 91bb 3a3e 77a9 13be 902d 4abe
000000e0: d2e8 2fbe 2f20 bebd fe8a 38be 4a0c dcbc
000000f0: 94ef c8bc 91a6 04be 0344 28be 2449 803d
00000100: 5969 53bd 7cca dbbd 349b afbd defd 34bc
00000110: 1e8d 0bbd cac4 3ebd 4b6d f6bd a6a1 04be
00000120: a3a1 6f3e d70b bfbd 9611 c9bd 7021 21be
00000130: 6649 10be 5cac cebd 2e23 23be cee2 6fbd
00000140: 34c8 14be 79d6 cfbd 23a5 a5bd ec49 b73c
00000150: 6695 13be fa05 9ebd 45fa 18be 0396 cd3d
00000160: da44 e3bd ebf9 fcbd 1f6a cbbd 8d4c adbc
00000170: e560 d6bc 9407 b6bd a964 4cbd b80a 17bd
00000180: eaf9 c0bd 74eb c2bd 9b11 0abe 932c 96bc
00000190: 3b3b 34be 1590 e5bd 1d71 1f3d d09b d2bc
000001a0: 037d c3bd c0a7 4e3d 7fcb b93c 5afc 53bd
000001b0: a742 72be 7eeb 2dbe b876 003d c193 333e
000001c0: 1e47 53bd 5021 24bd 7c84 50be 4eb7 9fbd
000001d0: 6167 6d3d 5cbc 83bd 60a2 a3bd 7021 623c
000001e0: 6ac4 bf3d 408d 6abd 52c5 ea3d 65d9 40be
000001f0: 33f8 b7bd b5eb b7bd 238c 60bd 388f c2bd
0.029992294 -0.16732429 -0.025918394 -0.08242947 -0.08961279 -0.14976405 0.05246945 -0.1487001
-0.13392764 -0.024997892 -0.17848332 -0.06879345 -0.0154912425 -0.12234097 -0.11962646 -0.13452682
-0.001689775 -0.021197159 -0.11563331 0.0071162917 -0.10885256 -0.124231234 -0.06166663 -0.006009338
-0.0023284354 -0.13967629 -0.06786156 0.044772178 -0.023750672 -0.12283979 -0.08874209 -0.10671492
-0.13427508 -0.084623 -0.15954247 0.16193484 -0.06495876 -0.13335301 -0.12126591 -0.006192769
-0.11011689 -0.15379085 -0.117130145 -0.09109957 -0.12562324 -0.10079498 -0.17822036 -0.17710795
0.16869742 -0.0056162556 -0.11536885 -0.09122105 -0.14548899 0.18235613 -0.14420114 -0.19743943
-0.17178658 -0.09283482 -0.18021771 -0.026861329 -0.024528302 -0.12954165 -0.16432194 0.062639505
-0.05161414 -0.1073198 -0.085745245 -0.011046855 -0.034070127 -0.04657439 -0.12032565 -0.12952289
0.23401503 -0.0932843 -0.098178074 -0.15735412 -0.140905 -0.10091469 -0.15931389 -0.058565907
-0.14529496 -0.10148329 -0.08088138 0.022374116 -0.1441246 -0.07715984 -0.1493922 0.10038378
-0.11097117 -0.123523556 -0.0993235 -0.021154666 -0.02616925 -0.08888164 -0.049900685 -0.036875457
-0.09422667 -0.09517565 -0.13483278 -0.018331802 -0.1760072 -0.11209122 0.038926233 -0.025709063
-0.095453285 0.050452948 0.022680042 -0.051754333 -0.23658238 -0.16984364 0.03136322 0.17536832
-0.051581495 -0.04007083 -0.20363039 -0.077986345 0.057959918 -0.06432411 -0.07989955 0.013801917
0.09363635 -0.057263613 0.11463417 -0.1883293 -0.08982887 -0.089805044 -0.054821145 -0.09499973

lstm.weight_ih_l0 f4 [200, 128]
00000000: 0945 183e 9955 153e 8aa5 923d ac53 b93d
00000010: 3ba4 ab3d 1e1e a5bd 0ba6 a1bd 5805 0ebe
00000020: bd7b 97bd 81b8 87bd 641e d93a 09ae 7f3b
00000030: e6aa 103d 26ba 08be b132 07be 847e d23d
00000040: 1544 15be de0e b03c ffdb a0bd 2498 33be
00000050: 70ae 04bd 0479 0cbe f308 983d 7fe6 28be
00000060: 0387 a0bd 4279 1f3e 7869 013d e306 f73d
00000070: d128 1b3e 2043 e73d 9a63 85bd a213 98bc
00000080: 457d 0b3e cca6 1abd e01c bf3c a89c 96be
00000090: 0dee 6c3d 81e7 043d 3793 a23d edf7 553d
000000a0: 4e4d 973b 72fc 303b de6d 513e edf6 02be
000000b0: 3600 3a3e 702f a8bd bcb3 f1bc 86aa 22be
000000c0: 92b4 a2be 2e79 033e f58d 3e3d 12aa 4bbd
000000d0: 58bd 09be c4a3 2d3d 1b34 55be 1a9a e63d
000000e0: f0d9 0e3e 6e0c 92bd 518a e73d 9bb3 6abe
000000f0: 78c5 853d afce 023d 508a ec3c a1ea 7bbe
00000100: cfd2 b53d f833 4ebe 6015 0e3e b515 ca3c
00000110: 927e 57bd 3647 48bc a6d0 f03d a977 c23d
00000120: b001 cabe 3fd7 95bc e460 d23d fba4 263e
00000130: 938b e0bd be1e cbbd 8125 683d b04e 893b
00000140: 4411 8e3e 2541 31bc e1a5 0e3d 47b7 a03d
00000150: 9a4b 2dbd b00c c53d 4125 ae3d 7b0f f33d
00000160: f64f c5bc f3fa c3bd 9cba 0b3e 1354 f63b
00000170: b193 d5bd 48f3 f03c 118a bf3d 5280 f03d
00000180: cf44 ad3d edff 45bd 3b02 b3bd 08bf a13c
00000190: cd11 1c3e cabd a0bd c3cc 303d af5c dbbd
000001a0: 564c d73d 5512 523d 8246 b3bd 1e2f d9bd
000001b0: 69fd 87bd 60a0 a3bd 5b7a ec3d 4b73 dfbd
000001c0: 7a6d ff3d a762 863b 8b52 943d a6b0 edbb
000001d0: c5b8 3a3d dc73 973d 72cd 863c 867e 103d
000001e0: 9d7c 303e 9502 103b 0297 0a3e 4936 23bc
000001f0: a8ef cfbd cf9e 33bd 6f5e 28be bf3c f73d
00000200: 7cd3 593e 4a54 61bd 3ec7 c63b cc90 7ebd
00000210: d804 91bd 4e29 e5bd 0393 50bd d57c 743c
00000220: 2824 a8bd c41a 5fbd a9ff 053d 29dc d5bc
00000230: 58bc be3c 59c3 dcbd 0837 b4bd 376f 05be
00000240: 6bb7 48bd efaf eabc 0635 afbd a478 2c3e
00000250: 19a0 c8bd 8363 1ebe 1baf d2bc ca04 863d
00000260: 6567 373e 7df7 efbd 0986 fdbd d9db a43d
00000270: e317 703d 55ff 093e 8b52 f5bd ff2d 9fbd
00000280: 27d3 6bbd cd6f b33d c813 cabc d902 91bd
00000290: 6e45 513d 0a7f dbbd 53ad 273d 30a9 52be
000002a0: f755 fabd e89e 72bb 3606 c3bd 4db7 36be
000002b0: 94f8 a6bd 0a4f 0c3e f197 adbd f4a5 b9bb
000002c0: b03f aebe 021d df3d 96e9 c8bd b43f 923c
000002d0: a917 b7bb 8520 023d 39ce 48be caba a1bc
000002e0: ba72 c73c 5fd6 8dbd d033 4fbe ef8b c93d
000002f0: 5eed 653a c3fe 0ebe 48c5 2d3e 1f50 2dbd
00000300: 5d13 0f3e 87dc 83bd 2edd 4c3d 76b8 adbd
00000310: 6d07 9a3d 2ea0 2f3d f758 963d 729e 93bd
00000320: 9f37 31bc 06cb 05be 2b2e 2c3d ec58 0b3d
00000330: b318 04be 9ac6 f93b 6f8b 1bbd 9c63 febc
00000340: 51d5 4e3d 0841 0b3d f731 f33d 05ad a03d
00000350: b324 ad3d ffbb 803d 666f bcbc c99f a93d
00000360: 8380 05be 2b8d 0dbe a181 cebd 5e97 bcbd
00000370: dae6 773d edcf ff3d c6b4 d83c 00f6 05be
00000380: d12b d33d 2c1d c23d d9d4 52be 75f3 f2ba
00000390: 6900 483e d235 76bc 1cbd 0cbe 88ef a2bd
000003a0: a04b c93d 188e 353e 91b0 243d 52e5 dcbd
000003b0: 858b b43d dfa0 8c3d fd72 093e 91c3 143d
000003c0: 34b7 ed3d d9d5 6dbd 7141 89bc 8bdf 43bd
000003d0: c73e 82bd 7162 3f3d 0142 ba3d 689f 003d
000003e0: d214 61be 465c 373e 8d98 983e 81fd bbbd
000003f0: 2835 c6bc 27d7 5a3d 60df 94bc 977e 75bd
0.14870085 0.14583434 0.0716048 0.09049162 0.08380934 -0.08062385 -0.07892998 -0.13869226
-0.07396648 -0.06626988 0.0016564843 0.0039013645 0.03531923 -0.1335226 -0.13202931 0.10278037
-0.14576752 0.021491464 -0.07854461 -0.17538506 -0.03239292 -0.13718039 0.07423582 -0.16494177
-0.078382514 0.155736 0.031594723 0.120618604 0.15152289 0.112921 -0.06513138 -0.01856405
0.13622005 -0.037756726 0.023329198 -0.29416394 0.05784421 0.03244734 0.07938235 0.052238394
0.0046173697 0.0027005938 0.20452067 -0.12789507 0.18164143 -0.08212173 -0.02950465 -0.15885362
-0.3177839 0.12839195 0.0465221 -0.04972274 -0.13451135 0.042392507 -0.20820658 0.11259861
0.13950324 -0.07131277 0.11305679 -0.22920077 0.06531805 0.03193539 0.028874546 -0.24601223
0.08878099 -0.20137012 0.13875341 0.024668554 -0.05261094 -0.012224009 0.117585465 0.094954796
-0.39454412 -0.018291114 0.10272387 0.16273873 -0.10964122 -0.09917973 0.05667639 0.0041902885
0.27747548 -0.010818754 0.034826163 0.078474574 -0.042308427 0.096215606 0.08503199 0.11868187
-0.02408598 -0.09569349 0.13645405 0.0075173466 -0.104285605 0.02941288 0.09352506 0.11743225
0.0846039 -0.048339773 -0.0874066 0.019744411 0.15241165 -0.078486994 0.043164026 -0.10711037
0.10512607 0.051287014 -0.08753683 -0.1060469 -0.06640131 -0.079895735 0.11546775 -0.10910662
0.12472053 0.0041011157 0.07242306 -0.007253724 0.045586366 0.07395145 0.016455386 0.035276912
0.17235036 0.0021974195 0.13534167 -0.009961673 -0.10153133 -0.043852624 -0.16442274 0.12072133
0.21272081 -0.055012025 0.006066232 -0.062149808 -0.07081002 -0.11189519 -0.05092145 0.01492234
-0.08210021 -0.054468885 0.03271452 -0.026105957 0.023283169 -0.10779447 -0.08799559 -0.13030706
-0.049003046 -0.028648345 -0.08555035 0.16842896 -0.09796161 -0.15467648 -0.025718262 0.06543882
0.17910536 -0.117171265 -0.12379081 0.08049745 0.05861653 0.13476308 -0.119786344 -0.07772445
-0.057574417 0.08761559 -0.024667636 -0.07080621 0.051091604 -0.1071759 0.04093678 -0.20572352
-0.12223428 -0.0037020985 -0.09522669 -0.17843361 -0.08152881 0.13702026 -0.08476246 -0.005665535
-0.34032965 0.10894205 -0.09810178 0.017852642 -0.0055875373 0.031769294 -0.19609918 -0.019742388
0.024346698 -0.06925654 -0.20234609 0.09841143 0.0008771027 -0.13964371 0.16969788 -0.042312738
0.1397223 -0.06438547 0.05001562 -0.08482449 0.075209476 0.04287737 0.073411874 -0.072079554
-0.010816484 -0.13065729 0.042036217 0.03402035 -0.12900047 0.007622552 -0.03797477 -0.031053357
0.050496403 0.033997566 0.118747644 0.07845501 0.084542654 0.062858574 -0.023002338 0.0828243
-0.13037305 -0.13823383 -0.100833185 -0.092085585 0.06052289 0.124908306 0.026453387 -0.13082123
0.10311092 0.0947822 -0.20589007 -0.0018535691 0.19531406 -0.01502748 -0.13744015 -0.07955843
0.098288774 0.17729986 0.04020745 -0.10785927 0.08815674 0.06866621 0.13422771 0.03631932
0.11607209 -0.05806527 -0.016754838 -0.04782061 -0.0635963 0.04672474 0.090946205 0.03140202
-0.21980599 0.17906293 0.29803887 -0.091792114 -0.024195269 0.05342784 -0.01817292 -0.05993518

lstm.weight_hh_l0 f4 [200, 50]
00000000: cb9f 003e 01df 2ebe 2130 23be 7cf1 b43d
00000010: 1814 aebc 152a 903d e9a2 51bc 1db0 283e
00000020: ac5b bdbd 2be4 96bc 0f68 d13d 87d9 2abd
00000030: d881 513e 284c 08be 5250 943d 9323 b6bd
00000040: 7a7a 5a3e c1dc 00be 3262 563e 5cff ddbd
00000050: e292 16bd 1b93 863d eead 4b3e 7ccb 9abd
00000060: 837d 583d 78a2 973c b508 80bc 98d7 1c3e
00000070: 5a68 073e 0a85 fd3d ea7e 423d 481f 2d3e
00000080: d685 8ebd 4daa a63d 465b c1bd a068 12be
00000090: f8ce 84bd 024b d63b 7be1 7abd 88b7 073d
000000a0: 1e4b 303e 5257 b13d d300 68bd d85d 073e
000000b0: cdcc 723e 20c4 08be dad2 3abe 4a40 e83c
000000c0: fd97 99bb 9657 00be 0589 de3d 81eb f9bd
000000d0: e7c5 80bc 4786 023d f53f 0d3e 5ed0 943c
000000e0: 1d11 a43d d382 1b3d 45c0 173e f4a0 213d
000000f0: 1a5c 143d 1ff1 0cbd b340 1c3e 2d00 f03d
00000100: d03a 75bd 5014 283e f260 d73d 6748 febc
00000110: 6b6c a9bd b55d 6cbe 6674 7f3c 0297 693d
00000120: 36f4 30bd 9617 54be 7e1f 55bc 20a0 89bd
00000130: 57dd ff3c dc76 0cbe 4989 63bd 991d 24bd
00000140: f7ec 813e cf38 27be 5dfe 0bbe cd7e d23d
00000150: 2d8d 26bd 4751 64ba de5c 973c a176 483d
00000160: 0e4a 63be ea13 da3b 6190 c23d 2a78 213d
00000170: 00ad 86bd fddc eb3d 7fba 513d 71b9 b8bc
00000180: 87fd 3f3a 3348 203d fcd3 5ebd 0fe8 c0bd
00000190: a0cd 92be 43be 223e e739 56be 9e19 b6bd
000001a0: a76c 66bd 1f93 153e 4e2f 463e c596 edbd
000001b0: 57b4 c5bd 5632 b4be f35c 13be d3d7 213d
000001c0: 925b 803d c0c6 103e 6ca1 1b3d 1f6d 8ebe
000001d0: a258 fcbd e393 adbd 19ac ff3d 1e1c 6c3b
000001e0: fcc3 413d 7726 153e d169 ed3c 7f15 6e3e
000001f0: 5b63 9cbe b726 e53d a0e5 0a3e 1256 7fbe
00000200: b46d e13d 987f 953d eb10 2d3c e24e edbe
00000210: 639e 0ebe ad57 ca3d 4deb 2a3d 52b6 eb3d
00000220: 0240 16be aaa1 7abe 0275 923a d842 70be
00000230: d2d9 0a3e 8ccf 0cbe 0d62 2fbd e509 fdbd
00000240: fe45 bdbe 8996 4c3e b3f2 5bbd 3d1b a83e
00000250: 516d d7bd 369f 8dbd 2a66 943d 89fc 06be
00000260: a2b8 c8bd aa3a dc3d 11a4 debc d09c 853d
00000270: 8787 08be 5e7f 86bd 032c 9abc e1e3 1a3e
00000280: 377d 733e 3533 453d 58a1 a0bd b6a2 3fbb
00000290: 1527 773d 7a89 083e 492e 143d 32e6 acbb
000002a0: 68b4 803e 2642 cfbd 1ed7 00be b12a 7cbd
000002b0: 55e7 2cbe 2000 c6bd 5207 95bd 828e 103d
000002c0: 6440 113e a2ba 22be 1371 25bc 763c 8e3d
000002d0: 8bc3 373e e903 dabd 866b 953c eb31 b5bc
000002e0: 8a86 95bd 64ca 63bd 827a c73d fe29 8c3d
000002f0: 37d4 afbd 5b7d d8bd 9ebc cd3e a841 8c3e
00000300: 4e00 b13c d0ed 343d 4b4d c7bc f7cc cdbd
00000310: fcaf 053e f61e f73d cb39 9ebb a28a 013e
00000320: 6403 a7bd 29bb c8bc 1fba 033d 1db7 ae3d
00000330: 55b1 2ebd dfc9 363d 67b1 40be 722b f5bc
00000340: d5f9 bebd 870d 5a3e f61c 143e 6f2a 083d
00000350: 98ff 793d 7f2f db3c b834 a43d 3b99 ed3c
00000360: f906 213e 9203 f03c 9d59 91bd df33 23be
00000370: a099 c6bd 74e6 33be 0a92 143e f179 2bbe
00000380: 2653 983b 7032 013e b56a 7abe ac94 00be
00000390: 9280 61bd f04e 5abc dba2 663c 3e33 01be
000003a0: 3a99 1b3d cc70 123e 9796 fe3d f8e0 123c
000003b0: 6cb0 653e 1a8e 81be 567a e9bd cf9a 2e3d
000003c0: 3148 7f3e 2ec9 0f3e e7de 73bd 797c 973d
000003d0: e561 22be 5366 87be 8a3a 32be ed1e 513c
000003e0: 28e7 f7bd a08b e3bd 2b53 cc3d 3065 1d3d
000003f0: d911 14bc 3c33 38be ea00 03bd da32 a53d
0.12560956 -0.17077257 -0.15936328 0.08835122 -0.021249816 0.070392765 -0.012795188 0.16473432
-0.09246001 -0.018419346 0.10224926 -0.041711356 0.20459688 -0.13310301 0.072418824 -0.08893504
0.21335784 -0.12584211 0.20935896 -0.108397216 -0.036761172 0.06571027 0.19890568 -0.07558343
0.052854072 0.018510088 -0.015629152 0.15316617 0.132234 0.12378891 0.047484316 0.16906464
-0.06959121 0.08137951 -0.09441237 -0.14297724 -0.06484789 0.0065397033 -0.06125019 0.033134013
0.17216155 0.08659233 -0.05664141 0.13219392 0.23710938 -0.13356066 -0.18244496 0.028350968
-0.004687308 -0.12533411 0.10865978 -0.12203122 -0.015719367 0.031866338 0.13793929 0.018165763
0.080110766 0.03796656 0.14819439 0.039460137 0.036220647 -0.03440964 0.15259056 0.117187835
-0.05987054 0.16413999 0.10516538 -0.031040384 -0.08272632 -0.23082621 0.015591716 0.057028778
-0.043201648 -0.20712122 -0.013007997 -0.067199945 0.031233473 -0.13717216 -0.055550847 -0.04006729
0.25376102 -0.16330265 -0.1367125 0.102780916 -0.04066198 -0.0008709621 0.0184769 0.04894126
-0.22196218 0.006655206 0.09500194 0.039421238 -0.06575966 0.115167595 0.051203247 -0.022549363
0.00073238503 0.039131355 -0.054401383 -0.09419262 -0.28672504 0.15892892 -0.20920525 -0.08891605
-0.056255963 0.14606903 0.19353983 -0.11601023 -0.09653538 -0.35194653 -0.14390926 0.039512467
0.06267466 0.14138317 0.03799574 -0.27817628 -0.12321593 -0.08475473 0.12483997 0.0036027501
0.047306046 0.14565454 0.028981121 0.23250388 -0.30544552 0.11189025 0.13564157 -0.24935177
0.11007252 0.07299727 0.010563116 -0.46349245 -0.13927607 0.09880004 0.041728307 0.11509384
-0.14672855 -0.24475732 0.0011173787 -0.23462999 0.13559654 -0.13751048 -0.042818118 -0.12355403
-0.36967462 0.199793 -0.053698253 0.3283328 -0.10518897 -0.06915133 0.07246049 -0.13182272
-0.09800841 0.10753377 -0.027177842 0.0652405 -0.1333295 -0.06567262 -0.018819815 0.15125991
0.23778234 0.048144538 -0.07843274 -0.002924127 0.060340006 0.13333693 0.036176953 -0.005276465
0.2513764 -0.10120039 -0.1258206 -0.06156415 -0.16885121 -0.096679926 -0.07276787 0.035292156
0.1418472 -0.15891507 -0.01009776 0.06945126 0.17945687 -0.10645277 0.018239748 -0.02211853
-0.07301052 -0.055612937 0.097401634 0.06843947 -0.08585399 -0.10570785 0.40182966 0.27393842
0.02160659 0.04417211 -0.024328848 -0.100488596 0.13055414 0.12066452 -0.004828667 0.1265054
-0.081549436 -0.024503307 0.03215992 0.0853102 -0.042649586 0.044626113 -0.18817674 -0.029927943
-0.093249954 0.21294223 0.14464173 0.033243593 0.06103477 0.026756046 0.08017868 0.02900373
0.15725316 0.029298577 -0.070971705 -0.15937756 -0.096972704 -0.1756838 0.14508834 -0.16745736
0.004648584 0.12616897 -0.24454768 -0.12556714 -0.055054255 -0.013324484 0.014076914 -0.12617204
0.037987925 0.14300841 0.124310665 0.00896477 0.22430581 -0.25303727 -0.11400287 0.042628106
0.24929883 0.14041588 -0.059538748 0.07396788 -0.15857656 -0.26445255 -0.17405143 0.012763721
-0.121046364 -0.11110616 0.099768005 0.038426578 -0.009037458 -0.17988294 -0.031983294 0.0806634

lstm.bias_ih_l0 f4 [200]
00000000: 8aa3 1ebe e87c 0e3d 3846 833e 52ea 8e3d
00000010: d659 8ebe efda e63d 0976 45bd 659c 4abe
00000020: 3c6f babb 51c8 a7bd 46e5 71bd 458d 433d
00000030: 91b8 21bd ef96 87bc 9cec 35be 1a4c efbd
00000040: abc3 14be ee9f ae3d d8db 32be 2f52 963d
00000050: 5494 de3b 9512 823d bef6 2ebd f8a5 cb3d
00000060: 78ae b63d 72d1 1e3d dff7 883e 2124 4fbe
00000070: 2930 d2bd 2ef1 abbd 612c 25bd 130c b3bd
00000080: 01be eb3d 04b6 5d3d 7508 05be 3646 5abe
00000090: 1748 d83d 53ef a3bd ca72 a3bb 1198 efbd
000000a0: 8af1 96bd 63d4 0f3e 586e 48be 55f0 55be
000000b0: d86e ac3d 83ba e7bd 43d0 b73d 57df e2bd
000000c0: 799a 83bd 91c3 2fbd e958 9cbd bedb c4bd
000000d0: 02fa 8dbe ef31 8bbe 50e8 2cbe a558 453d
000000e0: 1063 4e3d 5fea ccbd dabf c83d 2c85 9d3c
000000f0: ecf6 57bd 171d bfbc b3b8 65be 4f33 bbbc
00000100: d00a 5bbe 590b b4bd 943e f0bd bc31 683d
00000110: c9c5 a6bd fedf 36be e67b d43c edde 45bc
00000120: 8be6 8abd 1f98 7bbe 0085 71be d84a 3d3d
00000130: b13d 5fbd 8318 2e3d 0ff1 67be 2cf6 543d
00000140: 81e9 21bd dcc2 b23c 47c0 b0bd e0ba 80be
00000150: affe 133c 0210 1bbe 7d0c f9bc 0267 16bc
00000160: 27a3 61bd ba6a 2fbe a611 1d3e 4969 463c
00000170: c301 55be 6298 853d 009c 8c3d 2dda 91bc
00000180: af94 033d d023 bdbd 546c 5cbe a6a1 52be
00000190: c780 bfbd 05b3 6c3d cc35 d13d d2b8 2f3e
000001a0: 5f23 adbb 0207 9fbd 9164 143d c2fd b1bd
000001b0: 003e d4bb 37aa ddbd 52b4 d0bd 07aa f83d
000001c0: e5f4 1cbd 33c9 913c 4811 093d e90f 92bd
000001d0: 6bb3 1bbc ecfb 95bd 0413 e83d cba7 31bd
000001e0: 02bc f8bc e7b2 b7bc 8833 e4bd 4237 78bc
000001f0: 8f8d d13c 5ade 85bc d8a2 803c d6f4 d53c
00000200: 37f3 9cbd bad9 93bd 52eb 733d f06e 37bd
00000210: b687 213c 370f 94bd 32f9 203d 5b3e 283d
00000220: c665 32bd cf58 993d 0362 823d aa90 bebc
00000230: 004d ff3c 9dad 66bd 49f0 233d 853c bf3c
00000240: 20ca c33d 8e00 583e 065d 8c3d e638 ee3c
00000250: e0ea 643d 6cb8 233d 815d 41bd a258 38be
00000260: 8f87 a43e 7497 0cbc 75c6 b6bd c70d 6dbd
00000270: dffe 13be ac6b ffbd 8327 8bbd 2af2 db3b
00000280: 036f 91bc c029 f83c f683 80bd 798c b03d
00000290: 971f e6bd 8184 833d 65e4 e1bd 0242 e5bd
000002a0: 2707 02bd a3bc 263e 05a1 853d 84a3 b9bd
000002b0: 6422 08be 6d20 563e a5af 92bd b694 45be
000002c0: 7fe3 8c3e 594f 65bd 797c 2cbe 452a ccbd
000002d0: 5922 453e 1029 c33d 2724 bfbd b257 1d3e
000002e0: 4185 21be df08 97bc 1753 3ebd 956b 223e
000002f0: f74a 86bd e214 063d 9d7c 353e 7980 6a3d
00000300: 23e1 13bd 4da2 abbd d640 36bd bd8d 573a
00000310: f67d 32bb 0dba 0c3d b41a 37bd dc99 33bd
-0.15492073 0.03478709 0.2563951 0.06978287 -0.27802914 0.11272227 -0.04820827 -0.19786222
-0.0056895297 -0.08192504 -0.059056543 0.047742147 -0.039482657 -0.016551463 -0.1776604 -0.11684437
-0.14527766 0.08526598 -0.17466676 0.07339894 0.0067925844 0.063512005 -0.04271578 0.099437654
0.08919996 0.03877396 0.2675161 -0.20228626 -0.10263092 -0.08395611 -0.040325526 -0.08742537
0.1151085 0.05412866 -0.12991507 -0.21315846 0.10560625 -0.08004632 -0.004988049 -0.11698926
-0.07370289 0.14045863 -0.19573343 -0.2089246 0.08419579 -0.11314871 0.0897527 -0.11077755
-0.06425948 -0.042911116 -0.07634146 -0.09612225 -0.27729803 -0.27186534 -0.16885495 0.04818024
0.050387442 -0.1000564 0.09802218 0.01922854 -0.052725717 -0.0233293 -0.22433738 -0.022851614
-0.21390843 -0.08791227 -0.11730686 0.056688055 -0.08143193 -0.17858884 0.025937986 -0.012077075
-0.06782254 -0.24569748 -0.23585892 0.046213955 -0.054502193 0.042503845 -0.2265055 0.05199258
-0.039529327 0.021821432 -0.08630424 -0.25142574 0.009032889 -0.15142825 -0.030401463 -0.009179832
-0.055087235 -0.17130557 0.15338764 0.012110063 -0.20801453 0.06523205 0.06865692 -0.01780423
0.032124218 -0.09235346 -0.21525699 -0.20569476 -0.09350734 0.057787914 0.10215339 0.17160347
-0.0052837576 -0.077650085 0.03622872 -0.086909786 -0.0064771175 -0.108234815 -0.10190643 0.12141805
-0.038319487 0.017796135 0.033463746 -0.07131941 -0.009503226 -0.07323441 0.11331752 -0.04337291
-0.030363087 -0.022424174 -0.11142641 -0.015149893 0.025580196 -0.016341377 0.01570265 0.026117723
-0.07663577 -0.072192624 0.05955059 -0.044783533 0.009859016 -0.072294645 0.03930015 0.04107509
-0.04355409 0.07487642 0.063663505 -0.02326234 0.031164646 -0.056317914 0.040024076 0.023344288
0.09560037 0.21093962 0.0685368 0.029079866 0.055888057 0.0399708 -0.047208313 -0.1800256
0.32134673 -0.008581031 -0.089245714 -0.057874467 -0.14452694 -0.12471709 -0.06794646 0.006712218
-0.01775313 0.030293345 -0.062751696 0.08620543 -0.11236494 0.064217575 -0.11029891 -0.111942306
-0.031745102 0.16282897 0.06524853 -0.09064391 -0.13294369 0.20910807 -0.07162408 -0.1929501
0.27517316 -0.055983875 -0.16844358 -0.09969 0.19251384 0.095293164 -0.093330674 0.15365484
-0.15773489 -0.018436847 -0.04646596 0.15861352 -0.06557267 0.03273476 0.17723317 0.057251427
-0.03610338 -0.08380566 -0.044495426 0.000822272 -0.0027235723 0.03435712 -0.0447032 -0.043847904

lstm.bias_hh_l0 f4 [200]
00000000: 6cb4 663d 6842 80bb 04fd a13e 1cc4 f0bd
00000010: 674b 57be 3687 25bd f0be 72be 1665 893d
00000020: 35cf 03be 51e3 56be 5b0b fbbc 01a4 aabc
00000030: 62ca 493d da35 1e3d 3465 33bd be69 763d
00000040: 1c9a 32bd 25dc 15be 7c71 33be 6400 dc3d
00000050: af9d 65bd c345 713d 106d cbbd 916d b53d
00000060: 228f 8cbc afab 40be dd9b 893e 31b9 593d
00000070: a632 cbbd b295 19be 9dbf 163e fa01 b03d
00000080: 5786 923b 509c a63d a63a 52bc e727 4dbe
00000090: 7305 b13b b370 03be 144d e7bd 5c99 babb
000000a0: ba26 583d fa2c 783e 5a76 afbc 68ed f0bd
000000b0: e0de c13d 2914 703d 1b96 723c e1a2 2cbc
000000c0: 2296 edbb 06b5 423d ce3b 883c e93b 5d3c
000000d0: 772c 19be 2ae4 44bd 5510 24be 6fb8 26be
000000e0: b72e 3ebe b472 8fbd b300 593d 2062 adbd
000000f0: 5e6d eb3c 0473 1a3c 8a50 eabd 09be a43d
00000100: 8594 a9bd 6537 5ebe 43b0 b9bd 6923 993c
00000110: c993 16be cd1c 15be 3c72 dbbd 7fd0 e2bc
00000120: 7f63 163c 1b2b 0cbd 66d7 40be 2a12 1c3c
00000130: a6ea c1bd 090f 07be 1eb5 46be 63a8 f3bd
00000140: 113b 2dbe b578 1cbd 4d59 03bd 3147 5ebe
00000150: c24c 43bd f4f2 28be eb7f 9839 a469 4fbe
00000160: da88 31be 415a 3fbd 7935 c53c 02ef 0f3d
00000170: 4900 303c 7607 2dbd 1c3e 333e becb 04be
00000180: 12e2 8cbd 5173 b1bd ceff 68bd 3ec9 6dbd
00000190: 2331 393c 6ccd 95bc 694b cbbd 0ffa 64bc
000001a0: 4e86 703c 745d c03c 2b91 003e 5f02 713d
000001b0: 2eaf 533d adab f9bc 3d51 f7bc 1dc8 1bbd
000001c0: 71d5 90bc 72e8 593d db13 903c d84a dd3d
000001d0: 18b1 b2bd e6aa 1d3b 95f9 48bd e262 b2bd
000001e0: 26c1 e5bd 808c 123e f71e 18bc d42e 443d
000001f0: 7bae 7fbd 9ae1 03be e4c3 603d 932f 183d
00000200: 3645 d5bd c3d8 913d fbee 693d 111a 9c3b
00000210: 9af6 b73d 85f6 0ebd 49ae 343b ca4a 8c3d
00000220: 95cb 22be da0d f13d 5029 6fbc cd55 7abd
00000230: 08b7 6a3c 2301 b4bd 75a7 87bd 8d10 6bbd
00000240: c856 883c 4b78 253e 67e1 fd3c 0655 d23d
00000250: 1265 393c 26a7 603d ea64 f8bd 1131 dbbd
00000260: b826 6f3e c70b 27be c4da 34be cb66 26be
00000270: 159f 54bc 9204 cebc 037a 29bc fd79 943d
00000280: 0cbe d3bc 79c4 b6bd fb23 6abe 0321 10be
00000290: 7028 62be e0b3 5c3d 6d53 24be a08c ae3c
000002a0: 1245 c23c 997e a53c d17a 853d 1cf9 babd
000002b0: 550c f2bd f200 60bc 6df2 e6bd 506a 1fbd
000002c0: 4053 b93d 80ae 15be bbda 53be b2d6 71be
000002d0: 9959 503e 21f2 2c3d 30d4 94bd 6126 653e
000002e0: 0d65 cebd 0405 683c b49c 32be 8731 473c
000002f0: 2969 55bd e265 debd 033e a1bd 3538 efbc
00000300: 84ea 14be 1f4f 72be fcc5 debd a47d 88bd
00000310: 6e6c d7bd 47ca eaba ab70 2b3e 4a9e a8bc
0.056324407 -0.0039141662 0.31638348 -0.11756155 -0.21024857 -0.04041215 -0.2370565 0.06708734
-0.12872012 -0.20985152 -0.030645063 -0.020830156 0.049265273 0.038625576 -0.043797687 0.060159437
-0.043604 -0.1463476 -0.1752376 0.10742262 -0.056058582 0.05890442 -0.099329114 0.08858789
-0.017158095 -0.18815492 0.26876727 0.053155128 -0.0992177 -0.1499851 0.14721532 0.08594127
0.004471581 0.08135283 -0.012831366 -0.20034753 0.005402261 -0.1283596 -0.11293998 -0.0056945514
0.052771308 0.24235907 -0.02141874 -0.11764032 0.09466338 0.058612976 0.014806296 -0.01053688
-0.0072505632 0.04753592 0.01663008 0.013503053 -0.14958368 -0.048069157 -0.16021855 -0.16281293
-0.18572508 -0.070043 0.052979182 -0.084659815 0.028738674 0.009426836 -0.11441143 0.08044059
-0.08280281 -0.21700819 -0.090668224 0.018693643 -0.14704813 -0.14561768 -0.10715148 -0.02768731
0.009178995 -0.034220796 -0.18832168 0.009525815 -0.09468584 -0.13189329 -0.19405028 -0.118973516
-0.16917063 -0.038201053 -0.032067586 -0.21706845 -0.047680624 -0.1649893 0.00029087006 -0.20255142
-0.17337361 -0.046716932 0.02407335 0.035140045 0.0107422555 -0.042243443 0.17504162 -0.12968346
-0.06879057 -0.08664573 -0.05688458 -0.058053248 0.011303219 -0.01828643 -0.09926493 -0.013975634
0.014680458 0.023482062 0.12555377 0.058840152 0.051680736 -0.03047737 -0.030190105 -0.03803264
-0.017679902 0.053200193 0.017587593 0.10805291 -0.08725184 0.0024058162 -0.049066145 -0.08710267
-0.11218481 0.14311409 -0.009284726 0.04789622 -0.062422257 -0.12879029 0.054874316 0.037154745
-0.104135916 0.07121422 0.057112675 0.0047638495 0.089825824 -0.034903068 0.0027569702 0.068502024
-0.15897973 0.1177022 -0.014597252 -0.061116982 0.014325865 -0.08789279 -0.06623737 -0.05738883
0.016642943 0.1615917 0.03099127 0.10270123 0.011315601 0.054846905 -0.12128623 -0.10702718
0.23354614 -0.16313086 -0.17661577 -0.1625015 -0.012977381 -0.025148664 -0.010344031 0.0724983
-0.025847457 -0.08924193 -0.22865288 -0.14075093 -0.22085738 0.05388248 -0.1604745 0.02130729
0.023714576 0.020201968 0.06517566 -0.09129545 -0.118187584 -0.0136721 -0.11276708 -0.038919747
0.09049082 -0.14617348 -0.20688908 -0.23617056 0.20346679 0.0422231 -0.07267034 0.22377922
-0.10077868 0.014161352 -0.1744259 0.012157804 -0.05210224 -0.10859276 -0.07873156 -0.029201606
-0.14542586 -0.23662995 -0.10877606 -0.06664589 -0.10518728 -0.0017913067 0.16742198 -0.02058329

lstm.weight_ih_l1 f4 [200, 50]
00000000: 5e3c 9e3c b0ba 2e3e 3207 673d 9b10 02be
00000010: 174f 303c bdd5 7ebd 31b4 473c 244e 533d
00000020: bf6c 14be 9ad3 26bc f053 a13d 18b6 82be
00000030: 2142 573d 86c2 d6bd d172 6cbd f3a3 df3b
00000040: d833 893e f28e ddbd bd8c 863c 2724 df3d
00000050: 26c8 a6bd e776 1bbe 48b1 a53d a599 25be
00000060: 0478 613e f268 ec3c 4760 56be 2b8b 7fbd
00000070: 07bc 503d eee0 4a3d 46a5 e93c 4590 e8b9
00000080: 2a4d 80bd 30b4 c53b d58b fe3d 7582 353d
00000090: 8c47 0a3e 903c 15be 5767 f9bd d5a8 97bd
000000a0: 837e 3d3e 39d7 1cbd 7fe4 e73d ecdb f13d
000000b0: d204 253a b8bb 5cbe b462 9e3d c4a2 43be
000000c0: 0057 a4ba a844 0cbe 8c01 1ebe 4637 8a3d
000000d0: e5a5 0ebd 3f49 d1bd 4309 59bd 641c ef3c
000000e0: 30b3 903d 47ee 3c3e 5366 073d 376d 98bc
000000f0: cae2 fc3c 9014 b9bd c0a4 3abc 70a4 d9bc
00000100: f553 57bd fe6c fb3c 51e9 963d e185 ffbd
00000110: da05 3dba 043b 68bd 084c dcbd d3d9 76be
00000120: 61bc 583e 2b64 39be 666d 2abe 3ec9 563d
00000130: ff9d a93d 5616 ba3d 8d71 883d 6acc 973d
00000140: 026d 623d 998b 6b3e eaa8 a6bc f098 043e
00000150: 597b b33d 7306 8abd 0ebb 813d ac42 b1bd
00000160: 5d1e b5bd 08c9 fb3d eec9 e53d baad 1a3d
00000170: 75c3 4b3d 8f7d 063e d477 783c 798d 6dbe
00000180: a333 28be 56bf 92bd 77b3 46bd 246d 26be
00000190: f3e8 27be c408 b73d ca22 db3d 8276 ac3d
000001a0: 65ae 18be 26c7 1f3e 3e7f 483e 1f36 a33d
000001b0: f5b2 153e e7cb 8b3c 0eae 81bd 04da 4dbe
000001c0: be64 4abe c788 60bd 151a aa3d 8a7e b2bd
000001d0: 18f0 5639 e673 f9bd 8841 633d 89ca 95be
000001e0: 4ae0 1fbe cf6f 893c 41af fe3d 6684 fb39
000001f0: 95aa 99be 5690 d13c 5f10 9ebd 9ff0 61bc
00000200: 1b1e 803d fad9 f7bd a968 2a3d b036 9dbd
00000210: 4d8d c03d 883f d2bd 7a45 b53d 3392 073e
00000220: 49d5 123e 0572 773e 815f de3d 36e1 e63d
00000230: f6f5 8e3e 0c45 c03e 20c7 873e 5bf8 cebd
00000240: 0269 a1bd dc37 053e c214 ab3b e04f 263d
00000250: 240f 06bd ab11 44be e31d 45be f621 613d
00000260: e299 a4bc 2a52 84bd 4d23 73bd c0cf 353e
00000270: 3be4 a8bc e86a b03d 82dc 09bd 521a 26be
00000280: 181e c03d 4953 c1bc 8936 88bd 9c4f 5bbd
00000290: d1cd 7e3d dd4c e63d cc2b 4e3e 5923 ecba
000002a0: 32e8 d9bd 81a8 843d 4b8e 39be 58af 0bbc
000002b0: 917d 1e3e f520 f3bd a42d 10bd 1305 8ebc
000002c0: 8b58 0abe ccb6 3bbc a1d5 0cbe a0aa 93bd
000002d0: 9667 533c 6923 4e3d c11a 873c 55b2 1ebc
000002e0: 984c c23d e31e 503d 44ed e13c 1100 183e
000002f0: 9f51 14be 0a7a 3dba 7726 263e 3ba8 883c
00000300: 7279 13be eba0 333e 64da 35be 6a03 38bd
00000310: e079 b03c 3fd3 f93d 18c8 1d3e 1513 053d
00000320: 32b1 0cbd a9a3 3a3d c0c4 06be 01ea f8bb
00000330: db41 d3bc 8758 053d 4836 51bc a3cc 853d
00000340: 3be4 b5bd 581d 3e3d 2f2b 4a3e 8415 dabd
00000350: a731 3f3d f6cc 40be 37d3 e8bd df64 26bd
00000360: 2d12 9c3d 4104 24bd 6ca2 143e 5b6e 94be
00000370: 6d17 6c3d 5cdb 9fbd 7e4f 7ebd d039 70be
00000380: c707 04be 2d1c 093e 2b46 da3d b7db 463e
00000390: ce44 3fbd 92f3 47be 3f88 b13d ba7f 533d
000003a0: dd30 9fbd 56cc 95bd 9c29 803d 0c69 19be
000003b0: 6073 963d 5f84 123d 7495 44be de35 0abe
000003c0: e336 843d 3a35 013c 3dad fb3b 99e8 87bc
000003d0: 414f f1bd a7df 8cbe 3eea 903d a53f e53c
000003e0: acc3 823e bea1 153e c6c9 87bd 45d9 7f3e
000003f0: b52c d13c 80ee 64bd f3b2 d5bc 4f0c ea3d
0.019315895 0.17063403 0.056403346 -0.12701647 0.010761044 -0.062215555 0.012188957 0.051588193
-0.14494608 -0.010182286 0.07877338 -0.25529552 0.0525533 -0.10486321 -0.057726685 0.006824964
0.26797366 -0.1081828 0.016424531 0.108955674 -0.08143644 -0.15182076 0.08090454 -0.16171892
0.22018439 0.028858636 -0.20935164 -0.06238858 0.050960567 0.049530916 0.028521191 -0.00044357977
-0.06264718 0.006033443 0.124290146 0.044313867 0.13503855 -0.14573884 -0.12177914 -0.07405249
0.18505292 -0.03829119 0.11322879 0.11809525 0.0006294969 -0.21555984 0.0773367 -0.19105059
-0.0012538135 -0.13698065 -0.15430278 0.06748824 -0.034826178 -0.10219049 -0.05298735 0.029188342
0.07065427 0.1845027 0.03305657 -0.018606765 0.03086986 -0.09037125 -0.0113918185 -0.026567668
-0.052570302 0.03069162 0.0736872 -0.12476707 -0.000721065 -0.056696907 -0.10756689 -0.24106531
0.21165611 -0.18104617 -0.16643295 0.052438013 0.082820885 0.090862915 0.06662283 0.07412036
0.05527974 0.23002471 -0.020344216 0.12948966 0.08763761 -0.06739511 0.06334506 -0.08655295
-0.08843682 0.12294203 0.11220156 0.037763335 0.04974695 0.13133834 0.015165288 -0.23198499
-0.16425948 -0.07165401 -0.048510995 -0.16252571 -0.16397457 0.08937219 0.10699995 0.08421041
-0.14910276 0.15603313 0.19579789 0.07969307 0.14619048 0.017065002 -0.063320264 -0.20102698
-0.19764993 -0.05481794 0.08305756 -0.08715542 0.00020498072 -0.12180309 0.055482417 -0.29256085
-0.15612903 0.016776947 0.12435771 0.00047973095 -0.30012956 0.02558152 -0.07717966 -0.013790279
0.06255742 -0.121021226 0.041603718 -0.076764464 0.09401951 -0.10266024 0.08851142 0.13239364
0.14339174 0.24164589 0.1085806 0.11273424 0.27922028 0.3755268 0.26519108 -0.10105964
-0.07881357 0.1300959 0.0052209804 0.04060352 -0.032729283 -0.19147365 -0.19249682 0.05496403
-0.020092908 -0.06460984 -0.059359837 0.17755032 -0.020616641 0.08614141 -0.03365756 -0.16220978
0.0938074 -0.023599284 -0.06651027 -0.05354272 0.062208 0.11245129 0.20133895 -0.0018015906
-0.10639991 0.06477452 -0.18120687 -0.008525692 0.15477587 -0.118715204 -0.035199776 -0.017336404
-0.13510339 -0.011457156 -0.13753368 -0.072102785 0.012903115 0.05032674 0.01649225 -0.009686072
0.09487265 0.050810706 0.027578957 0.14843775 -0.14484261 -0.0007227963 0.1622561 0.016681781
-0.14401796 0.17541854 -0.1775909 -0.04492513 0.02154249 0.12198495 0.15408361 0.0324889
-0.034348674 0.045566235 -0.13160992 -0.007596255 -0.025788238 0.03255513 -0.012769289 0.06533172
-0.08881422 0.046414703 0.19743036 -0.10648635 0.04667821 -0.18828186 -0.11368411 -0.040623542
0.07620654 -0.04004312 0.14515084 -0.28990445 0.057639528 -0.07805511 -0.06208753 -0.23459554
-0.12893592 0.13389654 0.10657915 0.19419752 -0.046696477 -0.19526508 0.08668565 0.05163548
-0.07772992 -0.073143646 0.06257936 -0.14981478 0.07346225 0.03577077 -0.19197637 -0.13497111
0.06455781 0.007886225 0.0076805637 -0.016590403 -0.117826946 -0.27514383 0.07075928 0.02798445
0.2553991 0.14612481 -0.06630282 0.24985225 0.025534013 -0.055891514 -0.026086306 0.11428129
